DFT/checkpoints/NN_PBE/state_dict_star_star_0.18.pth (torch, 60796 bytes, 32 tensors)

hidden_layers_x.0.weight f4 [32, 2]
0	0x3ef12016	0.47094792
1	0x3e9d10e6	0.30676955
2	0xbed1041a	-0.40823442
3	0x3f2201c9	0.63283974
4	0xbf27464b	-0.65341634
5	0xbe5b6a83	-0.2142735
6	0x3eb5c55c	0.35502136
7	0x3e5882f7	0.21143709
8	0xbf1066ae	-0.56406677
9	0xbd830111	-0.06396688
10	0xbe92fbe4	-0.28707802
11	0xbe24711b	-0.16058771
12	0xbf278970	-0.6544409
13	0x3e7fa39d	0.24964757
14	0x3f1d07fd	0.61340314
15	0x3eb2c0de	0.3491277
16	0x3ebbccab	0.36679587
17	0xbf05e926	-0.5230888
18	0xbec884f9	-0.3916395
19	0x3da74b0f	0.08168613
20	0x3e3ca643	0.18422799
21	0xbecd7313	-0.40126857
22	0xbf384320	-0.71977425
23	0xbe18fb2d	-0.14939566
24	0xbe031eda	-0.12804738
25	0x3ec2cfc8	0.3804915
26	0xbde9b6ff	-0.11411857
27	0xbecce936	-0.40021676
28	0xbe4e9540	-0.20174122
29	0xbcc1986e	-0.023632254
30	0xbf261846	-0.6488079
31	0x3ea20177	0.31641743
32	0x3f05631c	0.52104354
33	0xbf3ef07a	-0.7458569
34	0x3eb22c3d	0.34799376
35	0xbec905f0	-0.39262342
36	0x3d6bcdcf	0.05756932
37	0xbeef8b11	-0.46785787
38	0xbf094e70	-0.5363531
39	0xbeef75a3	-0.46769437
40	0x3ea45a46	0.32100123
41	0xbeb2a77f	-0.34893414
42	0xbe0d7d1e	-0.1381726
43	0x3ed987b0	0.42486334
44	0xbe4d7bfd	-0.20066829
45	0x3f3c5c06	0.73577917
46	0x3eca97a2	0.39568812
47	0x3e97c988	0.29645944
48	0x3eb1a1a9	0.3469365
49	0xbe8cbc68	-0.27487493
50	0xbd8af35c	-0.06784698
51	0x3e38c7ad	0.1804492
52	0xbee607b1	-0.44927743
53	0x3f04a395	0.51812106
54	0xbef19cb8	-0.4718988
55	0xbd9e6742	-0.077345386
56	0xbeb3c2df	-0.35109612
57	0xbea6ca4f	-0.32576224
58	0x3f3c6a87	0.7360005
59	0x3f286230	0.6577482
60	0xbeca7a86	-0.39546603
61	0x3e7f61c6	0.24939641
62	0x3d723620	0.05913365
63	0xbdc34a0b	-0.09535607

hidden_layers_x.1.weight f4 [32]
0	0x3f71b4b5	0.9441636
1	0x3f71f34f	0.94511884
2	0x3f847341	1.0347673
3	0x3f736ff9	0.9509273
4	0x3f7d6a3d	0.9899023
5	0x3f6b7e84	0.9198992
6	0x3f847eda	1.0351212
7	0x3f81c90a	1.0139477
8	0x3f808d1e	1.0043066
9	0x3f81d7c0	1.0143967
10	0x3f6d69dd	0.9273966
11	0x3f8c173f	1.0944594
12	0x3f86a14a	1.0517972
13	0x3f6c5bfa	0.92327845
14	0x3f5fc11d	0.8740404
15	0x3f657527	0.89631885
16	0x3f803632	1.0016539
17	0x3f6dbec4	0.9286921
18	0x3f7598f2	0.959365
19	0x3f551383	0.832329
20	0x3f6679e1	0.9002972
21	0x3f82042b	1.0157522
22	0x3f80adad	1.0053002
23	0x3f7b24d3	0.98103064
24	0x3f6d796a	0.9276339
25	0x3f822a7c	1.0169215
26	0x3f6fc654	0.93662
27	0x3f7f79d9	0.997953
28	0x3f707bac	0.9393871
29	0x3f6df1da	0.9294716
30	0x3f5ada02	0.85488904
31	0x3f595086	0.84888494

hidden_layers_x.1.bias f4 [32]
0	0xbd7fdc21	-0.06246579
1	0xbd80d341	-0.062902935
2	0x3d600cb0	0.0546996
3	0x3d66bdad	0.056333233
4	0x3d5ad55f	0.053426143
5	0xbd6070bc	-0.054795012
6	0x3d30f0df	0.043198463
7	0xbd5eef1e	-0.05442726
8	0x3d655322	0.055987485
9	0x3d73812b	0.059449356
10	0x3d433242	0.04765535
11	0x3d97bd10	0.07409108
12	0x3d8f4dbe	0.0699725
13	0x3d867ae9	0.06566412
14	0xbd98d691	-0.074628
15	0x3d47e738	0.04880449
16	0x3d5da884	0.054115787
17	0x3d81da32	0.063404456
18	0xbd719c85	-0.05898716
19	0xbd897dd5	-0.06713454
20	0xbd625aa9	-0.05526224
21	0x3d824b7d	0.063620545
22	0x3d68be13	0.056821894
23	0xbd42ff15	-0.047606546
24	0x3d349c1f	0.0440942
25	0x3d88320a	0.06650169
26	0xbd446d22	-0.04795564
27	0x3d505dfc	0.05087088
28	0x3d91d49c	0.0712063
29	0x3d8d43bb	0.06897684
30	0x3d8737c0	0.0660243
31	0x3d631ebe	0.05544924

hidden_layers_x.3.fc.0.weight f4 [32, 32]
0	0xbded5db2	-0.115901366
1	0xbd37468c	-0.044745013
2	0x3d88d62d	0.06681476
3	0x3c6adbe4	0.014334653
4	0xbc1609be	-0.009157596
5	0xbd295d49	-0.04134873
6	0x3c82efca	0.015983481
7	0x3d8a9e6f	0.067685
8	0x3ce3fe20	0.027831137
9	0x3d99213c	0.07477042
10	0xbd45bcc3	-0.04827572
11	0xbcbc372b	-0.022975525
12	0x3c5deebe	0.01354569
13	0xbd4933c8	-0.049121648
14	0x3d26b942	0.04070402
15	0xbd64172b	-0.055686157
16	0xbe2370f1	-0.15961052
17	0x3d300426	0.042972706
18	0xbcaae7a7	-0.020862414
19	0x3dcc24e0	0.09967971
20	0xbcadb878	-0.021206126
21	0xbe326952	-0.17422989
22	0xbe428e3f	-0.18999575
23	0x3e05b084	0.13055617
24	0xbd2bf8bd	-0.041985262
25	0xbe6e171b	-0.23251002
26	0x3df967bf	0.12177991
27	0xbe02f94d	-0.12790413
28	0xbdc08e89	-0.094021864
29	0xbcf7af51	-0.030234965
30	0xbe769cfc	-0.24083322
31	0x3bed056e	0.0072333133
32	0x3d3030e6	0.043015383
33	0x3e20789c	0.15671009
34	0xbdc334ca	-0.09531553
35	0x3da27cb1	0.07933939
36	0xbdefd054	-0.11709657
37	0x3ddd7dad	0.108149864
38	0x3df2657b	0.11835762
39	0xbca3da39	-0.020001518
40	0x3de20dda	0.11037798
41	0x3e3d950c	0.18513888
42	0xbe02023b	-0.12696163
43	0xbdd51b7d	-0.104056336
44	0x3d11ccd7	0.03559574
45	0x3d60a278	0.054842442
46	0xbd0db9c2	-0.03460098
47	0xbc9f174a	-0.019420285
48	0xbc8aff4e	-0.016967442
49	0x3d3b7590	0.045766413
50	0x3c93dc26	0.01804931
51	0x3d5be216	0.05368241
52	0x3aedca7e	0.0018142012
53	0xbe5f10a9	-0.21783699
54	0xbe05d0e7	-0.13067971
55	0xbe6fa71a	-0.23403588
56	0xbd11d437	-0.035602774
57	0xbd9206cf	-0.07130205
58	0x3de2b715	0.110700764
59	0xbbe34a04	-0.0069363136
60	0x3d156651	0.03647453
61	0xbe310f2a	-0.17290941
62	0xbe4b7ec3	-0.19872575
63	0xbe845ad5	-0.2585055
64	0x3d644619	0.055730913
65	0x3e072e86	0.13201341
66	0xbdc749e3	-0.0973089
67	0x3d1f457f	0.038884636
68	0xbcae279c	-0.021259122
69	0xbc8f5675	-0.01749728
70	0x3d815c86	0.063164756
71	0xbd935f10	-0.07195866
72	0x3c01533a	0.007893378
73	0x3df2e869	0.11860735
74	0xb9823a1a	-0.0002483882
75	0x3cc0c1d4	0.023529924
76	0xbe236457	-0.15956245
77	0xbd80ea25	-0.062946595
78	0xbdaca3c5	-0.08429674
79	0x3daf5e2b	0.08562883
80	0xbb7639eb	-0.0037571143
81	0xbdba6312	-0.091009274
82	0xbd865deb	-0.06560882
83	0x3cf66a09	0.030079858
84	0x3e29136f	0.1651132
85	0x3d5918f1	0.0530023
86	0xbdc5095f	-0.09620928
87	0xbd9f35f4	-0.077739626
88	0xbe57d8a4	-0.21078736
89	0x3dc7cb8f	0.097556226
90	0x3d462de0	0.048383594
91	0xb93399a2	-0.00017128003
92	0xbe2bb26f	-0.16767286
93	0xbe3861f4	-0.18006116
94	0xbe657fe9	-0.22412075
95	0x3d92c64b	0.07166728
96	0xbdb9722b	-0.09054979
97	0xbd133d7d	-0.03594731
98	0x3d365e42	0.044523485
99	0xbe74f061	-0.23919822
100	0x3d89157c	0.06693551
101	0xbcfdc635	-0.030978302
102	0x3be202b5	0.0068972954
103	0x3cb707e1	0.022342624
104	0xbc72399b	-0.014784242
105	0xbcc64543	-0.024202948
106	0xbe0d4611	-0.1379626
107	0xbe0ec959	-0.13943996
108	0x3da0ad31	0.07845534
109	0x3d1fd28a	0.039019145
110	0x3e8510b4	0.25989306
111	0x3d80e2bc	0.06293246
112	0xbe0691e4	-0.1314159
113	0x3db63b67	0.08898049
114	0x3c85f081	0.016350033
115	0x3c8dcbc9	0.017309086
116	0x3dce0809	0.10060126
117	0xbdf5ddaa	-0.1200517
118	0xbd9bf464	-0.07614973
119	0x3e77fd42	0.24217704
120	0xbdf7794d	-0.12083683
121	0xbc41ef70	-0.0118368715
122	0xbcddfdea	-0.027098615
123	0xbe3cda5f	-0.18442677
124	0x3dba13f3	0.09085836
125	0xbd4377e3	-0.047721755
126	0x3db6a138	0.08917469
127	0xbc931595	-0.017954627
128	0x3d4942f6	0.049136125
129	0x3d1ea73c	0.038733706
130	0xbe6a5cae	-0.22886917
131	0xbe4747df	-0.1946101
132	0x3d4a3ac9	0.04937247
133	0xbda17354	-0.07883325
134	0xbe6f7509	-0.23384489
135	0xbb727544	-0.0036996165
136	0xbe435f12	-0.19079235
137	0xbdab8bf8	-0.08376306
138	0x3be1a83a	0.0068865092
139	0xbe86095f	-0.26179025
140	0x3c835d7f	0.016035793
141	0xbda5cc27	-0.080955796
142	0xbd335f87	-0.043792274
143	0xbd08e039	-0.03341696
144	0xbe0372bf	-0.12836741
145	0xbe50de6e	-0.2039735
146	0x3d16bb48	0.0367997
147	0x3d70af0a	0.05876068
148	0x3e2f57b7	0.17123304
149	0xbda167bc	-0.07881114
150	0xbe1fed31	-0.15617825
151	0x3e3c017c	0.18359941
152	0x3e025cba	0.12730685
153	0xbe6637bb	-0.22482197
154	0x3bbaee3e	0.00570467
155	0xbe216470	-0.1576097
156	0xbe3e3ced	-0.18577929
157	0xbd56f12b	-0.05247609
158	0xbe56464c	-0.20925254
159	0x3cdcce1e	0.026953753
160	0xbe384edf	-0.17998837
161	0xb98e9e99	-0.00027202515
162	0x3d587184	0.052842632
163	0x3d9e7ea1	0.07738996
164	0x3d8c06b0	0.06837213
165	0xbde672f7	-0.112523966
166	0xbdbf1341	-0.09329844
167	0xbd6ff426	-0.058582447
168	0xbdb9e4ee	-0.09076868
169	0x3e6e7196	0.23285517
170	0xbcc424e2	-0.023943368
171	0xbd6481e9	-0.055787954
172	0xbc363363	-0.01112065
173	0x3d778f66	0.06043949
174	0xbcd89421	-0.02643782
175	0x3e028c07	0.12748729
176	0xbe00549d	-0.12532277
177	0x3cc98ba3	0.024602717
178	0x39df130e	0.0004254807
179	0xbe253580	-0.1613369
180	0x3d88db0e	0.06682406
181	0x3e5eb44a	0.21748462
182	0x3da1e3e1	0.079047926
183	0x3e12077b	0.14260666
184	0x3cdb85dc	0.026797228
185	0x3e0af05b	0.13568251
186	0xbe100c13	-0.14067106
187	0x3e26510f	0.16241859
188	0xbddfab7f	-0.10921382
189	0x3df6d756	0.12052791
190	0x3dbbe05f	0.09173655
191	0x3e4ad84d	0.19809075
192	0x3d882835	0.06648294
193	0x3df01b09	0.117239065
194	0x3e141243	0.14460091
195	0xbe0ffe31	-0.1406181
196	0x3cb6ba45	0.022305617
197	0x3dd172da	0.10226984
198	0x3e569781	0.20956232
199	0x3852ddd1	5.0274484e-05
200	0x3e036520	0.12831545
201	0xbcd6eb77	-0.026235325
202	0x3d86fbd2	0.06591
203	0xbdf664b8	-0.12030929
204	0xbdbf4bc0	-0.0934062
205	0x3d63643e	0.05551552
206	0x3e14ca4f	0.145303
207	0x3e1f0985	0.15530975
208	0x3dc864e8	0.09784871
209	0xbe2ffda8	-0.17186606
210	0xbe42749b	-0.18989794
211	0x3d9878c6	0.07444911
212	0xbe155133	-0.14581756
213	0xbe15a175	-0.14612372
214	0x3ccd19e7	0.025036765
215	0xbca9109e	-0.020637807
216	0xbdd8d96b	-0.10588344
217	0x3da9a9f1	0.08284367
218	0xbe1b50e0	-0.1516757
219	0x3d056d87	0.032575157
220	0x3ddaa356	0.10675685
221	0xbe4e2985	-0.20133026
222	0x3e118fae	0.14214966
223	0xbc35ab4f	-0.011088206
224	0x3d4786ab	0.048712414
225	0x3e33bc25	0.1755224
226	0x3d8052ad	0.06265769
227	0xbd4b5877	-0.049644914
228	0xbd621fdc	-0.055206165
229	0xbd887196	-0.0666229
230	0xbdb4e3c2	-0.08832504
231	0x3df7c7f2	0.120986834
232	0xbdab9b6e	-0.08379255
233	0xbd4d249a	-0.050083734
234	0xbd6fece4	-0.058575526
235	0xbda949f3	-0.08266058
236	0x3d91ba3b	0.07115599
237	0xbe0f694f	-0.14005016
238	0xbd944244	-0.07239202
239	0xbe16f766	-0.14742813
240	0xbe3758a1	-0.17904903
241	0xbe000c45	-0.1250468
242	0x3e2a915b	0.16657011
243	0x3e4003c1	0.18751432
244	0x3dd5fd9d	0.104487635
245	0xbe00beac	-0.12572736
246	0xbe069784	-0.13143736
247	0xbcae1eab	-0.021254858
248	0x3d32361b	0.04350863
249	0x3c91dd01	0.017805578
250	0x3d92d4cc	0.07169494
251	0xbe6e7afe	-0.23289105
252	0xbd4c4082	-0.049866207
253	0xbe278011	-0.16357447
254	0xbdde8866	-0.1086586
255	0xbd819b05	-0.06328396

hidden_layers_x.3.fc.1.weight f4 [32]
0	0x3f67901d	0.90454274
1	0x3f67e9dc	0.90591216
2	0x3f70b303	0.9402315
3	0x3f6e15b8	0.9300189
4	0x3f9445c3	1.158379
5	0x3f758327	0.9590325
6	0x3f7292d1	0.94755274
7	0x3f863785	1.0485693
8	0x3f77fcf6	0.9687036
9	0x3f8139fc	1.009582
10	0x3f8583c7	1.043084
11	0x3f842857	1.0324811
12	0x3f85b194	1.0444818
13	0x3f731111	0.94947916
14	0x3f825e9a	1.018512
15	0x3f87f446	1.0621421
16	0x3f71d00b	0.94458073
17	0x3f89dff6	1.0771472
18	0x3f808196	1.0039546
19	0x3f717ce1	0.94331175
20	0x3f6cdbd7	0.9252295
21	0x3f859863	1.043713
22	0x3f828895	1.0197932
23	0x3f6de05e	0.9292048
24	0x3f883a15	1.0642725
25	0x3f6a17b5	0.91442424
26	0x3f813eec	1.0097327
27	0x3f8c2009	1.0947276
28	0x3f773e9b	0.96579903
29	0x3f8fdfb8	1.1240149
30	0x3f871424	1.0553021
31	0x3fa754a8	1.307271

hidden_layers_x.3.fc.1.bias f4 [32]
0	0x3d8d1769	0.06889231
1	0xbd632020	-0.05545056
2	0x3d8aedd2	0.06783642
3	0x3d723b50	0.059138596
4	0xbd6502b5	-0.055910785
5	0x3d89ddff	0.067317955
6	0xbd66149e	-0.056172006
7	0xbd80a3c3	-0.06281235
8	0x3d445ac4	0.047938123
9	0x3d80397c	0.06260964
10	0xbd847ba8	-0.06468898
11	0xbd761484	-0.06007816
12	0xbd680250	-0.05664283
13	0x3d44de87	0.04806378
14	0x3d83c66e	0.06434332
15	0x3d4d84d3	0.0501755
16	0xbd76ea15	-0.06028183
17	0xbd8dea03	-0.069294
18	0xbd6c9b3d	-0.057765234
19	0xbd73f3bd	-0.05955862
20	0xbd6e6e47	-0.058210637
21	0xbd8b7a47	-0.06810432
22	0xbd8b755a	-0.068094924
23	0x3d59cb4b	0.05317239
24	0x3d68f406	0.056873344
25	0x3d639974	0.055566266
26	0x3d614ae9	0.05500308
27	0xbd7808ea	-0.060555376
28	0xbd786330	-0.060641468
29	0xbd80f766	-0.062971875
30	0xbd92497a	-0.07142921
31	0xbd5fbc23	-0.05462278

hidden_layers_x.3.fc.3.weight f4 [32, 32]
0	0xbe4636b4	-0.19356805
1	0x3e1a1459	0.15046825
2	0x3e375dbf	0.17906855
3	0xbd83b070	-0.06430137
4	0x3c80c0e2	0.015716974
5	0x3d48e0b3	0.049042415
6	0x3c92a06e	0.017898764
7	0x3d516677	0.05112311
8	0xbde8dff1	-0.113708384
9	0xbb214f0c	-0.0024613766
10	0xbcaf66df	-0.021411357
11	0xbe0a5ab7	-0.13511167
12	0xbbf312df	-0.007418021
13	0x3d20c4b4	0.03925009
14	0xbe07954a	-0.13240543
15	0xbd4e1d5a	-0.05032096
16	0xbe051cbf	-0.12999247
17	0x3e5ab2e6	0.21357307
18	0xbdebd8a7	-0.115159325
19	0x3d8a144e	0.06742154
20	0x3da7aef6	0.08187668
21	0xbe161ec2	-0.1466017
22	0xbe102ecb	-0.1408035
23	0xbd8496e3	-0.06474092
24	0x3cb1814d	0.0216681
25	0x3b80efa6	0.0039348183
26	0x3e43e473	0.19130115
27	0xbe1d23aa	-0.15345636
28	0xbdad9500	-0.08475685
29	0xbd2bed8d	-0.041974593
30	0x3d56cb63	0.05244006
31	0x3d999eca	0.0750099
32	0xbd661948	-0.056176454
33	0xbb658169	-0.0035019761
34	0xbddacf46	-0.106840655
35	0x3dc3e9c3	0.09566071
36	0x3d3cc11e	0.04608261
37	0xbe46b13f	-0.19403552
38	0x3df72ac0	0.12068701
39	0xbe03acc4	-0.12858874
40	0xbd932ed3	-0.071866654
41	0x3df59dd9	0.11992998
42	0xbd00343c	-0.031299815
43	0xbe064b36	-0.13114628
44	0xbe4f7e73	-0.2026308
45	0xbd187e32	-0.037229724
46	0x3dfb8630	0.122814536
47	0x3e0c6cac	0.1371333
48	0x3d00697a	0.03135059
49	0xbded2c2c	-0.11580691
50	0x3cd54896	0.026035588
51	0xb974d991	-0.00023350703
52	0xbdd6fc1b	-0.10497304
53	0x3de5b730	0.11216581
54	0x3d412b2f	0.047160324
55	0x3e017948	0.12643921
56	0xbd32584a	-0.04354123
57	0xbdb013dd	-0.085975386
58	0x3e214a0e	0.15750906
59	0x3e39e334	0.18153077
60	0xbd3d9e20	-0.046293378
61	0x3e53aea9	0.20672096
62	0xbd2da883	-0.042397033
63	0xbd890b14	-0.06691566
64	0x3d193102	0.037400253
65	0x3e16b005	0.14715584
66	0xbe4859e7	-0.19565545
67	0x3dc648c4	0.09681848
68	0x3cca4dff	0.024695395
69	0xbd6238e2	-0.05523003
70	0x3dcea5ea	0.10090239
71	0xbe30e6a5	-0.17275484
72	0xbe1a5920	-0.15073061
73	0xbe030fb2	-0.12798956
74	0x3d1040a8	0.03521791
75	0xbdde177b	-0.10844322
76	0xbd04f609	-0.0324612
77	0xbda68005	-0.081298865
78	0xbd02133b	-0.03175662
79	0xbdb2881e	-0.087173685
80	0x3c7bd205	0.015369897
81	0x3c940f81	0.0180738
82	0x3e27dcd4	0.16392833
83	0x3e1010df	0.14068936
84	0xbdc67a95	-0.096913494
85	0xbdc36aef	-0.0954188
86	0x3e081926	0.13290843
87	0x3d89a2a2	0.06720473
88	0xbdd5e6a4	-0.10444382
89	0xbe118ec8	-0.14214623
90	0xbde5fe0c	-0.11230096
91	0x3ca1b2ae	0.019738521
92	0xbdb80ad0	-0.08986437
93	0xbe4ce0fb	-0.20007698
94	0xbcdd0637	-0.026980503
95	0x3e1b3529	0.15156998
96	0xbd997bfe	-0.07494353
97	0x3da35b35	0.07976381
98	0xbbedd77b	-0.0072583533
99	0xbdd7c536	-0.10535662
100	0x3e4ae124	0.19812447
101	0xbd914eb0	-0.070950866
102	0xbcf5d765	-0.030009935
103	0x3e0c1949	0.1368152
104	0x3dd3a978	0.10335058
105	0x3e3052f7	0.17219149
106	0xbdb40171	-0.087893374
107	0x3d6eff3a	0.05834887
108	0xbbd9f047	-0.0066509577
109	0x3ce24503	0.027620798
110	0x3cf65c90	0.030073434
111	0xbd497700	-0.049185753
112	0x3d1d209f	0.038361188
113	0x3da61ac6	0.081105754
114	0x3caabb59	0.020841287
115	0xbda28035	-0.0793461
116	0x3dff4155	0.12463633
117	0x3dd563bc	0.104194134
118	0xbe3f060a	-0.18654647
119	0x3d38514e	0.044999413
120	0xbdc14cce	-0.094384775
121	0x3ddde427	0.10834532
122	0xbbc85e97	-0.0061147916
123	0xbe1e9962	-0.15488198
124	0x3e55bec3	0.20873551
125	0xbda2fe1c	-0.07958624
126	0x3dbc0c8b	0.0918208
127	0x3d4dcc7b	0.050243836
128	0x3d06930e	0.032855086
129	0xbda49881	-0.080369
130	0x3da5c4d4	0.080941826
131	0x3e477f2c	0.19482106
132	0xbdcd1224	-0.10013226
133	0xbe3cb82d	-0.18429632
134	0xbc158bce	-0.00912757
135	0x3c9021b9	0.017594205
136	0x3d05943e	0.032612078
137	0x3d21c9e3	0.039499175
138	0xbe0d80be	-0.13818642
139	0x3e1c4e6f	0.15264295
140	0xbcb1b549	-0.021692889
141	0xbe309695	-0.17244942
142	0x3d78b2d9	0.060717437
143	0x3e37f6af	0.17965196
144	0x3d3c30af	0.045944866
145	0x3c43a58e	0.011941327
146	0x3dd97d35	0.106195845
147	0xbd8aebe9	-0.067832775
148	0x3db5c53b	0.08875509
149	0xbdf8859a	-0.121348575
150	0x3e6ab027	0.2291876
151	0x3db8db84	0.09026244
152	0xbd006464	-0.03134574
153	0xbc85c31d	-0.016328389
154	0x3e4dbf20	0.2009244
155	0xbe32d260	-0.17463064
156	0xbd77b635	-0.0604765
157	0x3d353ccb	0.04424743
158	0xbd59785d	-0.053093303
159	0xbc935368	-0.017984107
160	0xbde6c9a5	-0.112689294
161	0x3d6d3daf	0.057920154
162	0xbdb71c44	-0.08940938
163	0xbc3de0cc	-0.01158924
164	0x3da1f6bf	0.07908391
165	0xbe0f5a2f	-0.13999246
166	0xbe3e893e	-0.18607041
167	0xbdcd3d7c	-0.10021493
168	0xbd546774	-0.051856473
169	0xbd21b36a	-0.039477743
170	0xbd71a35d	-0.058993686
171	0x3e3a2e25	0.18181665
172	0x3e350a3c	0.17679685
173	0xbda27975	-0.07933322
174	0xbdeff06c	-0.11715779
175	0xbdeb12c0	-0.11478186
176	0xbdcada9f	-0.0990498
177	0x3df0d438	0.117592275
178	0x3e5620bd	0.20910926
179	0x3e58e7cd	0.21182175
180	0xbd3688f5	-0.044564206
181	0x3e3b52bc	0.1829328
182	0x3e2c63f5	0.16835006
183	0x3e43708a	0.19085899
184	0xbdc98410	-0.09839642
185	0xbe63f966	-0.22263107
186	0xbe0e0abb	-0.13871281
187	0xbdb7093b	-0.089373074
188	0xbd7e945f	-0.062153216
189	0xbe50cd1f	-0.20390747
190	0x3d2e7439	0.042591307
191	0x3dab5a74	0.08366862
192	0xbb8a7d1a	-0.004226339
193	0x3df8cc4c	0.121483415
194	0xbda88b38	-0.08229679
195	0xbdbf69a2	-0.0934632
196	0xbd111164	-0.035416976
197	0x3e1801fa	0.14844504
198	0xbdd0d84f	-0.101975076
199	0xbe7a8537	-0.2446488
200	0xbd6643cd	-0.056217004
201	0xbbb651f7	-0.00556397
202	0x3ddf5698	0.10905188
203	0x3aa5ba9b	0.0012644114
204	0x3e647b1c	0.22312587
205	0xbd665f00	-0.056242943
206	0x3e60792c	0.21921223
207	0x3e515491	0.20442416
208	0xbd0e821a	-0.034792043
209	0xbe835e1e	-0.25657743
210	0x3e5e22c7	0.21692954
211	0x3db3a3ad	0.08771453
212	0x3d3e0400	0.046390533
213	0x3c9241bd	0.017853612
214	0x3d1f9aee	0.03896611
215	0x3d1ce999	0.038308714
216	0xbd68c9d5	-0.056833107
217	0x3e1dcd9a	0.15410462
218	0x3e5bbde1	0.21459152
219	0x3dfec615	0.12440125
220	0xbd1cf396	-0.03831824
221	0x3e10ed8a	0.14153114
222	0x3e4371f9	0.19086446
223	0xbcbf91d8	-0.023384973
224	0x3d1a4477	0.03766295
225	0xbdb4f950	-0.08836615
226	0x3d7e2764	0.062049285
227	0xbdd4c4aa	-0.10389073
228	0x3ca6a0a3	0.02034027
229	0xbd64e1e4	-0.05587949
230	0xbe08c327	-0.13355695
231	0xbda7c9c6	-0.08192782
232	0x3d65892a	0.056039013
233	0xbc4fa84b	-0.0126744015
234	0xbd045fd4	-0.03231795
235	0xbe574380	-0.21021843
236	0xbe687aaa	-0.22703043
237	0x3d9d3514	0.076761395
238	0x3dc21c8a	0.094781
239	0x3da10ab8	0.078633726
240	0x3ba51458	0.0050378256
241	0xbd3ff275	-0.046862084
242	0xbe5e9e91	-0.21740176
243	0xbb372ee6	-0.0027951538
244	0xbdd46e6d	-0.103726245
245	0x3beaf8a6	0.0071707545
246	0xbd0bbf8b	-0.034118216
247	0x3e33637a	0.17518416
248	0xbd0d1b78	-0.034450024
249	0x3db84ee7	0.089994244
250	0x3e237fb9	0.15966691
251	0xbd4608ac	-0.048348114
252	0x3e01b27f	0.12665747
253	0x3e31b1c3	0.17352967
254	0x3dea2b30	0.114340186
255	0x3d3f1db4	0.046659186

hidden_layers_x.3.fc.4.weight f4 [32]
0	0x3f87a348	1.0596704
1	0x3f5cbb34	0.8622315
2	0x3f760956	0.96107996
3	0x3f723ebb	0.9462697
4	0x3f6c48a4	0.9229834
5	0x3f76db18	0.9642806
6	0x3f85525e	1.0415761
7	0x3f849e83	1.0360874
8	0x3f80a17a	1.0049279
9	0x3f849618	1.0358305
10	0x3f629558	0.8850913
11	0x3f684bba	0.9074055
12	0x3f62cd4f	0.88594526
13	0x3f8083f1	1.0040265
14	0x3f7c75bb	0.9861714
15	0x3f63b49a	0.8894745
16	0x3f5c8a55	0.8614858
17	0x3f8ce017	1.1005887
18	0x3f6dead6	0.92936456
19	0x3f705c1f	0.93890566
20	0x3f82a823	1.0207561
21	0x3f692082	0.9106523
22	0x3f889439	1.0670234
23	0x3f69c6f4	0.91319203
24	0x3f836de0	1.0267906
25	0x3f6d827b	0.9277722
26	0x3f722ad8	0.94596624
27	0x3f7d68f0	0.98988247
28	0x3f73d5bf	0.95248026
29	0x3f87589a	1.0573914
30	0x3f7254d0	0.94660664
31	0x3f8792fd	1.0591732

hidden_layers_x.3.fc.4.bias f4 [32]
0	0x3d71e9fb	0.05906103
1	0x3d2b8338	0.041873187
2	0xbd67847b	-0.056522828
3	0x3d388f7d	0.045058716
4	0x3d39b16d	0.045335222
5	0xbd8a0c06	-0.067405745
6	0xbd8f4802	-0.06996156
7	0x3d58a395	0.05289038
8	0x3d4ff243	0.05076815
9	0xbd7fdc12	-0.062465735
10	0x3d2ed60c	0.0426846
11	0xbd73c731	-0.059516136
12	0x3d786dff	0.060651775
13	0x3d6d61c6	0.057954572
14	0xbd8da90f	-0.06917011
15	0x3d75d0ff	0.060013767
16	0x3d39c8f0	0.045357645
17	0x3d53a40c	0.05167012
18	0x3d871658	0.065960586
19	0x3d88eca5	0.06685761
20	0x3d624d3b	0.055249434
21	0xbd8279a1	-0.06370855
22	0xbda747b8	-0.08167976
23	0xbd8a1a9a	-0.06743355
24	0xbda3fc30	-0.08007085
25	0x3d6776d6	0.056509815
26	0xbd863f90	-0.06555092
27	0xbd80f285	-0.06296257
28	0xbd84d645	-0.06486181
29	0x3d7d2ac5	0.061808366
30	0x3d7d9a6d	0.06191485
31	0x3d58cf91	0.052932326

hidden_layers_x.4.fc.0.weight f4 [32, 32]
0	0x3e068579	0.13136853
1	0xbdca9fed	-0.09893785
2	0xbd8cbae1	-0.06871582
3	0x3aa1b1f2	0.0012336357
4	0xbd51aa61	-0.051187877
5	0x3b9b6189	0.0047418517
6	0x3c77851e	0.015107421
7	0xbddc6974	-0.10762301
8	0x3d59b568	0.053151518
9	0xbd4e654f	-0.050389584
10	0x3d45e79c	0.048316583
11	0x3e185a81	0.14878275
12	0x3ddec408	0.10877234
13	0x3de5bce4	0.11217669
14	0xbdbf3832	-0.0933689
15	0xbd443774	-0.047904447
16	0xbd2ab7ad	-0.041679073
17	0x3e3d8349	0.18507113
18	0x3e1c200c	0.152466
19	0xbe10dc58	-0.14146554
20	0x3dffc9bf	0.12489652
21	0xbd6ce412	-0.057834692
22	0x3e069ba9	0.13145317
23	0x3e3d1af4	0.18467313
24	0x3e42f58d	0.19038983
25	0xbda686f0	-0.08131206
26	0x3df2ff66	0.1186512
27	0x3ce398d3	0.027782833
28	0x3d53ab45	0.051677007
29	0x3cb17ab6	0.021664958
30	0xbe49c262	-0.19703057
31	0xbd75135a	-0.05983291
32	0xbd5f1926	-0.054467343
33	0x3e335f1d	0.17516752
34	0x3df2488a	0.11830242
35	0x3e13bbc9	0.14427103
36	0x3c33e8a9	0.0109807635
37	0x3e02a5cf	0.12758563
38	0xbcfdb79b	-0.030971339
39	0xbd7c33ba	-0.061572768
40	0xbdd02887	-0.1016398
41	0xbdf585e3	-0.119884275
42	0x3d734cf8	0.059399575
43	0xbdd64163	-0.1046169
44	0x3e4e0a2f	0.20121072
45	0xbdb99cc8	-0.09063107
46	0x3d0ad551	0.03389484
47	0xbdbdf896	-0.0927593
48	0x3e056fec	0.13030976
49	0x3e042209	0.12903608
50	0x3d1931ef	0.037401136
51	0xbd9b543f	-0.07584428
52	0xbdde914d	-0.10867558
53	0x3d797686	0.06090405
54	0xbe1838bb	-0.14865391
55	0x3df76c72	0.12081231
56	0xbea98fc3	-0.33117494
57	0xbe455224	-0.19269615
58	0x3e6d679c	0.23184055
59	0x3e36de90	0.17858338
60	0x3cf68f7f	0.030097721
61	0x3ca7c74e	0.020480778
62	0xbce44af7	-0.027867777
63	0x3e3e1968	0.18564379
64	0x3e380cc8	0.17973626
65	0x3d9fc1e1	0.07800651
66	0xbdb437fa	-0.08799739
67	0xbca6d010	-0.020362884
68	0x3df5b43a	0.11997266
69	0x3e019e91	0.12658145
70	0xbe333bfb	-0.1750335
71	0x3e17132c	0.14753407
72	0x3d1a97b3	0.037742328
73	0x3e065878	0.13119686
74	0xbdc1a453	-0.094551705
75	0xbd5d60a6	-0.05404725
76	0x3ccd4303	0.025056368
77	0xbd81d136	-0.06338732
78	0x3de8fe6c	0.11376652
79	0xbd3cadc9	-0.046064172
80	0xbd4e9eeb	-0.050444525
81	0xbe00f672	-0.12594011
82	0x3dc0a833	0.094070815
83	0xbd738959	-0.059457157
84	0xbd24199b	-0.04006348
85	0xbe12f396	-0.14350733
86	0x3e34bd5c	0.1765036
87	0x3e5c5eea	0.21520582
88	0xbaba9da5	-0.0014237656
89	0x3de28405	0.11060337
90	0x3d9b47da	0.07582064
91	0xbcb477bf	-0.022029756
92	0x3e04b47f	0.12959479
93	0x3d9ea7dc	0.077468604
94	0xbdc85a2b	-0.09782823
95	0xbe306a07	-0.17227946
96	0x3d84c3e3	0.06482675
97	0x3d893e14	0.067012936
98	0xbe243a64	-0.160379
99	0xbd941ab2	-0.07231654
100	0xbd06e160	-0.032929778
101	0xbc053104	-0.008129362
102	0xbe1bf074	-0.15228444
103	0x3d212bae	0.039348297
104	0x3d92988b	0.071580015
105	0xbe166d6e	-0.14690182
106	0x3d2d9920	0.04238236
107	0xbda98582	-0.08277418
108	0x3c16e59b	0.009210016
109	0x3cfadb2f	0.030622093
110	0xbdbe4cf2	-0.0929202
111	0x3dce6303	0.10077479
112	0xbdd6b81b	-0.10484334
113	0xbd243db7	-0.04009792
114	0xbd124823	-0.035713326
115	0xbd912e4e	-0.0708891
116	0x3c8f2fa7	0.017478777
117	0xbdaf4a7f	-0.08559131
118	0x3e0c63f6	0.13710007
119	0xbe6f7aba	-0.2338666
120	0xbdeaedeb	-0.114711605
121	0xbe308797	-0.17239223
122	0xbe30e5c6	-0.17275152
123	0xbcb82aba	-0.022481311
124	0x3dfae545	0.12250761
125	0x3d86ffa5	0.06591729
126	0x3e0ad4d4	0.1355775
127	0xbd9da69c	-0.07697794
128	0xbe119df1	-0.14220406
129	0xbe59d347	-0.21272002
130	0x3d5c4334	0.053775027
131	0xbde78e96	-0.11306493
132	0x3e19d837	0.15023886
133	0x3d27b850	0.04094726
134	0x3e0c1a19	0.1368183
135	0xbdccc401	-0.09998322
136	0xbd575e87	-0.052580383
137	0x3dc3bdbe	0.09557675
138	0xbdbf87a8	-0.09352046
139	0x3d9c4daa	0.07632001
140	0xbb08fde1	-0.0020903277
141	0x3d39254b	0.04520158
142	0x3db710f0	0.089387774
143	0xbe2c3f64	-0.16821057
144	0x3d38df4e	0.045134835
145	0x3c99e50b	0.018785974
146	0x3d11c69e	0.035589807
147	0x3dae743f	0.08518266
148	0xbe29b621	-0.16573383
149	0x3d61e3e2	0.055148967
150	0xbdc25e89	-0.094906874
151	0x3d49c09e	0.04925596
152	0xbe375144	-0.17902094
153	0xbe219882	-0.15780833
154	0xbe24a7e8	-0.16079676
155	0xbd57efec	-0.05271904
156	0x3e173b0e	0.14768621
157	0xbd81e3a5	-0.06342248
158	0x3dc85f81	0.09783841
159	0x3d1f87d1	0.038947884
160	0x3c8315ee	0.016001668
161	0xbe1d478d	-0.15359326
162	0xbdb76270	-0.08954322
163	0xbe56abce	-0.20963976
164	0xbd419e09	-0.047269855
165	0x3dc5e256	0.09662311
166	0x3bde6ebf	0.0067881043
167	0x3cf8fe19	0.0303946
168	0x3b691e70	0.003557112
169	0xbe15faea	-0.14646497
170	0xbe5cd746	-0.21566495
171	0xbd9e288f	-0.0772258
172	0x3cc83021	0.024437012
173	0x3c6d4c48	0.014483519
174	0x3dd356a6	0.10319261
175	0x3db86a56	0.09004657
176	0xbe552f43	-0.2081881
177	0x3d842d4d	0.06453953
178	0xbe189cf2	-0.1490362
179	0x3bb6880e	0.005570418
180	0xbd0acf05	-0.033888835
181	0x3d5875a5	0.05284657
182	0xbda51d63	-0.08062246
183	0xbdade825	-0.08491544
184	0xbe70e040	-0.23523045
185	0xbd649f68	-0.055816084
186	0xbdb60879	-0.08888335
187	0xbd1f727b	-0.038927536
188	0x3d4cc23a	0.049989916
189	0xbc9b3df5	-0.018950442
190	0x3c6ed460	0.014577001
191	0x3e30ec61	0.17277671
192	0xbd2a4a34	-0.041574672
193	0xbe241cd8	-0.16026628
194	0xbe0cc471	-0.13746811
195	0xbe11a14d	-0.14221688
196	0x3e10f20d	0.14154835
197	0xbded00eb	-0.11572441
198	0xbd44df52	-0.048064537
199	0xbd8ce84e	-0.06880246
200	0x3d992284	0.074772865
201	0x3db332b0	0.08749902
202	0x3e8fc758	0.28081775
203	0xbd3e8711	-0.046515528
204	0xbdc47c4d	-0.09594021
205	0x3e7480c6	0.23877248
206	0x3ded8184	0.11596969
207	0xbc3995d3	-0.011327225
208	0x3d8ee4e2	0.0697725
209	0xbcfe3e96	-0.031035703
210	0x3daf19a1	0.0854981
211	0xbe28de05	-0.16490944
212	0xbcbf2eb3	-0.023337698
213	0xbdb794be	-0.08963917
214	0x3e233399	0.15937652
215	0xbcaaae5e	-0.020835098
216	0x3e15d369	0.14631428
217	0xbd93298b	-0.07185658
218	0xbe52248b	-0.20521753
219	0xbddf6194	-0.109072834
220	0xbd8d9cd0	-0.06914675
221	0x3d9b94fe	0.075967774
222	0x3e44158f	0.19148849
223	0x3de30baf	0.11086213
224	0x3e26e3dd	0.1629786
225	0xbe1f3c4d	-0.15550347
226	0x3e64144a	0.22273365
227	0x3e447bfc	0.19187921
228	0x3ce9812d	0.028503979
229	0x3e85398b	0.26020464
230	0xbe01ab6a	-0.12663046
231	0x3db74806	0.08949284
232	0xbe418d02	-0.18901446
233	0xbe51537b	-0.20442002
234	0x3d873798	0.066024005
235	0x3e69c5fc	0.22829431
236	0xbd645223	-0.055742394
237	0xbd929a39	-0.07158322
238	0xbc421e33	-0.01184802
239	0xbe4b57cd	-0.19857712
240	0xbd2c9d88	-0.04214242
241	0xbda17704	-0.078840286
242	0xbe5fc5b4	-0.21852762
243	0xbe42c750	-0.19021344
244	0x3e49eee3	0.19720034
245	0xbe4d0808	-0.20022595
246	0xbe0f08d1	-0.13968207
247	0x3e03c53d	0.12868209
248	0x3b9adc64	0.0047259796
249	0xbddfee90	-0.10934174
250	0x3d6ea8f2	0.058266588
251	0xb9a4073f	-0.00031285916
252	0xbe65e3ea	-0.22450224
253	0xbabbfabd	-0.0014341694
254	0xbe4034a9	-0.18770088
255	0x3d774878	0.060371846

hidden_layers_x.4.fc.1.weight f4 [32]
0	0x3f894b54	1.0726113
1	0x3f800e3e	1.0004346
2	0x3f802ead	1.0014244
3	0x3f75282b	0.95764416
4	0x3f547fe1	0.8300763
5	0x3f7e8d9f	0.99434847
6	0x3f858324	1.0430646
7	0x3f731822	0.949587
8	0x3f6f22a0	0.9341221
9	0x3f86ef55	1.0541788
10	0x3f6e37d5	0.9305394
11	0x3f68bcec	0.9091327
12	0x3f7e33ff	0.9929809
13	0x3f8ec8f0	1.1155071
14	0x3f68b6cc	0.90903926
15	0x3f818a4e	1.0120332
16	0x3f8132d9	1.0093642
17	0x3f829bdb	1.0203813
18	0x3f88efde	1.0698202
19	0x3f8d693f	1.1047744
20	0x3f6d6101	0.9272614
21	0x3f6f1347	0.9338879
22	0x3f76c0a6	0.9638771
23	0x3f793bd3	0.9735691
24	0x3f8386e6	1.0275543
25	0x3f7b604c	0.9819381
26	0x3f894516	1.0724208
27	0x3f6b3cc4	0.91889596
28	0x3f917de9	1.136655
29	0x3f63bf7e	0.8896407
30	0x3f6c26d4	0.92246747
31	0x3f723b8e	0.94622123

hidden_layers_x.4.fc.1.bias f4 [32]
0	0xbd707a91	-0.05871064
1	0xbd77bd58	-0.060483307
2	0xbd694be0	-0.056957126
3	0x3d793403	0.060840618
4	0x3d80bd8c	0.06286153
5	0x3d62b657	0.055349674
6	0x3dcf64f9	0.10126681
7	0xbd88c65b	-0.06678458
8	0x3d63c33e	0.05560612
9	0x3d4a7134	0.049424365
10	0x3d6f0ce5	0.058361907
11	0x3d684852	0.056709595
12	0xbd83c72c	-0.064344734
13	0x3d931aee	0.07182871
14	0x3d6d0cd5	0.057873566
15	0xbd679ad4	-0.05654414
16	0xbd82a94d	-0.06379948
17	0xbd6c32cd	-0.057665635
18	0xbd52040e	-0.051273398
19	0xbd57c5f4	-0.052679017
20	0xbd7a5fdd	-0.06112658
21	0x3d7b128d	0.06129699
22	0xbd7cbcee	-0.061703615
23	0xbd72611d	-0.059174646
24	0xbd860b7a	-0.06545158
25	0xbd598473	-0.05310483
26	0xbd21e3e9	-0.039523993
27	0xbd74c5a1	-0.059758786
28	0xbd5bde6e	-0.053678922
29	0x3d7aeb4f	0.061259564
30	0xbc96b030	-0.01839456
31	0x3d5b5cbc	0.053555235

hidden_layers_x.4.fc.3.weight f4 [32, 32]
0	0x3e5de7fa	0.21670523
1	0xbd381842	-0.04494501
2	0x3c344452	0.011002617
3	0x3d879704	0.06620601
4	0x3ba92f4c	0.005163109
5	0x37eb3a79	2.8041411e-05
6	0xbda0d252	-0.078526154
7	0x3d4d51a1	0.050126676
8	0x3df65a84	0.12028983
9	0x3e9837cd	0.29730073
10	0x3ca55405	0.020181665
11	0x3d9d27bd	0.07673595
12	0xbdd2a84a	-0.10286005
13	0x3e3ad1b9	0.18244065
14	0x3dac3c77	0.0840997
15	0xbda3b90c	-0.07994279
16	0x3cfa7af3	0.030576205
17	0xbe76d22d	-0.24103613
18	0xbd23ad88	-0.039960414
19	0x3e81f3e4	0.25381386
20	0xbcc842ea	-0.02444597
21	0x3e3d338b	0.18476693
22	0xbe0f35e8	-0.13985407
23	0x3e523812	0.20529202
24	0xbe2c7dad	-0.16844817
25	0x3e672d19	0.22575797
26	0xbcb98693	-0.022647178
27	0x3e2c6f86	0.16839418
28	0x3e16b1de	0.14716288
29	0xbe12f0a1	-0.14349605
30	0x3e80c3c0	0.25149345
31	0xbd990913	-0.07472434
32	0x3e354460	0.17701864
33	0xbe1d1fbe	-0.1534414
34	0xbda1b0cb	-0.07895049
35	0x3dae2045	0.08502249
36	0xbd122327	-0.035678055
37	0x3db602e9	0.08887274
38	0x3e868f9d	0.26281443
39	0xbd9d6dac	-0.07686934
40	0x3d11f833	0.03563709
41	0xbe59d5e2	-0.21272996
42	0x3d9a1baa	0.07524808
43	0x3d0fb272	0.035082288
44	0xbd9089e9	-0.07057554
45	0x3e00ac52	0.12565735
46	0x3ca8f7a1	0.020625891
47	0x3e7a26c8	0.24428856
48	0x3d8c6621	0.06855417
49	0x3d97aa5a	0.07405539
50	0xbe0f12ef	-0.13972066
51	0x3d8083f8	0.06275171
52	0xbe5f7fba	-0.21826068
53	0x3d9529e4	0.07283381
54	0x3de52b27	0.11189871
55	0xbd4c4668	-0.049871832
56	0xbd006d3c	-0.031354174
57	0xbc957bc3	-0.01824749
58	0x3d946ab6	0.07246916
59	0x3e082ebf	0.13299082
60	0x3c7994b0	0.015233204
61	0x3e305c17	0.1722263
62	0xbe09839a	-0.13429108
63	0xbccd00ab	-0.025024733
64	0x3c2d4e63	0.010577771
65	0xbc035d89	-0.008017906
66	0x3b0b3d6b	0.0021246325
67	0x3bb26a75	0.0054448196
68	0xbda598b5	-0.08085767
69	0xbd4296a1	-0.047506932
70	0xbd8dc654	-0.06922594
71	0x3dbb9b8d	0.09160528
72	0xbbc53dcf	-0.006019331
73	0x3d5d3ccc	0.05401306
74	0x3e00f885	0.12594803
75	0xbe19191a	-0.14950982
76	0x3d2da3ff	0.042392727
77	0xbe028adc	-0.12748283
78	0xbe4e58b3	-0.20151024
79	0x3cc512a7	0.024056746
80	0xbd502ce6	-0.05082407
81	0xbdc3ad2c	-0.09554514
82	0xbe1f3e75	-0.15551169
83	0xbe43eb61	-0.19132759
84	0xbc97123a	-0.018441308
85	0x3da17580	0.078837395
86	0x3d58bb90	0.05291325
87	0x3d814cb0	0.06313455
88	0xbdb3f53d	-0.0878701
89	0xbda51d98	-0.08062285
90	0x3daed5d5	0.08536879
91	0x3d68827a	0.056765057
92	0xbdec1c62	-0.11528851
93	0x3bbebcaf	0.0058208327
94	0xbbf26c58	-0.0073981695
95	0xbcd670c5	-0.02617682
96	0x3ccaa38d	0.02473619
97	0xbcf56b38	-0.029958352
98	0xbe6b11d7	-0.22956024
99	0x3b916fff	0.0044384
100	0x3d98028c	0.07422361
101	0x3e21608b	0.15759484
102	0xbe458987	-0.19290744
103	0xbc8cc32f	-0.017182915
104	0x3df76ff4	0.120819
105	0xbcdf1b56	-0.027234714
106	0xbe00f1bd	-0.12592216
107	0x3d5ac73d	0.053412665
108	0xbe82cb08	-0.25545526
109	0xbe844ff4	-0.2584225
110	0xbe548831	-0.20755078
111	0xbe5d9154	-0.2163747
112	0x3c8a134a	0.0168549
113	0x3d266d6c	0.040631697
114	0xbe856529	-0.26053742
115	0xbe064631	-0.13112713
116	0xbc0771cf	-0.00826688
117	0x3d8ecfc4	0.06973222
118	0x3daebc89	0.08532054
119	0xbdd30658	-0.10303944
120	0x3d14decb	0.036345284
121	0xbe04a18d	-0.12952252
122	0xbe69a5a8	-0.22817099
123	0xbdec552b	-0.11539682
124	0xbe6ccfa2	-0.2312608
125	0x3e0c5439	0.13704003
126	0x3d419ebf	0.047270533
127	0xbd0317a4	-0.032004967
128	0xbcabb033	-0.020958042
129	0x3cfc150b	0.030771753
130	0x3e583b3f	0.2111635
131	0x3e663412	0.22480801
132	0x3e917f30	0.2841735
133	0x3dc87c75	0.09789363
134	0xbdad8966	-0.08473472
135	0x3e2702ae	0.16309616
136	0x3dcfdca1	0.101495035
137	0x3e80aa01	0.25129703
138	0x3dd788ad	0.10524116
139	0x3d30b456	0.04314073
140	0xbd304112	-0.043030806
141	0x3dd56300	0.104192734
142	0x3e3735d3	0.17891626
143	0x3dab1a95	0.083546795
144	0x3e653edf	0.22387265
145	0x3c973a5d	0.018460447
146	0x3e4830b8	0.19549835
147	0x3de4e5a1	0.11176611
148	0xbe618387	-0.2202283
149	0x3c8a382d	0.01687249
150	0xbd8a1a0b	-0.067432486
151	0x3e69e1fa	0.2284011
152	0xbdce47aa	-0.100722626
153	0x3e6441c5	0.22290714
154	0x3e89436e	0.26809257
155	0xbcd7f9b9	-0.026364194
156	0xbd4b38fd	-0.049614895
157	0xbe38ed10	-0.18059182
158	0x3e33652d	0.17519064
159	0x3e63bc89	0.22239889
160	0xbe403519	-0.18770255
161	0x3df304ea	0.11866172
162	0xbdaff03c	-0.08590743
163	0xbd119930	-0.03554648
164	0xbd754495	-0.059879858
165	0x3d197a79	0.037470315
166	0xbe42d0f4	-0.19025022
167	0x3dd61d03	0.10454752
168	0xbbc9a9d9	-0.0061542806
169	0x3c89edaa	0.01683696
170	0xbdf3da07	-0.1190682
171	0xbe74f263	-0.23920588
172	0xbdd27e6e	-0.10278021
173	0xbd2c7475	-0.04210325
174	0xbdd9ac27	-0.106285386
175	0xbdc5efc4	-0.09664872
176	0xbdc21696	-0.09476964
177	0x3dfb38f5	0.12266723
178	0xbca4b6b9	-0.02010666
179	0xbc40dbe2	-0.011771174
180	0xbd923260	-0.071385145
181	0xbe2cb51e	-0.16865966
182	0x3e82e97a	0.25568753
183	0x3dafe7a5	0.085891046
184	0xbdd977bd	-0.106185414
185	0xbe0965f9	-0.13417806
186	0xbdc8a6de	-0.097974524
187	0x3beefe83	0.0072935238
188	0xbe58f0c7	-0.211856
189	0xbe1e5e8b	-0.15465753
190	0xbdb9e574	-0.09076968
191	0xbe3e6bda	-0.1859583
192	0x3e01f7ae	0.12692139
193	0xbd201cc2	-0.039089926
194	0xbbb939bf	-0.005652636
195	0xbdac18b9	-0.08403153
196	0xbdfd71dc	-0.123752326
197	0x3d80d825	0.06291226
198	0xbc0cfd80	-0.008605361
199	0x3bcd4cba	0.00626525
200	0xbd82b60d	-0.0638238
201	0xbdc0f840	-0.0942235
202	0x3e3fa99f	0.18717049
203	0x3e3f4dfb	0.18682091
204	0x3dd70bbe	0.105002865
205	0x3dbe28f2	0.092851534
206	0x3d24a28b	0.040194076
207	0x3e4b4678	0.198511
208	0xbcee3864	-0.029079624
209	0xbd2ba58c	-0.041905925
210	0x3d2e52f0	0.042559564
211	0x3e862b0a	0.2620471
212	0x3df5458f	0.11976158
213	0x3d89fe30	0.067379355
214	0xbe1ea577	-0.15492807
215	0x3d959266	0.07303314
216	0x3d75be8b	0.05999617
217	0xbd8be1c7	-0.06830173
218	0xbd9ec31f	-0.0775206
219	0xbd4b88e5	-0.0496911
220	0x3e222b28	0.15836775
221	0xbd491a9e	-0.04909765
222	0x3e606bea	0.21916166
223	0x3e0668f0	0.13125968
224	0x3e0bc301	0.13648607
225	0xbd54d3e2	-0.05195988
226	0xbc0058b0	-0.007833645
227	0x3c0ea2ff	0.0087058535
228	0xbd726c08	-0.059185058
229	0xbe065948	-0.13119996
230	0x3ddacf3e	0.106840596
231	0x3de21c53	0.11040559
232	0x3bb5d6d3	0.0055492907
233	0xbcfc1173	-0.03077004
234	0xbd16d507	-0.036824252
235	0xbced6323	-0.028977936
236	0xbd6f051d	-0.058354486
237	0xbe262ded	-0.16228457
238	0xbd4e6f3f	-0.05039906
239	0xbe3f900d	-0.18707295
240	0x3d83a756	0.06428401
241	0x3d86bfb5	0.06579534
242	0xbe3dcb4d	-0.18534584
243	0xbd07cea3	-0.03315605
244	0xbcd78747	-0.026309622
245	0x3d88c457	0.06678074
246	0xbc20cf91	-0.009815113
247	0x3ba88e71	0.0051439335
248	0x3e65569d	0.22396322
249	0xbe70e1da	-0.23523656
250	0x3da6b496	0.08139913
251	0x3c0a5f30	0.008445546
252	0x3e3f3b43	0.1867495
253	0x3d308d1f	0.043103334
254	0x3cf991ff	0.030465124
255	0xbda18c45	-0.078880824

hidden_layers_x.4.fc.4.weight f4 [32]
0	0x3f4164b5	0.7554429
1	0x3f6082c2	0.8769952
2	0x3f98484b	1.1897062
3	0x3f94a17a	1.1611779
4	0x3f7abfc0	0.9794884
5	0x3f82529f	1.0181464
6	0x3f6d82dc	0.927778
7	0x3f7c84ee	0.98640335
8	0x3f82f870	1.0232067
9	0x3f745324	0.9543936
10	0x3f820a65	1.0159422
11	0x3f6f4ee5	0.9347976
12	0x3f682922	0.90687764
13	0x3f6d3e7d	0.92673475
14	0x3f70b23b	0.9402196
15	0x3f6a6e82	0.9157487
16	0x3f726b33	0.94694823
17	0x3f61a97f	0.88149256
18	0x3f6c23bf	0.92242044
19	0x3f75ba58	0.95987463
20	0x3f69a79f	0.91271394
21	0x3f6965e2	0.91171086
22	0x3f6ab041	0.9167519
23	0x3f844c87	1.0335854
24	0x3f8dc069	1.1074344
25	0x3f7bd21b	0.9836747
26	0x3f61472d	0.8799923
27	0x3f68aa21	0.90884596
28	0x3f64f745	0.89439803
29	0x3f85d957	1.0456952
30	0x3f843d90	1.0331287
31	0x3fc4c8cd	1.537378

hidden_layers_x.4.fc.4.bias f4 [32]
0	0xbee32a42	-0.44368178
1	0xbe23e56d	-0.16005488
2	0xbd2a207b	-0.041534882
3	0xbe0c6051	-0.13708617
4	0xbe5ebb99	-0.2175125
5	0xbcacd100	-0.021095753
6	0xbdae1561	-0.085001715
7	0xbdd0df12	-0.10198797
8	0xbcdbb9b2	-0.026821945
9	0xbd204671	-0.03912968
10	0xbe81774f	-0.25286338
11	0xbd898d87	-0.06716447
12	0xbdbbf3f3	-0.09177389
13	0xbdd45370	-0.10367477
14	0xbe085493	-0.13313513
15	0xbe3d124a	-0.18464008
16	0xbe02f420	-0.12788439
17	0xbe0712b8	-0.13190734
18	0xbe789001	-0.24273683
19	0xbe0201cd	-0.12696
20	0xbda20851	-0.079117425
21	0xbde79dc0	-0.11309385
22	0xbe55f547	-0.20894347
23	0xbde917a1	-0.1138146
24	0xbe7c95b6	-0.24666485
25	0xbd630584	-0.055425182
26	0xbde35576	-0.11100285
27	0xbdfcb123	-0.12338474
28	0xbddceaa7	-0.10786944
29	0xbd76fcfa	-0.06029985
30	0xbdae661e	-0.08515571
31	0xbe3f3f12	-0.18676403

hidden_layers_x.5.weight f4 [1, 32]
0	0x3a98d61a	0.0011660487
1	0xb77aacd4	-1.4941401e-05
2	0x3a79457a	0.0009508949
3	0x3d91a6d7	0.071119
4	0xb9c078fb	-0.0003671123
5	0xb859c71f	-5.1922278e-05
6	0x372b2a9d	1.0202316e-05
7	0x3b58ef83	0.0033101744
8	0xbc26a7df	-0.0101718595
9	0xbc4f712c	-0.01266126
10	0x395d01e4	0.00021076907
11	0x3a9486f2	0.0011331721
12	0x3a93de7f	0.0011281519
13	0xbd3f5cd7	-0.0467194
14	0x38b7af95	8.758825e-05
15	0x3b525694	0.0032095062
16	0x387a1f06	5.9633538e-05
17	0x38a4b7e1	7.8543795e-05
18	0xbc4ad61a	-0.012380147
19	0xbb8f2c10	-0.0043692663
20	0x3a9a9465	0.0011793493
21	0x38e39c74	0.00010853345
22	0xb822e2c2	-3.8834994e-05
23	0x3a79d3d0	0.0009530159
24	0x3977ee1d	0.0002364446
25	0xba26faac	-0.00063697505
26	0x39ac9a5b	0.000329214
27	0x39117785	0.00013872802
28	0xb8bc915b	-8.991613e-05
29	0xba23058d	-0.00062187837
30	0xbb332e99	-0.0027341007
31	0x3daafd0e	0.083490476

hidden_layers_c.0.weight f4 [32, 7]
0	0xbd50e3f2	-0.050998636
1	0xbd20e1d3	-0.039277863
2	0x3ec53053	0.3851343
3	0xbdc29b2c	-0.09502253
4	0x3c5da566	0.013528204
5	0x3e8d9dbd	0.27659407
6	0xbebdab31	-0.3704467
7	0x3e578b16	0.21049151
8	0x3e6cc39c	0.23121494
9	0x3e0455ab	0.12923305
10	0x3db9e69d	0.09077189
11	0x3e2c6c1d	0.16838117
12	0x3eb12305	0.3459703
13	0x3d16bf6c	0.036803648
14	0xbe9beffe	-0.30456537
15	0x3e9da2ff	0.3078842
16	0x3e94452f	0.28959033
17	0x3a20065d	0.0006104464
18	0xbe8efdd3	-0.27928028
19	0xbe188205	-0.14893349
20	0xbeb1661e	-0.34648222
21	0x3e1fc38a	0.15601936
22	0xbdee60ab	-0.11639532
23	0x3e24f6a1	0.16109706
24	0x3d4efe7f	0.050535675
25	0xbe206420	-0.15663195
26	0xbe7c499a	-0.24637452
27	0x3dc7401e	0.09729026
28	0xbe0148e3	-0.1262546
29	0x3c42422b	0.011856596
30	0x3ebb3b36	0.36568612
31	0xbd76d9f1	-0.06026644
32	0x3e16b7b3	0.14718513
33	0xbe30652a	-0.17226091
34	0x3dc50660	0.096203566
35	0x3ed56308	0.41677117
36	0x3e8d6d62	0.27622515
37	0xbe3f9aec	-0.18711442
38	0x3e9210fb	0.2852858
39	0xbe581e25	-0.21105249
40	0x3dad428f	0.08459961
41	0x3df4dc4e	0.11956082
42	0x3d29f13a	0.041489817
43	0xbea001f0	-0.31251478
44	0x3ece5c52	0.4030481
45	0xbd149037	-0.036270346
46	0x3ea47b3d	0.32125273
47	0xbe93e76d	-0.288875
48	0xbe1667b7	-0.14688002
49	0x3e94ee3d	0.2908801
50	0xbeb389ef	-0.35066172
51	0xbd1f93c6	-0.038959287
52	0xbd62a4b3	-0.05533285
53	0xbebb9c90	-0.36642885
54	0xbd6f2047	-0.05838039
55	0xbec077de	-0.3759145
56	0x3da9ddb3	0.08294239
57	0x3d85b4b9	0.06528611
58	0x3e30f067	0.17279206
59	0xbcfba683	-0.030719047
60	0xbe53570c	-0.20638674
61	0xbdb4770e	-0.088117704
62	0xbd76ff60	-0.06030214
63	0x3ea9106b	0.33020338
64	0x3e0e7b73	0.1391428
65	0xbe97a4df	-0.29617974
66	0x3e181824	0.14852959
67	0x3cbd0a62	0.02307624
68	0x3ea34207	0.31886312
69	0xbd147dd9	-0.03625283
70	0x3e8a6c91	0.27035955
71	0x3d8d0b50	0.06886923
72	0xbe47994f	-0.19492076
73	0x3e5fe126	0.21863231
74	0x3d93fd94	0.072261006
75	0x3ea47766	0.32122344
76	0xbede9fb0	-0.43481207
77	0xbcd4a4a1	-0.025957407
78	0x3e81099b	0.2520264
79	0x3df5d50d	0.12003527
80	0x3e22c972	0.15897158
81	0x3e921bab	0.28536734
82	0x3dcdabc5	0.10042528
83	0x3cf23396	0.029565614
84	0x3db9228d	0.09039793
85	0x3da95892	0.082688466
86	0x3ea4df6f	0.32201716
87	0xbdc3a536	-0.09552996
88	0x3ca8c0ce	0.020599749
89	0x3d83d8f6	0.064378664
90	0xbe35b468	-0.17744601
91	0x3e46c40d	0.19410725
92	0xbb9f1c5e	-0.0048556766
93	0xbe3b7bc5	-0.18308933
94	0x3ec4ee41	0.38463023
95	0x3cf3aab7	0.02974449
96	0x3df521cb	0.11969336
97	0xbefb1fc9	-0.49047688
98	0x3dd72745	0.10505537
99	0xbea29d26	-0.3176052
100	0xbce962f2	-0.028489564
101	0x3ea2859b	0.31742558
102	0x3e09ed17	0.13469349
103	0x3eb80b18	0.35945964
104	0xbe306062	-0.17224267
105	0xbecc5269	-0.39906624
106	0xbeb5d19e	-0.35511488
107	0xbdfbc123	-0.12292697
108	0xbde79ca9	-0.113091774
109	0xbcd3e839	-0.025867568
110	0x3e212dea	0.15740171
111	0x3ee6ee0b	0.45103487
112	0xbec67fbd	-0.38769332
113	0xbe1bda3d	-0.1521997
114	0x3e9bf7ea	0.3046258
115	0xbd9b6091	-0.07586778
116	0xbdbe10d2	-0.09280552
117	0xbeb4c751	-0.35308316
118	0x3b48019a	0.0030518533
119	0xbecc5a45	-0.3991262
120	0x3e888139	0.2666109
121	0xbe56c851	-0.20974852
122	0xbe14ef27	-0.14544354
123	0x3d7a6634	0.061132625
124	0x3e31d026	0.17364559
125	0x3ed382fb	0.41310868
126	0x3b9b95f5	0.004748101
127	0xbe604684	-0.219019
128	0x3ece221d	0.402604
129	0xba91225e	-0.0011072864
130	0x3e55ac37	0.20866476
131	0xbe9a9a11	-0.30195668
132	0xbeafae45	-0.34312645
133	0xbd94a7ee	-0.072585925
134	0xbe5e59a0	-0.21713877
135	0x3d00bdc7	0.031430986
136	0x3e2dca2a	0.1697165
137	0x3dacec30	0.08443487
138	0xbe370ffb	-0.1787719
139	0x3dc28e8d	0.09499846
140	0x3e3bded1	0.18346716
141	0x3e36c714	0.1784938
142	0x3e4b690a	0.19864288
143	0x3e09f433	0.13472061
144	0x3daf8fe6	0.08572368
145	0x3ef0fc03	0.4706727
146	0xbea946c9	-0.33061817
147	0xbea09e28	-0.31370664
148	0x3e1cfdf8	0.15331256
149	0x3ecb3e92	0.39696175
150	0xbe6ba3d6	-0.23011717
151	0x3e25e05b	0.16198866
152	0xbdd6c51c	-0.104868144
153	0xbb885ea1	-0.0041616713
154	0x3eca7637	0.39543316
155	0xbe4c179e	-0.19930884
156	0x3e550e7b	0.20806305
157	0x3e9af271	0.30263093
158	0x3e7a4df1	0.24443795
159	0xbe880319	-0.26564863
160	0x3e596a51	0.21231963
161	0xbebe23ea	-0.37136775
162	0xbe6f1235	-0.23346789
163	0xbe614411	-0.21998622
164	0x3e71105e	0.235414
165	0x3d82883f	0.06373643
166	0x3e8f2244	0.2795583
167	0x3e451631	0.19246747
168	0xbe312c6f	-0.17302106
169	0x3e9cae8b	0.30601916
170	0xbeb49b00	-0.35274506
171	0xbe59b4e3	-0.21260409
172	0xbe412b77	-0.18864237
173	0xbc16494b	-0.009172748
174	0xbd7f6731	-0.06235427
175	0xbe8464fa	-0.2585829
176	0x3e8b0bee	0.2715754
177	0x3e8bca7c	0.2730292
178	0x3e4bf6f1	0.1991842
179	0x3e2fffa4	0.17187363
180	0xbe43088e	-0.19046232
181	0xbe46a54a	-0.1939899
182	0xbe554949	-0.20828737
183	0x3d8b90c0	0.06814718
184	0x3eaf855d	0.34281436
185	0x3e9e4241	0.30909923
186	0x3e908a94	0.28230727
187	0xbe886869	-0.2664216
188	0xbe6f9867	-0.2339798
189	0x3e8223ef	0.2541804
190	0x3edf4354	0.43606055
191	0xbc48cff7	-0.012256614
192	0x3e37a39e	0.17933509
193	0x3e53a44a	0.2066814
194	0x3e98a37e	0.29812235
195	0x3e27fd79	0.16405286
196	0xbe66e3f1	-0.2254789
197	0x3d4188b7	0.047249522
198	0x3e365fe6	0.1781002
199	0xbcf7b96d	-0.030239785
200	0xbebecdd6	-0.37266415
201	0xbea3efbe	-0.32018846
202	0xbe285df0	-0.16442084
203	0x3ec95d9b	0.39329228
204	0x3e30f2a9	0.17280068
205	0x3eca7c63	0.39548025
206	0x3e13e95c	0.14444488
207	0x3e9d9347	0.30776426
208	0xbcb349d1	-0.021885784
209	0x3e23aeba	0.15984622
210	0x3e9d394a	0.3070777
211	0xbe98097e	-0.29694742
212	0xbe9a0ec4	-0.3008939
213	0xbe290ed7	-0.16509567
214	0xbd3986ed	-0.04529469
215	0xbe3b90d7	-0.18316971
216	0xbe87668a	-0.2644542
217	0x3da289c0	0.0793643
218	0x3ea3994a	0.31952888
219	0xbec6eadc	-0.38851058
220	0x3c262c42	0.010142388
221	0xbea1e948	-0.31623292
222	0x3d18b502	0.037281998
223	0xbda8934d	-0.082312204

hidden_layers_c.1.weight f4 [32]
0	0x3f6571ec	0.89626956
1	0x3f757600	0.9588318
2	0x3f758ef0	0.9592123
3	0x3f795680	0.97397614
4	0x3f798792	0.9747249
5	0x3f73a077	0.95166725
6	0x3f822c5e	1.016979
7	0x3f5d81b6	0.8652605
8	0x3f747aec	0.95500064
9	0x3f7a6038	0.9780307
10	0x3f7070f5	0.9392236
11	0x3f762767	0.96153873
12	0x3f6d8c17	0.92791885
13	0x3f6fe988	0.93715715
14	0x3f747b02	0.95500195
15	0x3f5b2670	0.85605526
16	0x3f72ad0a	0.94795287
17	0x3f7c2065	0.9848693
18	0x3f7dc044	0.991215
19	0x3f77a32c	0.96733356
20	0x3f6772fc	0.9040983
21	0x3f634042	0.88769925
22	0x3f81ff60	1.0156059
23	0x3f6faac2	0.9361993
24	0x3f69fb7b	0.91399354
25	0x3f662d79	0.89913136
26	0x3f6287bb	0.8848836
27	0x3f7433f5	0.9539178
28	0x3f6e16e5	0.93003684
29	0x3f689270	0.90848446
30	0x3f59785f	0.84949297
31	0x3f51dabe	0.819744

hidden_layers_c.1.bias f4 [32]
0	0x3ba28da5	0.004960733
1	0x3bac12bd	0.005251257
2	0xbdcfe0d3	-0.10150304
3	0x3c1c3a63	0.009535405
4	0x3e04cce3	0.12968783
5	0x3d696ebe	0.056990378
6	0x3d83c49e	0.06433986
7	0x3d2958b8	0.041344374
8	0xbd207fe8	-0.03918448
9	0x3cd5367a	0.026026953
10	0xbd270ad8	-0.040781826
11	0xbd4fd355	-0.05073865
12	0x3d0db5b0	0.0345971
13	0xbd2c500e	-0.042068534
14	0xbd22da7a	-0.039759137
15	0xbc24f85a	-0.010068977
16	0x3cbd2595	0.02308921
17	0xbd20dde3	-0.039274108
18	0xbd6da963	-0.058022868
19	0x3dcae860	0.09907603
20	0x3cd57e39	0.026061164
21	0xbd63df03	-0.055632602
22	0x3d7adfd7	0.061248627
23	0xbcb4f5c0	-0.022089839
24	0xbd8b8ce4	-0.06813982
25	0x3d3c7854	0.04601319
26	0x3ca3a577	0.01997636
27	0x3d80fb40	0.06297922
28	0xbd4a57c9	-0.049400125
29	0xbda89054	-0.082306534
30	0xbd90e079	-0.07074065
31	0xbd3f0254	-0.04663308
