DFT/checkpoints/NN_PBE/state_dict_star_0.067.pth (torch, 60862 bytes, 34 tensors)

hidden_layers_x.0.weight f4 [32, 2]
0.4587801 0.31889477 -0.49004996 0.6696258 -0.68278664 -0.123059906 0.3170894 0.23380962
-0.5695557 0.034823045 -0.21915606 -0.23479195 -0.57927364 0.14278401 0.6347048 0.3331823
0.24721833 -0.3434293 -0.39509612 0.1448874 0.19326405 -0.39305294 -0.70694476 -0.13678858
-0.104337275 0.3678197 -0.018959017 -0.38512865 -0.24623409 -0.10502718 -0.6768461 0.36768264
0.61952126 -0.64359957 0.31646535 -0.36090928 0.083796576 -0.48105654 -0.52204347 -0.5379667
0.33917654 -0.4655436 -0.16653752 0.41151345 -0.2555442 0.5828842 0.40673113 0.24906406
0.42856055 -0.18047631 -0.073323205 0.20672901 -0.44294092 0.5141398 -0.47102514 -0.15568894
-0.42316943 -0.2976244 0.73234147 0.63720846 -0.41973466 0.20634359 0.07821569 -0.18148592
00000000: 3ae5 ea3e 2d46 a33e d4e7 fabe 996c 2b3f
00000010: 1bcb 2ebf d506 fcbd 8b59 a23e ca6b 6f3e
00000020: 67ce 11bf 9ca2 0e3d 726a 60be 4d6d 70be
00000030: 474b 14bf f935 123e 047c 223f df96 aa3e
00000040: cd26 7d3e f7d5 afbe 0a4a cabe 5d5d 143e
00000050: 03e7 453e 3c3e c9be 55fa 34bf 4e12 0cbe
00000060: c8ae d5bd dd52 bc3e f14f 9bbc 952f c5be
00000070: ca24 7cbe 7d18 d7bd c945 2dbf e640 bc3e
00000080: f298 1e3f f1c2 24bf bf07 a23e 1ac9 b8be
00000090: 8a9d ab3d 0b4d f6be a4a4 05bf 30b8 09bf
000000a0: 8ca8 ad3e bb5b eebe d088 2abe e4b1 d23e
000000b0: b0d6 82be e637 153f 103f d03e a60a 7f3e
000000c0: 4a6c db3e c8ce 38be 7a2a 96bd c5b0 533e
000000d0: 27c9 e2be aa9e 033f 352a f1be ec6c 1fbe
000000e0: aaa9 d8be 3a62 98be bb7a 3b3f 1820 233f
000000f0: 76e7 d6be bc4b 533e 8c2f a03d 72d7 39be

hidden_layers_x.1.weight f4 [32]
0.94657695 1.0784194 1.0722557 0.93360895 0.8769564 1.0511702 0.94521224 1.051091
0.9420811 0.9929111 0.9372746 1.0523818 1.0317699 0.9269958 0.9257289 1.0231192
1.0709678 0.95502275 0.9750921 0.90952563 1.0235945 1.0201479 0.93713987 1.0191714
0.92969215 1.0687474 0.95081276 1.0420518 1.0014502 0.93186843 0.91705745 1.0047674
00000000: de52 723f a609 8a3f ad3f 893f ff00 6f3f
00000010: 3780 603f bf8c 863f 6ef9 713f 268a 863f
00000020: 3a2c 713f 6c2f 7e3f 3af1 6f3f 72b4 863f
00000030: 0911 843f 994f 6d3f 92fc 6c3f 92f5 823f
00000040: 7915 893f 5f7c 743f a39f 793f acd6 683f
00000050: 2505 833f 3594 823f 66e8 6f3f 3574 823f
00000060: 4e00 6e3f b7cc 883f 7768 733f f461 853f
00000070: 852f 803f ee8e 6e3f 47c4 6a3f 389c 803f

hidden_layers_x.1.bias f4 [32]
-0.05684072 -0.08688502 0.02160828 -0.065850176 -0.060811725 0.049106687 0.051463142 0.06344541
-0.025245959 0.026007198 -0.066852786 -0.047682595 0.065740444 -0.06860216 -0.06015663 -0.071825475
0.07953075 -0.042984866 -0.016876727 -0.1363358 0.029455818 0.034961987 -0.05201337 0.037930347
0.035322666 0.054238852 -0.06332198 0.09235541 0.010442087 -0.07430428 -0.07448668 0.020006802
00000000: d1d1 68bd c6f0 b1bd d903 b13c 75dc 86bd
00000010: b715 79bd 1824 493d 04cb 523d abef 813d
00000020: 9dd0 cebc 0c0d d53c 1dea 88bd d34e 43bd
00000030: eda2 863d 4a7f 8cbd cc66 76bd 3c19 93bd
00000040: 05e1 a23d e610 30bd 1041 8abc 9d9b 0bbe
00000050: 544d f13c 4d34 0f3d f90b 55bd da5c 1b3d
00000060: 80ae 103d 8f29 5e3d f4ae 81bd d524 bd3d
00000070: 4a15 2b3c d82c 98bd 798c 98bd 4ee5 a33c

hidden_layers_x.3.fc.0.weight f4 [32, 32]
-0.16350152 -0.11297577 0.16661108 -0.016646225 0.08874527 -0.051385034 0.11932117 0.019519275
-0.033439513 0.1768696 -0.084288955 0.07442142 0.023544574 -0.02071589 0.029876437 0.07105797
-0.27333066 -0.016202658 -0.08578354 0.01616887 -0.18529323 -0.17175542 -0.20459686 0.08058984
-0.08216681 -0.22848439 0.08647596 -0.03228658 -0.008268268 -0.06744123 -0.085478686 0.06200236
0.047098044 0.2730801 -0.07826507 0.08923808 -0.08568372 0.0649545 0.16950464 -0.0133805815
0.100858964 0.22187491 -0.13524519 -0.07625435 0.17531076 0.008586871 -0.12708883 0.052001894
-0.02075076 0.047956273 -0.048842262 -0.08270006 -0.038872316 -0.04516445 -0.10813418 -0.22912905
-0.024818655 0.054744255 0.28654295 0.010888202 -0.017514963 -0.16628748 -0.12122627 -0.2052519
0.059339836 0.089299805 -0.08200622 0.16713545 0.0067277597 -0.12083007 0.11528907 -0.08339112
0.06974185 0.14039816 0.062865764 0.045119766 -0.12286945 -0.0031231446 -0.12723486 0.15954259
0.062996075 -0.0257066 -0.13224944 -0.030369775 0.10388796 0.12641591 0.0020946946 -0.07880609
-0.14972101 0.13000365 0.027575439 0.01696304 -0.18929052 -0.068393946 -0.122224614 0.12794748
-0.17094187 -0.028703393 0.108736925 -0.18236186 0.08514057 -0.055130783 0.035113 -0.039810557
0.10623362 0.011126796 -0.016124941 -0.11142293 0.112317674 0.16524085 0.2350764 0.09904256
-0.019332334 0.20853716 -0.017037673 -0.024171442 0.0594978 -0.07903942 0.022365935 0.0918777
-0.0037758674 0.018939016 -0.10697535 -0.11072537 0.2061773 0.05697182 0.12084608 0.10036242
-0.02199089 -0.08710298 -0.17763431 -0.11018908 0.10724582 -0.14622357 -0.17182957 -0.07746197
-0.07208283 -0.022988766 0.13854146 -0.21668848 0.018654063 0.08020441 -0.07280251 0.042679664
-0.014429216 -0.08910468 0.01937983 0.0747043 0.122223504 -0.055210922 -0.044416003 0.10261927
0.23313865 -0.23751776 -0.09822241 -0.09669377 -0.047349475 0.004839341 -0.14052434 0.16412048
-0.22707969 -0.03979106 0.108240895 -0.024757639 0.110559754 -0.043528136 -0.053658586 -0.10950389
-0.1335208 0.2749481 -0.06655271 -0.008957304 -0.07381454 0.007592897 0.04020811 0.15711957
-0.15335667 -0.024795555 0.043655608 -0.17494695 0.09778025 0.13671395 -0.036106996 0.10483964
-0.03641562 0.08383126 -0.13063319 0.22292282 -0.18183653 0.031295918 0.114490606 0.093457945
0.17996356 0.081546 -0.0015211968 -0.018551987 -0.12068707 0.17979236 0.07480735 0.13841586
0.24935165 -0.16797149 0.18640323 -0.26508528 -0.18499747 0.1698254 0.22119012 0.017342607
0.21788144 -0.046750035 -0.08527671 0.14623624 -0.02920058 -0.23520288 -0.05045043 0.08420137
0.028093688 -0.029720405 -0.2510986 -0.1149571 0.12250189 -0.08802335 0.010431392 0.12695333
0.0052877376 0.08325141 0.167838 0.06303008 -0.002399774 -0.118732095 -0.034380943 0.06622501
-0.0018872116 0.0088020675 0.028950537 -0.014309093 0.123760454 -0.024708942 -0.11003429 -0.09443145
-0.10758254 -0.04553802 0.13090421 0.15149784 0.034070868 -0.06569006 0.025434118 -0.0710666
0.1220147 0.066127494 0.005428538 -0.2128098 0.057854317 -0.073002174 -0.041845094 0.017375033
00000000: f16c 27be d75f e7bd 189c 2a3e aa5d 88bc
00000010: 15c0 b53d 1d79 52bd a85e f43d e3e6 9f3c
00000020: dff7 08bd 4e1d 353e b09f acbd 426a 983d
00000030: 8de0 c03c 5fb4 a9bc 6ebf f43c d786 913d
00000040: fff1 8bbe 70bb 84bc 48af afbd 9474 843c
00000050: 82bd 3dbe a7e0 2fbe d781 51be 490c a53d
00000060: 1347 a8bd d0f7 69be 4f1a b13d ef3e 04bd
00000070: a177 07bc a11e 8abd 730f afbd 30f6 7d3d
00000080: e1e9 403d 28d1 8b3e 7049 a0bd 74c2 b63d
00000090: f27a afbd dd06 853d a092 2d3e 3a3a 5bbc
000000a0: 258f ce3d 2d33 633e b77d 0abe 3e2b 9cbd
000000b0: aa84 333e f3af 0c3c 9323 02be f0ff 543d
000000c0: 7ffd a9bc cc6d 443d d30e 48bd a65e a9bd
000000d0: 9438 1fbd 5cfe 38bd 7475 ddbd cea0 6abe
000000e0: 7e50 cbbc 833b 603d c2b5 923e 6e64 323c
000000f0: 8a7b 8fbc 4447 2abe 7b45 f8bd 8e2d 52be
00000100: 540e 733d d1e2 b63d e1f2 a7bd 8e25 2b3e
00000110: 8a74 dc3b c175 f7bd ad1c ec3d f7c8 aabd
00000120: d1d4 8e3d 89c4 0f3e c4bf 803d 81cf 383d
00000130: faa2 fbbd acad 4cbb db49 02be 225f 233e
00000140: 1604 813d a696 d2bc 666c 07be 09ca f8bc
00000150: 36c3 d43d 2c73 013e 2547 093b 1665 a1bd
00000160: 7750 19be ad1f 053e e3e5 e13c 13f6 8a3c
00000170: 60d5 41be 2012 8cbd e650 fabd aa04 033e
00000180: 630b 2fbe 6123 ebbc 77b1 de3d 11bd 3abe
00000190: 2e5e ae3d d1d0 61bd a6d2 0f3d 6510 23bd
000001a0: 0391 d93d 2a4d 363c 7418 84bc b531 e4bd
000001b0: cf06 e63d e634 293e deb7 703e d3d6 ca3d
000001c0: d85e 9ebc c48a 553e 9792 8bbc 3003 c6bc
000001d0: f7b3 733d 6bdf a1bd c438 b73c 602a bc3d
000001e0: 8b74 77bb ff25 9b3c e415 dbbd fcc3 e2bd
000001f0: 2420 533e 485b 693d 267e f73d d08a cd3d
00000200: 3d26 b4bc 0c63 b2bd c5e5 35be d0aa e1bd
00000210: b2a3 db3d a2bb 15be 17f4 2fbe 62a4 9ebd
00000220: 2aa0 93bd f052 bcbc d0dd 0d3e 96e3 5dbe
00000230: 68d0 983c 3642 a43d 7b19 95bd dfd0 2e3d
00000240: 8568 6cbc 847c b6bd 73c2 9e3c 91fe 983d
00000250: 5150 fa3d d924 62bd 8eed 35bd 0d2a d23d
00000260: e6bb 6e3e db37 73be d528 c9bd 6207 c6bd
00000270: 86f1 41bd 5693 9e3b 9de5 0fbe 330f 283e
00000280: 9487 68be f3fb 22bd 67ad dd3d 88d0 cabc
00000290: 276d e23d 8f4a 32bd 1bc9 5bbd 9343 e0bd
000002a0: adb9 08be ffc5 8c3e ca4c 88bd a8c1 12bc
000002b0: 142c 97bd d6cd f83b 42b1 243d f4e3 203e
000002c0: 8809 1dbe 0c20 cbbc 39d0 323d 4b25 33be
000002d0: 0341 c83d befe 0b3e eee4 13bd 2ab6 d63d
000002e0: 8c28 15bd b9af ab3d b5c4 05be e145 643e
000002f0: 5b33 3abe 2630 003d 0d7a ea3d e166 bf3d
00000300: 5e48 383e 9701 a73d e562 c7ba 56fa 97bc
00000310: c82a f7bd 7d1b 383e 9934 993d e3bc 0d3e
00000320: 0a56 7f3e b800 2cbe 7de0 3e3e 42b9 87be
00000330: fa6f 3dbe b6e6 2d3e aa7f 623e 1512 8e3c
00000340: 501c 5f3e f77c 3fbd 8ea5 aebd f4be 153e
00000350: 0e36 efbc 06d9 70be 1ca5 4ebd c571 ac3d
00000360: bc24 e63c 3578 f3bc ff8f 80be a16e ebbd
00000370: 45e2 fa3d 9645 b4bd 6ee8 2a3c 0e00 023e
00000380: c244 ad3b b77f aa3d badd 2b3e ea15 813d
00000390: 8745 1dbb d029 f3bd 08d3 0cbd faa0 873d
000003a0: 505c f7ba 8c36 103c ad29 ed3c b070 6abc
000003b0: 1f76 fd3d 686a cabc a859 e1bd 4765 c1bd
000003c0: 3c54 dcbd 1386 3abd c10b 063e 4022 1b3e
000003d0: e58d 0b3d 8388 86bd 365b d03c 5e8b 91bd
000003e0: d8e2 f93d da6d 873d e1e1 b13b d0ea 59be
000003f0: a6f8 6c3d 2a82 95bd c365 2bbd 1656 8e3c

hidden_layers_x.3.fc.1.weight f4 [32]
0.926368 0.94179386 0.91467977 1.0135937 0.9349424 0.9168313 1.0838226 0.8892947
1.0378004 0.9381591 1.0458485 0.95041203 1.0000393 0.9516552 0.9484824 0.963227
0.9279716 0.97619677 1.0726719 0.9786878 1.0377575 0.9330653 1.0723076 0.94417965
0.9659736 0.9411617 0.94111603 1.0292492 0.9451274 0.94320756 1.0756611 0.93962294
00000000: 7426 6d3f 6719 713f 7428 6a3f 70bd 813f
00000010: 6358 6f3f 75b5 6a3f b3ba 8a3f d1a8 633f
00000020: a5d6 843f 322b 703f 5dde 853f 344e 733f
00000030: 4a01 803f ad9f 733f becf 723f 0b96 763f
00000040: 8c8f 6d3f 08e8 793f 504d 893f 498b 7a3f
00000050: 3dd5 843f 5edd 6e3f 6041 893f c2b5 713f
00000060: 0c4a 773f f9ef 703f fbec 703f 70be 833f
00000070: dff3 713f 0d76 713f 43af 893f 218b 703f

hidden_layers_x.3.fc.1.bias f4 [32]
-0.07956083 -0.0513821 -0.022228122 0.054489635 -0.001094176 -0.09618022 0.09510295 -0.0014059225
0.042774428 -0.072629094 0.058403533 0.025386462 0.018585488 -0.07350195 -0.06281839 -0.040590204
-0.0762193 -0.051098533 0.08791233 -0.029910704 -0.04725533 -0.050390374 0.0673063 -0.065634176
0.018513035 -0.065292664 -0.045016706 0.041925758 -0.07006491 0.11328688 0.08204724 0.053540546
00000000: caf0 a2bd 0976 52bd c017 b6bc 8630 5f3d
00000010: 746a 8fba 23fa c4bd 56c5 c23d ee46 b8ba
00000020: 3d34 2f3d 90be 94bd 8b38 6f3d 45f7 cf3c
00000030: 9840 983c 3188 96bd eea6 80bd ea41 26bd
00000040: dd18 9cbd b24c 51bd 610b b43d 4b07 f5bc
00000050: ce8e 41bd 2366 4ebd e3d7 893d 366b 86bd
00000060: a6a8 973c 29b8 85bd 7063 38bd 58ba 2b3d
00000070: 317e 8fbd f402 e83d 6208 a83d 554d 5b3d

hidden_layers_x.3.fc.3.weight f4 [32, 32]
-0.17415312 0.1261125 0.2028229 -0.042825796 0.021405403 0.09182214 -0.1892078 0.05957961
-0.22979419 0.031440403 -0.24342719 -0.1025684 -0.0139394095 0.053099178 -0.12669516 -0.103356384
-0.10757137 0.22687978 -0.1252226 0.07340051 0.10143318 -0.15945324 -0.16088283 -0.06928018
-0.015472012 0.06489606 0.22828738 -0.17776245 -0.03900722 -0.07503569 -0.17393397 0.05628183
-0.06063725 -0.020814206 -0.14333838 0.11459656 0.1725863 -0.14054057 0.30344298 -0.024152415
0.06959802 0.16073646 0.15723868 -0.1796906 -0.22139429 -0.051601663 0.042413484 0.18166196
0.020560876 -0.16593622 0.0031488282 -0.015191823 -0.019332336 0.07063618 0.05846661 0.015225707
0.061348945 -0.13698728 0.09569548 0.16636635 -0.01500431 0.1547978 0.032877237 0.06905725
0.08385209 0.059510212 -0.16021888 0.0637558 0.06136069 -0.12633075 0.048737086 -0.23502682
-0.22162278 -0.17040496 -0.17812221 0.0018391783 0.037056725 -0.11962156 -0.13996021 -0.17696099
0.058614735 -0.03902212 0.23946637 0.23126347 -0.024157953 -0.1841973 0.22218904 0.050830513
-0.010692114 -0.18554148 -0.17903261 0.08993135 -0.16036597 -0.07773177 -0.067490816 0.26674953
-0.075535305 0.09020859 0.012536324 -0.066085786 0.17344287 -0.07365463 0.012090208 0.13331427
0.1169971 0.16517569 -0.05763549 0.043744493 -0.0126816975 0.022210397 0.030767096 -0.034933448
0.037694287 0.059007555 0.010151266 -0.071057275 0.08659942 0.12291306 -0.18392476 0.06951302
-0.039613098 0.19946304 -0.019784408 -0.14858973 0.19510108 -0.082261495 0.12470064 0.08954933
0.17749016 0.046410143 -0.06342355 0.039365124 -0.13957861 -0.058468487 0.17013855 -0.03703478
0.1833034 -0.010766798 0.05038722 0.09341798 -5.8540558e-05 -0.05136027 0.100280024 0.22806247
0.19209138 -0.07023752 0.1318801 0.050671425 0.09591582 -0.01856747 0.25613445 0.124222085
0.059098378 -0.053278312 0.20158586 -0.07987811 -0.004455304 -0.1512446 0.01580274 -0.020844532
-0.09663421 -0.03867359 -0.043558154 0.003474187 0.11316963 -0.14535989 -0.12627228 -0.14520809
-0.07122121 -0.07035497 -0.08382601 0.17622715 0.18280523 -0.08686164 -0.07585601 -0.16648172
-0.07978015 0.047147393 0.21552844 0.2273046 -0.033193864 0.20698632 0.20640457 0.21073079
-0.03655649 -0.22630128 -0.14000854 -0.056281686 -0.08125139 -0.12432823 0.006119571 -0.0019733314
0.00833312 0.10254317 -0.06251511 -0.08528762 0.15324044 0.024992896 -0.19589746 -0.06158128
0.039614994 0.18158582 -0.018654287 0.05728252 0.18202847 0.032622978 0.015340086 0.052125894
-0.023061097 -0.045797706 0.1740259 0.07659168 0.11219238 -0.15284404 -0.13418643 -0.087669015
-0.18648511 0.02469782 0.05271835 -0.071551986 0.016950784 0.18145965 0.03882113 -0.039638937
0.043158744 -0.13679762 0.095151365 -0.050038107 0.14578426 -0.12563112 0.020128926 0.057629615
0.19199604 0.14725785 -0.19159493 -0.23120257 -0.22813667 0.069586016 -0.035954863 -0.05150037
0.010005952 0.0153065715 -0.26072615 -0.006214704 0.0056971996 -0.18762855 -0.11989944 0.023290463
-0.14511232 0.12723526 0.2001957 -0.15883304 0.25998387 0.22176835 -0.019159691 0.12589896
00000000: 3255 32be a323 013e ceb0 4f3e 1a6a 2fbd
00000010: 625a af3c 3f0d bc3d b1bf 41be c009 743d
00000020: 2b4f 6bbe a7c7 003d fa44 79be 620f d2bd
00000030: 1f62 64bc 867e 593d 60bc 01be 83ac d3bd
00000040: 614e dcbd 2c53 683e 5a3a 00be 0253 963d
00000050: 33bc cf3d b647 23be 78be 24be c4e2 8dbd
00000060: 527e 7dbc 3ae8 843d 2bc4 693e 5c07 36be
00000070: 09c6 1fbd 50ac 99bd bf1b 32be c787 663d
00000080: c45e 78bd 8e82 aabc 4cc7 12be 9ab1 ea3d
00000090: 77ba 303e dee9 0fbe e15c 9b3e 49db c5bc
000000a0: 6889 8e3d 1998 243e 2d03 213e d000 38be
000000b0: 2fb5 62be 445c 53bd c3b9 2d3d 9805 3a3e
000000c0: 486f a83c 2feb 29be 925c 4e3b 20e7 78bc
000000d0: d95e 9ebc b4a9 903d af7a 6f3d 3e75 793c
000000e0: 0849 7b3d 6546 0cbe fefb c33d f15b 2a3e
000000f0: a3d4 75bc 5183 1e3e 48aa 063d e36d 8d3d
00000100: a5ba ab3d fbc0 733d 6b10 24be 6792 823d
00000110: 5955 7b3d d95c 01be 8aa0 473d dfaa 70be
00000120: 15f1 62be a37e 2ebe ab65 36be 9510 f13a
00000130: cbc8 173d 26fc f4bd bb51 0fbe 4335 35be
00000140: 0116 703d a9d5 1fbd ac36 753e 55d0 6c3e
00000150: e6e6 c5bc 389e 3cbe 8685 633e a833 503d
00000160: fa2d 2fbc 96fe 3dbe 5354 37be ed2d b83d
00000170: fa36 24be d631 9fbd a038 8abd 6593 883e
00000180: 41b2 9abd 48bf b83d 2765 4d3c fc57 87bd
00000190: 029b 313e 3dd8 96bd 0216 463c 8983 083e
000001a0: 2d9c ef3d d123 293e 3113 6cbd 6d2d 333d
000001b0: e5c6 4fbc 94f2 b53c 470b fc3c 6016 0fbd
000001c0: 5365 1a3d e8b1 713d 7f51 263c 7a86 91bd
000001d0: 095b b13d d8b9 fb3d c656 3cbe d85c 8e3d
000001e0: 5841 22bd 0a40 4c3e e912 a2bc e827 18be
000001f0: 94c8 473e b778 a8bd 0d63 ff3d a465 b73d
00000200: fbbf 353e 9018 3e3d 35e4 81bd 533d 213d
00000210: b2ed 0ebe a77c 6fbd cd38 2e3e c8b1 17bd
00000220: e3b3 3b3e 3967 30bc d462 4e3d ed51 bf3d
00000230: 7289 75b8 255f 52bd 9d5f cd3d 3589 693e
00000240: 9ab3 443e b0d8 8fbd 940b 073e d78c 4f3d
00000250: 836f c43d cf1a 98bc 0e24 833e 2668 fe3d
00000260: 2411 723d 5c3a 5abd 866c 4e3e 2297 a3bd
00000270: ccfd 91bb dddf 1abe bf74 813c 27c2 aabc
00000280: 28e8 c5bd 3368 1ebd 096a 32bd 30af 633b
00000290: 7bc5 e73d 39d9 14be 854d 01be 6eb1 14be
000002a0: 6ddc 91bd 4416 90bd f9ac abbd e474 343e
000002b0: 4b31 3b3e 84e4 b1bd 655a 9bbd 2f7a 2abe
000002c0: c663 a3bd a01d 413d 7db3 5c3e 89c2 683e
000002d0: 4af6 07bd 39f4 533e b85b 533e d0c9 573e
000002e0: 42bc 15bd 86bb 67be 665e 0fbe a087 66bd
000002f0: 2167 a6bd cd9f febd af86 c83b 0253 01bb
00000300: a387 083c 2702 d23d ec07 80bd 47ab aebd
00000310: 10eb 1c3e e7bd cc3c 5899 48be a73c 7cbd
00000320: 5543 223d a2f1 393e e0d0 98bc 13a1 6a3d
00000330: ac65 3a3e ac9f 053d fc54 7b3c f681 553d
00000340: a0ea bcbc 6096 3bbd d833 323e 19dc 9c3d
00000350: 1ec5 e53d 2683 1cbe 2b68 09be d08b b3bd
00000360: f4f5 3ebe 1553 ca3c 32ef 573d d989 92bd
00000370: 5fdc 8a3c 8fd0 393e e802 1f3d 705c 22bd
00000380: 39c7 303d ad14 0cbe b8de c23d c2f4 4cbd
00000390: 7848 153e 72a5 00be 6be5 a43c 080d 6c3d
000003a0: 9c9a 443e c3ca 163e 7631 44be 5ec0 6cbe
000003b0: a99c 69be 1d83 8e3d 6845 13bd 0df2 52bd
000003c0: 01f0 233c 6ac8 7a3c e67d 85be b7a4 cbbb
000003d0: 93af ba3b b321 40be d68d f5bd a4cb be3c
000003e0: 5398 14be f649 023e 1a00 4d3e 21a5 22be
000003f0: 9b1c 853e 3e17 633e c9f4 9cbc a8eb 003e

hidden_layers_x.3.fc.4.weight f4 [32]
1.0647506 0.9453798 1.0262076 0.9435843 0.8645078 0.9534451 0.9266437 1.0163189
1.0112566 0.97940177 0.94761735 0.96753466 1.0067356 1.0422913 0.92231536 0.8152919
1.0199138 1.0326412 0.9995795 1.0312396 0.9057678 0.9256379 0.9472626 0.9098335
1.0031475 0.93595266 0.93151736 0.95880634 0.9813234 1.0930959 0.9589591 0.90676063
00000000: bf49 883f 6904 723f c55a 833f be8e 713f
00000010: 6250 5d3f fa14 743f 8638 6d3f bd16 823f
00000020: db70 813f 13ba 7a3f 0d97 723f 5ab0 773f
00000030: b6dc 803f cd69 853f dc1c 6c3f f8b6 503f
00000040: 898c 823f 962d 843f 71e4 7f3f a9ff 833f
00000050: 66e0 673f 9bf6 6c3f cd7f 723f d9ea 683f
00000060: 2367 803f 989a 6f3f ec77 6e3f 5574 753f
00000070: 0338 7b3f 91ea 8b3f 587e 753f 7721 683f

hidden_layers_x.3.fc.4.bias f4 [32]
-0.06869646 -0.042761926 0.03750679 -0.060934097 -0.025614893 -0.018954972 -0.07537863 -0.047982354
-0.04958803 0.019978283 0.0023193422 0.018877147 0.014428495 -0.03703371 -0.093483925 -0.19697063
-0.21442755 -0.043505084 -0.035520654 0.02443032 0.012918857 -0.02236451 -0.06800676 -0.06840076
0.032539755 -0.09971717 -0.04917441 0.0011885652 0.029129481 -0.07128222 -0.036183733 -0.12312728
00000000: bbb0 8cbd 2127 2fbd b8a0 193d 0896 79bd
00000010: 53d6 d1bc 7547 9bbc 1c60 9abd 2589 44bd
00000020: d11c 4bbd 7fa9 a33c 1b00 183b 3fa4 9a3c
00000030: 7f65 6c3c a9b0 17bd 8074 bfbd abb2 49be
00000040: e592 5bbe 6332 32bd 1b7e 11bd 1822 c83c
00000050: 9da9 533c c735 b7bc 2147 8bbd b315 8cbd
00000060: 6848 053d 8438 ccbd 1b6b 49bd a1c9 9b3a
00000070: f3a0 ee3c 6afc 91bd 6535 14bd 282a fcbd

hidden_layers_x.4.fc.0.weight f4 [32, 32]
0.10641286 -0.22606692 -0.0948057 -0.10364482 -0.09499469 0.100662306 -0.08790817 -0.08407962
-0.053783536 -0.1369243 -0.053383134 0.17217618 0.03802997 0.08936416 -0.18235506 -0.17155121
-0.1570394 0.11474189 -0.012036053 -0.22775988 0.08114425 -0.15804876 0.124123044 0.1359099
0.060640175 -0.0057867025 0.09167103 0.056451973 0.009291273 -0.059662577 -0.22257462 -0.10977917
-0.03959784 0.1663659 0.13947015 0.15518783 0.0052031633 0.1697001 0.019078726 -0.034896836
-0.13974701 -0.20017657 0.060078226 -0.16727327 0.14010604 -0.07008794 0.09972872 -0.13877505
0.14820592 0.1803841 0.06986135 -0.09703438 -0.016827669 0.04067328 -0.07282026 0.122228056
-0.18854333 -0.124953814 0.22494595 0.17219462 0.0338801 0.015335858 -0.010707686 0.1713397
0.16924109 0.101409815 -0.009499271 0.002597366 0.26860046 0.10889856 -0.3593421 0.09809344
0.012880879 0.110508196 0.013460395 -0.1806025 0.010296393 -0.119029224 0.092050456 -0.14520279
-0.014692062 -0.20847541 -0.0010358711 -0.0039277915 -0.055577654 0.03299713 0.05409735 0.18841618
0.18038131 0.06222854 0.07470824 -0.06334037 0.22779351 0.034641415 -0.085077755 -0.02598607
0.06683473 0.044806447 -0.14896731 -0.089054264 -0.038868196 0.0019330758 -0.17236541 0.040343855
0.1589701 -0.094584115 0.06558126 0.016378114 0.04119777 -0.000824504 -0.0907586 0.09890951
-0.08587415 0.039631303 0.002402915 0.045123752 0.06266311 -0.047168694 0.062954076 -0.20679021
-0.19002326 -0.2626983 -0.17604999 -0.053361733 0.07004429 0.0748089 0.08138811 -0.0106588
-0.099536695 -0.06037495 0.09029171 -0.0061770063 0.20626979 0.046276063 0.18546097 -0.109001465
0.03728763 0.19933121 0.04186884 0.0803673 0.17733644 0.101897575 0.18999596 -0.07582035
0.19158623 0.15283956 0.21608678 0.2022684 0.0076384004 0.060175207 -0.039624874 0.10031671
-0.10150152 -0.20665285 -0.10932625 -0.06757154 0.21668446 0.00040212082 0.13164258 0.109628975
-0.0394663 -0.16046427 -0.1958526 -0.14359115 -0.0012786437 -0.030943643 0.0045318846 0.053171203
0.10529862 -0.062564954 -0.19101141 -0.048349027 -0.019373324 0.03365913 0.019074216 0.17737025
-0.062345594 0.02025373 -0.087416224 0.012870395 -0.06971355 0.097440034 -0.059388205 -0.16182865
-0.16487838 -0.04819386 -0.15596764 -0.16037565 0.06397262 -0.06214923 0.034859248 0.106113106
-0.022233749 -0.21723926 -0.0851388 -0.20191212 0.08129277 -0.019452034 -0.13915636 -0.12880138
0.01878578 0.006916649 0.065868735 0.13186532 -0.08723828 0.1047985 0.06519555 0.0059580887
-0.041862402 -0.05466904 0.076094046 -0.17593102 -0.034471657 -0.21356335 0.087212875 0.013430879
-0.028265057 -0.020481462 -0.2040292 -0.09684992 -0.120274 0.112239644 0.15192439 0.043883625
0.05342338 -0.08638963 -0.054782085 0.21029794 -0.034531776 -0.0039435173 -0.01117467 0.19561985
-0.11643655 -0.18549247 0.14244604 0.17353198 -0.057467844 0.05691817 0.0543785 -0.25563157
0.06738811 -0.10612006 -0.07734288 -0.13628013 0.14362621 -0.21634857 0.016734725 0.049240336
0.07914356 -0.018235821 -0.14214468 -0.03812343 -0.2670385 -0.18144567 -0.19111335 0.034996312
00000000: fcee d93d 167e 67be 7e29 c2bd bc43 d4bd
00000010: 938c c2bd 0a28 ce3d 3309 b4bd f031 acbd
00000020: 204c 5cbd e235 0cbe 46a8 5abd f44e 303e
00000030: 50c5 1b3d 8f04 b73d 49bb 3abe 1fab 2fbe
00000040: f0ce 20be ccfd ea3d de32 45bc e339 69be
00000050: f52e a63d 89d7 21be 3934 fe3d f72b 0b3e
00000060: d561 783d 619e bdbb 05be bb3d 2f3a 673d
00000070: 6c3a 183c bf60 74bd 9aea 63be e7d3 e0bd
00000080: 5831 22bd d35b 2a3e 43d1 0e3e 8fe9 1e3e
00000090: 4c7f aa3b ddc5 2d3e fd4a 9c3c fcef 0ebd
000000a0: d719 0fbe 16fb 4cbe 9614 763d af49 2bbe
000000b0: f577 0f3e 448a 8fbd 923e cc3d 0c1b 0ebe
000000c0: 4bc3 173e 9cb6 383e 7813 8f3d f6b9 c6bd
000000d0: 2eda 89bc 0699 263d ca22 95bd b452 fa3d
000000e0: 8111 41be c9e7 ffbd 3b58 663e c953 303e
000000f0: dcc5 0a3d 4043 7b3c 4a6f 2fbc ad73 2f3e
00000100: 894d 2d3e f3af cf3d d5a2 1bbc 9238 2a3b
00000110: 0086 893e 3506 df3d b0fb b7be 37e5 c83d
00000120: 530a 533c 1f52 e23d fd88 5c3c ddef 38be
00000130: 34b2 283c 98c5 f3bd f384 bc3d 0ab0 14be
00000140: f9b6 70bc 947a 55be 11c6 87ba b4b4 80bb
00000150: 65a5 63bd 0028 073d 2f95 5d3d 2cf0 403e
00000160: e1b5 383e 5be3 7e3d a200 993d 99b8 81bd
00000170: b442 693e 28e4 0d3d 3f3d aebd bde0 d4bc
00000180: a6e0 883d f786 373d e38a 18be 1562 b6bd
00000190: 4234 1fbd 435f fd3a 8f80 30be 993f 253d
000001a0: 0fc9 223e 51b5 c1bd 784f 863d 652b 863c
000001b0: febe 283d 8723 58ba a5df b9bd 1291 ca3d
000001c0: c9de afbd 6f54 223d 397a 1d3b afd3 383d
000001d0: 8455 803d f633 41bd 11ee 803d d0c0 53be
000001e0: 7595 42be 6480 86be 7346 34be d591 5abd
000001f0: 6173 8f3d 6935 993d cfae a63d 3fa2 2ebc
00000200: e5d9 cbbd b94b 77bd dcea b83d 7c68 cabb
00000210: 6338 533e f88b 3d3d 7be9 3d3e 293c dfbd
00000220: eaba 183d 7b1d 4c3e a97e 2b3d 9c97 a43d
00000230: af97 353e adaf d03d 4d8e 423e b347 9bbd
00000240: 2e2f 443e f981 1c3e da45 5d3e 731f 4f3e
00000250: 8c4b fa3b 477a 763d b14d 22bd d972 cd3d
00000260: 07e0 cfbd ce9c 53be 71e6 dfbd f362 8abd
00000270: 88e2 5d3e bed3 d239 50cd 063e 2885 e03d
00000280: 6aa7 21bd bf50 24be 958d 48be 8f09 13be
00000290: 2a98 a7ba 867d fdbc 3480 943b 0cca 593d
000002a0: cea6 d73d 0e22 80bd 7f98 43be a109 46bd
000002b0: ceb4 9ebc 28de 093d 8841 9c3c 8ca0 353e
000002c0: 185e 7fbd 26eb a53c 4707 b3bd 59de 523c
000002d0: fac5 8ebd a48e c73d 0c41 73bd 69b6 25be
000002e0: e1d5 28be ed66 45bd fbb5 1fbe 8439 24be
000002f0: 1404 833d 3190 7ebd 92c8 0e3d d451 d93d
00000300: 8d23 b6bc f873 5ebe 405d aebd 0dc2 4ebe
00000310: d37c a63d df59 9fbc 017f 0ebe 82e4 03be
00000320: a3e4 993c 0fa5 e23b 30e6 863d b407 073e
00000330: fca9 b2bd 99a0 d63d 3f85 853d 123c c33b
00000340: e977 2bbd a5ec 5fbd 32d7 9b3d 4327 34be
00000350: 2732 0dbd 5ab0 5abe aa9c b23d 310d 5c3c
00000360: 1f8c e7bc bdc8 a7bc 08ed 50be 4059 c6bd
00000370: 3752 f6bd e6dd e53d 1192 1b3e 51bf 333d
00000380: 79d2 5a3d 0ced b0bd 2e63 60bd 5858 573e
00000390: 3171 0dbd 9f38 81bb f715 37bc 9250 483e
000003a0: 4976 eebd bdf1 3dbe 60dd 113e 5eb2 313e
000003b0: 6763 6bbd 0723 693d fdbb 5e3d 24e2 82be
000003c0: c702 8a3d 7955 d9bd f265 9ebd 058d 0bbe
000003d0: c012 133e 7b8a 5dbe 4317 893c 3cb0 493d
000003e0: 0516 a23d 4a63 95bc 608e 11be 5027 1cbd
000003f0: 45b9 88be e5cc 39be 38b3 43be 4b58 0f3d

hidden_layers_x.4.fc.1.weight f4 [32]
0.92011285 1.0478798 1.128983 0.9475805 1.0602571 0.9863229 0.9354987 0.99334717
0.9381589 1.0406275 0.94120914 1.0627102 0.9914324 0.9987016 1.0170379 0.929002
1.0468324 0.99045044 0.918286 1.1086147 1.0432311 0.9365561 1.0008802 1.0231164
0.9979568 1.0410392 1.018907 0.88367605 1.020934 0.93829066 1.065078 0.97502416
00000000: 848c 6b3f ed20 863f 8482 903f a394 723f
00000010: 81b6 873f a87f 7c3f d87c 6f3f 004c 7e3f
00000020: 2f2b 703f 4833 853f 15f3 703f e306 883f
00000030: 84ce 7d3f e8aa 7f3f 4c2e 823f 13d3 6d3f
00000040: 9bfe 853f 298e 7d3f cb14 6b3f 16e7 8d3f
00000050: 9988 853f 24c2 6f3f d81c 803f 7af5 823f
00000060: 197a 7f3f c640 853f 8b6b 823f 9838 623f
00000070: f7ad 823f d133 703f 7a54 883f 2f9b 793f

hidden_layers_x.4.fc.1.bias f4 [32]
-0.080484316 0.03891244 0.12998469 -0.05060207 0.088148944 -0.03616736 -0.05633398 -0.0039513744
-0.04412216 0.053652376 -0.057673074 0.027883882 -0.03651006 -0.05444155 0.08872919 -0.07163223
-0.052664887 -0.044093188 -0.07077204 0.10515235 0.035455182 -0.05988444 -0.04860649 0.04093254
0.020227818 0.07282365 -0.09744686 -0.13513947 0.06723495 -0.06460523 0.05556791 -0.0061356984
00000000: f6d4 a4bd a762 1f3d b51a 053e 1e44 4fbd
00000010: 6f87 b43d 3a24 14bd 76be 66bd 887a 81bb
00000020: 70b9 34bd 98c2 5b3d 9a3a 6cbd bd6c e43c
00000030: 938b 15bd 1afe 5ebd a6b7 b53d ebb3 92bd
00000040: 23b7 57bd 0f9b 34bd eef0 90bd 1e5a d73d
00000050: 7439 113d 6349 75bd 9917 47bd e1a8 273d
00000060: cfb4 a53c 9124 953d 3892 c7bd 0062 0abe
00000070: 7ab2 893d bf4f 84bd 2d9b 633d f80d c9bb

hidden_layers_x.4.fc.3.weight f4 [32, 32]
0.2129439 0.06964879 -0.16648035 -0.06680626 0.14910126 -0.13455962 -0.09284662 0.19111335
0.15567149 0.29884014 0.072256446 0.2175758 -0.046492618 0.27087134 0.15520541 -0.09162574
0.122017056 -0.29557604 -0.021943701 0.3010512 0.04215566 0.2480859 -0.053451132 0.22294322
-0.08622836 0.24832949 -0.099332064 0.14322793 0.1717005 -0.08560043 0.3119258 -0.033184297
0.050284706 -0.16703944 -0.0664669 0.00646332 -0.0480633 0.09288405 0.1146475 -0.023351397
0.035636313 -0.18587556 0.08507696 0.041979894 -0.15861171 0.034246206 0.04150472 0.115183674
0.055860184 0.12334436 -0.17157915 -0.006151409 -0.0604651 0.07862832 0.07022159 -0.12945285
-0.083326794 -0.021843653 -0.017114542 0.108340785 -0.06675402 0.099957064 -0.117532626 -0.116923325
0.06346599 -0.1147569 -0.044814017 -0.031734034 -0.22001034 -0.11322703 0.06374695 0.08774846
0.120990194 0.09119689 0.07094438 -0.11342276 0.09370601 -0.15909871 -0.17555909 0.10939324
-0.11725198 -0.1286971 -0.043334205 -0.16106988 -0.12202907 0.13597888 -0.018104622 0.033297125
-0.16757238 -0.02545864 0.06774451 0.14486736 -0.1907213 -0.048164807 0.06536862 -0.1378447
0.0997654 -0.04428538 -0.56233686 0.040391665 0.03835791 0.19345273 -0.003446188 -0.053581323
0.0972135 -0.010846469 -0.14506492 0.057273403 -0.23400824 -0.15211642 -0.21353374 -0.15633702
0.0037529017 -0.026314868 -0.20678096 -0.08356452 -0.08160279 0.09366497 0.011583291 -0.08226868
-0.0019151472 -0.037957188 -0.14876084 -0.037776183 -0.21135698 0.017487904 0.10325292 -0.010051003
-0.06024309 0.067139104 -0.019145962 -0.0025500243 0.20240723 -0.0041388883 -0.10400346 0.24278972
0.06890462 0.27580798 0.19012864 0.11193848 -0.101092696 0.118702605 0.13651972 0.06349377
0.20698744 0.010681713 0.20361361 0.09537618 -0.19356862 0.022683533 0.030898187 0.23995961
-0.0978908 0.24682806 0.20835121 -0.027473522 -0.10686347 -0.072816595 0.21506979 0.17093183
-0.21530236 0.09364349 -0.025081532 -0.019475669 -0.0408764 0.091217384 -0.051529355 0.10409993
0.021818528 0.07002639 -0.14243175 -0.1279882 -0.035759 -0.042640027 -0.0820428 -0.06336347
-0.08151535 0.054838423 -0.021061381 0.0067619337 -0.1259068 -0.14882673 0.08002738 0.14376901
-0.10173568 -0.08843601 -0.07437667 0.019819673 -0.14143172 -0.23128124 0.02859522 -0.08073833
0.0383046 -0.12925892 0.016130647 -0.102609605 -0.09918777 0.026578864 -0.1725071 0.04089168
-0.12491275 -0.00046897953 0.17862687 0.17060271 0.039902754 -0.031092219 0.053336713 0.10695306
-0.053032126 -0.047787644 -0.120400086 0.22605528 0.18041441 -0.045766354 -0.16234028 0.085219756
0.04883283 -0.052604333 -0.13678282 -0.12040662 0.16435769 -0.009366438 0.1800648 0.13377343
0.047179285 -0.108832 -0.10278397 -0.06669563 0.024693143 -0.14704522 0.124926664 0.14299051
0.08874957 0.054676395 -0.050764896 -0.08003683 -0.09772728 -0.06843693 -0.04402253 -0.0740492
0.045287035 0.026999708 -0.076616846 0.015145662 -0.048269745 0.14065519 0.010134849 -0.04383719
0.17992538 -0.0913429 -0.028385937 0.13274728 0.12086506 -0.038723715 0.08664687 -0.11714497
00000000: f70d 5a3e 06a4 8e3d d379 2abe b8d1 88bd
00000010: 00ae 183e ffc9 09be 5e26 bebd 38b3 433e
00000020: 5968 1f3e 9301 993e 30fb 933d 31cc 5e3e
00000030: 0b6f 3ebd a6af 8a3e 2bee 1e3e 47a6 bbbd
00000040: 14e4 f93d be55 97be 47c3 b3bc 6223 9a3e
00000050: 6aab 2c3d 3b0a 7e3e 93ef 5abd 3a4b 643e
00000060: 7f98 b0bd 164a 7e3e 9c6e cbbd 58aa 123e
00000070: 42d2 2f3e 474f afbd bdb4 9f3e 42ec 07bd
00000080: 56f7 4d3d 630c 2bbe cc1f 88bd 42ca d33b
00000090: 06de 44bd fe39 be3d 4fcc ea3d 6e4b bfbc
000000a0: 62f7 113d 2a56 3ebe d43c ae3d 1cf3 2b3d
000000b0: 1c6b 22be c045 0c3d da00 2a3d 6be5 eb3d
000000c0: a6cd 643d f89b fc3d 72b2 2fbe c291 c9bb
000000d0: 41aa 77bd e207 a13d 56d0 8f3d 4a8f 04be
000000e0: 3da7 aabd 76f1 b2bc cc33 8cbc c6e1 dd3d
000000f0: 55b6 88bd 4ab6 cc3d f2b4 f0bd 7f75 efbd
00000100: 75fa 813d aa05 ebbd e78e 37bd 8cfb 01bd
00000110: 644a 61be 93e3 e7bd c38d 823d 77b5 b33d
00000120: b5c9 f73d 6fc5 ba3d 494b 913d 314a e8bd
00000130: f0e8 bf3d c6ea 22be c3c5 33be 9009 e03d
00000140: ce21 f0bd 2cc9 03be 357f 31bd 81ef 24be
00000150: 61ea f9bd 0c3e 0b3e 2550 94bc 9162 083d
00000160: 1898 2bbe a38e d0bc a2bd 8a3d 1c58 143e
00000170: 724c 43be 7648 45bd fcdf 853d 2927 0dbe
00000180: cd51 cc3d 9664 35bd 4ff5 0fbf bb71 253d
00000190: 2f1d 1d3d 7918 463e 71d9 61bb 1778 5bbd
000001a0: df17 c73d 63b5 31bc e68b 14be 8497 6a3d
000001b0: db9f 6fbe 68c4 1bbe 97a8 5abe d016 20be
000001c0: 3ef3 753b 4792 d7bc 63be 53be e023 abbd
000001d0: 5d1f a7bd 6bd3 bf3d d8c7 3d3c 7b7c a8bd
000001e0: ad05 fbba ff78 1bbd c354 18be 33bb 1abd
000001f0: f76d 58be cb42 8f3c 4476 d33d f6ac 24bc
00000200: 75c1 76bd 3a80 893d fed7 9cbc 4f1e 27bb
00000210: d743 4f3e 839f 87bb c4ff d4bd de9d 783e
00000220: de1d 8d3d b436 8d3e 15b1 423e 0040 e53d
00000230: b009 cfbd 5a1a f33d d3cb 0b3e 0609 823d
00000240: 84f4 533e 5a02 2f3c 1680 503e 9654 c33d
00000250: da36 46be d1d2 b93c 321e fd3c f9b7 753e
00000260: f97a c8bd 7fc0 7c3e 055a 553e 2710 e1bc
00000270: 3cdb dabd de20 95bd 413b 5c3e c108 2f3e
00000280: 3978 5cbe 28c8 bf3d c977 cdbc 708b 9fbc
00000290: 036e 27bd 2ed0 ba3d 7210 53bd 5832 d53d
000002a0: c5bc b23c ff69 8f3d a1d9 11be 570f 03be
000002b0: 0778 12bd 4fa7 2ebd 0e06 a8bd b5c4 81bd
000002c0: 85f1 a6bd 419e 603d eb88 acbc 3693 dd3b
000002d0: b6ed 00be 0966 18be 65e5 a33d 2f38 133e
000002e0: cc5a d0bd f01d b5bd cc52 98bd de5c a23c
000002f0: 7ad3 10be fdd4 6cbe 8640 ea3c 235a a5bd
00000300: 49e5 1c3d 735c 04be 6b24 843c fc24 d2bd
00000310: f522 cbbd ebbb d93c b4a5 30be 097e 273d
00000320: 42d2 ffbd 5ee1 f5b9 f6e9 363e 7ab2 2e3e
00000330: 1271 233d 1cb5 febc 9977 5a3d 350a db3d
00000340: 3738 59bd fabc 43bd 5294 f6bd 097b 673e
00000350: 8ebe 383e 8075 3bbd 883c 26be b287 ae3d
00000360: ef04 483d a477 57bd cc10 0cbe bf97 f6bd
00000370: 624d 283e b075 19bc e862 383e e7fb 083e
00000380: 113f 413d 50e3 debd 6780 d2bd b897 88bd
00000390: 4649 ca3c 0693 16be 8dd9 ff3d 1b6c 123e
000003a0: 56c2 b53d 5bf4 5f3d daee 4fbd 59ea a3bd
000003b0: 3d25 c8bd a928 8cbd f850 34bd 1ba7 97bd
000003c0: e67e 393d 7e2e dd3c 4be9 9cbd 8325 783c
000003d0: 7fb6 45bd ea07 103e a30c 263c a08e 33bd
000003e0: 5c3e 383e fd11 bbbd a089 e8bc e7ee 073e
000003f0: 1a88 f73d c29c 1ebd ea73 b13d b4e9 efbd

hidden_layers_x.4.fc.4.weight f4 [32]
0.97941947 0.9355672 1.039533 1.0909446 1.0143429 0.8852814 0.95193493 0.87308866
0.97318983 0.99423426 0.9922917 0.9291371 0.97491866 0.9220146 1.0705396 1.0335522
0.97564006 0.9473264 0.9342911 1.0463446 0.9437239 1.0888692 1.0654533 1.0674547
0.9712437 0.93410015 0.94834447 0.92042935 0.93068635 1.0392029 1.0837581 0.9894162
00000000: 3cbb 7a3f 5581 6f3f 6b0f 853f 13a4 8b3f
00000010: fdd5 813f cda1 623f 02b2 733f bd82 5f3f
00000020: f822 793f 2386 7e3f d406 7e3f eedb 6d3f
00000030: 4594 793f 2609 6c3f 7107 893f 704b 843f
00000040: 8cc3 793f fc83 723f b42d 6f3f 9fee 853f
00000050: e497 713f 1160 8b3f c660 883f 5ba2 883f
00000060: 6da3 783f 3021 6f3f b4c6 723f 42a1 6b3f
00000070: 7641 6e3f 9a04 853f 96b8 8a3f 614a 7d3f

hidden_layers_x.4.fc.4.bias f4 [32]
0.017343448 -0.053581093 -0.058105737 -0.08164241 0.04434675 -0.07156503 -0.056572028 -0.03784941
-0.039310433 0.024092196 0.00536308 -0.024614759 0.049711257 -0.008835236 -0.09703397 0.037056804
0.02618955 -0.04767029 -0.032647688 -0.037877887 -0.0035235737 -0.021188473 -0.059475426 -0.0760379
-0.010259333 -0.053878322 -0.03216877 -0.087583356 0.0038465576 -0.035778664 -0.034672458 -0.089394346
00000000: d913 8e3c d977 5bbd 4800 6ebd 2334 a7bd
00000010: f0a4 353d b090 92bd 12b8 67bd fc07 1bbd
00000020: fa03 21bd ff5c c53c c7bc af3b e4a4 c9bc
00000030: 089e 4b3d aac1 10bc bfb9 c6bd e0c8 173d
00000040: 788b d63c ec41 43bd 95b9 05bd d825 1bbd
00000050: c2eb 66bb 7393 adbc 819c 73bd c2b9 9bbd
00000060: c316 28bc 84af 5cbd 66c3 03bd e75e b3bd
00000070: 8716 7c3b a68c 12bd b504 0ebd 6214 b7bd

hidden_layers_x.5.weight f4 [2, 32]
0.0024193898 0.0017363748 -0.008119258 0.012539403 0.0023699529 0.0021061476 0.0071424604 -0.011986918
-0.0034511127 0.0033746175 0.00290953 -0.00020180638 0.004544037 0.0055232793 -0.0056437775 0.0046404237
0.00017954751 0.0057712654 0.0033256211 -0.0058098994 0.0052448846 -0.0023401778 -0.0056771697 -0.0090137245
0.0013069431 -0.007248289 0.003282477 -0.007949242 0.00209871 0.0057407557 -0.05446941 -0.0030536384
0.124202535 -0.05513142 0.03412843 0.047292266 0.23377614 0.11598867 0.037238467 -0.12907505
-0.0017417358 0.20266339 0.15114063 -0.22505298 0.23689483 0.10756504 -0.082436055 0.16262415
0.17809558 -0.0056530563 0.054757405 0.04596121 0.12530923 0.16595769 -0.053762354 0.1665922
0.2281781 -0.04594665 0.13154437 -0.07911789 0.24295188 0.08280256 0.1427034 -0.22205052
00000000: a08e 1e3b 1297 e33a a306 05bc 1172 4d3c
00000010: 3651 1b3b 4b07 0a3b 4d0b ea3b c764 44bc
00000020: 102c 62bb b028 5d3b d0ad 3e3b fd9b 53b9
00000030: 25e6 943b a0fc b43b 70ef b8bb b20e 983b
00000040: eb44 3c39 e21c bd3b aaf2 593b f860 bebb
00000050: 48dd ab3b ab5d 19bb 8d07 babb 4dae 13bc
00000060: bc4d ab3a 0e83 edbb d31e 573b 8a3d 02bc
00000070: 838a 093b f31c bc3b 511b 5fbd 8d1f 48bb
00000080: e65d fe3d 7cd1 61bd 41ca 0b3d 89b5 413d
00000090: 0363 6f3e 788b ed3d 5d87 183d 402c 04be
000000a0: f54a e4ba fe86 4f3e 9cc4 1a3e 4a74 66be
000000b0: 8f94 723e 0f4b dc3d 3cd4 a8bd f286 263e
000000c0: b05e 363e 463d b9bb 4d49 603d d241 3c3d
000000d0: 1051 003e d0f0 293e ea35 5cbd 2597 2a3e
000000e0: 85a7 693e 8e32 3cbd 91b3 063e 8f08 a2bd
000000f0: 61c8 783e 6394 a93d d720 123e 3661 63be

hidden_layers_x.5.bias f4 [2]
0.007932307 0.04369689
00000000: 82f6 013c 83fb 323d

hidden_layers_c.0.weight f4 [32, 7]
-0.1752685 -0.22487439 0.2882053 -0.1949334 -0.13016668 0.020234164 -0.3056676 0.2889077
0.37523898 0.047587503 0.013479007 0.08562999 0.23747319 -0.055492904 -0.30846515 0.23627324
0.2613169 -0.051911063 -0.18497783 -0.07072497 -0.25590873 0.25381094 -0.02816652 0.23788278
0.11707381 -0.10287531 -0.15156138 0.09158001 -0.10791056 0.046482336 0.33175743 -0.101409465
0.09507404 -0.02135003 0.13116339 0.2969342 0.15883835 -0.21279053 0.26290712 -0.19873175
0.1077077 0.07926444 0.0764857 -0.23079288 0.50879014 0.076456115 0.47877046 -0.124442324
0.035881504 0.30636546 -0.3373626 0.044559263 0.029358938 -0.28052834 -0.020904578 -0.26706532
0.06586972 0.074985854 0.21329765 0.025329223 -0.13792159 -0.08262324 -0.19306381 0.2946952
0.13774472 -0.28693056 0.16020922 0.044092942 0.25735295 -0.088742875 0.27738336 0.062816724
-0.57800937 -0.2251155 -0.3661369 0.17328887 -0.24721053 0.020111086 0.29027006 0.19435261
0.23003174 0.38012943 0.18023334 0.16804098 0.08417311 0.0401646 0.324236 -0.10846224
0.029101107 -0.04113916 -0.14712635 0.29006177 0.07455107 -0.270498 0.31017575 -0.054379288
0.016048148 -0.343689 0.22350843 -0.21940108 -0.02085697 0.33637005 0.08989926 0.40180516
-0.22871438 -0.6218899 -0.6615126 -0.50453395 -0.5109584 -0.43945053 0.16670457 0.3767011
-0.23605113 0.022651883 0.44476947 0.0569648 0.04900901 -0.2990952 -0.0885634 -0.38735557
0.24325624 -0.22243655 -0.17712855 0.012388194 0.11309286 0.262787 -0.018928671 -0.2391867
0.37395498 -0.02697756 0.17887379 -0.36734143 -0.29338506 -0.09525391 -0.16781898 -0.034988947
0.07943778 -0.019900914 -0.073602565 -0.005118219 0.26985306 0.318706 0.29506567 0.23732315
0.1860125 0.3907341 -0.34399486 -0.38276762 0.20089374 0.31069455 -0.3092925 0.11779962
-0.13919212 -0.14974016 0.35902324 -0.2210147 0.18782806 0.280609 0.19033015 -0.21324132
0.15779239 -0.3935167 -0.28424034 -0.19208613 0.28064913 0.116207525 0.36792153 0.25668788
-0.083479635 0.40060076 -0.2531375 -0.12260732 -0.09672461 -0.03979368 -0.32510126 -0.3590184
0.20245102 0.28820333 0.20246454 0.19124866 0.0483672 0.02119256 -0.22683024 0.09467936
0.25162736 0.18241468 0.31416768 -0.3004888 -0.39606154 0.17848 0.3785566 -0.17433834
0.005448988 0.039772246 0.18373019 -0.0039911126 -0.29182643 -0.035025407 0.22286695 0.025106236
-0.24118553 -0.37480637 -0.27102184 0.31818584 0.10825939 0.25971523 0.017562678 0.22350591
-0.0083094 0.24825463 0.2957095 -0.3661272 -0.27901906 -0.17469855 -0.022063265 -0.16643557
-0.32074937 0.136496 0.37914336 -0.14781018 0.18965423 -0.11949429 0.17468466 -0.12511753
00000000: 9679 33be 7945 66be a58f 933e 9f9c 47be
00000010: 6a4a 05be 1ec2 a53c 7780 9cbe b6eb 933e
00000020: 531f c03e 1deb 423d 0ed7 5c3c c75e af3d
00000030: 2c2c 733e 874c 63bd 25ef 9dbe 9df1 713e
00000040: 54cb 853e b2a0 54bd d46a 3dbe 41d8 90bd
00000050: 7806 83be 82f3 813e 79bd e6bc 8b97 733e
00000060: 65c4 ef3d 4ab0 d2bd e832 1bbe 4d8e bb3d
00000070: 3600 ddbd 4364 3e3d 1cdc a93e c4af cfbd
00000080: 2eb6 c23d 42e6 aebc b24f 063e c207 983e
00000090: 85a6 223e c3e5 59be c39b 863e 5680 4bbe
000000a0: db95 dc3d 6555 a23d 89a4 9c3d f854 6cbe
000000b0: 1240 023f 0695 9c3d 6721 f53e 9edb febd
000000c0: 7cf8 123d efdb 9c3e caba acbe c683 363d
000000d0: 2882 f03c 69a1 8fbe 1440 abbc c9bc 88be
000000e0: b4e6 863d 2f92 993d b36a 5a3e 3b7f cf3c
000000f0: 513b 0dbe 6036 a9bd 85b2 45be 4ae2 963e
00000100: f40c 0d3e 90e8 92be e30d 243e cd9a 343d
00000110: c4c3 833e d3be b5bd 3105 8e3e 0ea6 803d
00000120: 6cf8 13bf ad84 66be 4c76 bbbe a372 313e
00000130: c224 7dbe 01c0 a43c 479e 943e 5f04 473e
00000140: 718d 6b3e 53a0 c23e 178f 383e ef12 2c3e
00000150: f462 ac3d a383 243d 4302 a63e 7321 debd
00000160: 7265 ee3c 8981 28bd 4aa8 16be fa82 943e
00000170: 3bae 983d b77e 8abe 5bcf 9e3e d1bc 5ebd
00000180: 6877 833c 01f8 afbe 65df 643e adaa 60be
00000190: 3ddc aabc b238 ac3e 1a1d b83d 68b9 cd3e
000001a0: 1a34 6abe 2d34 1fbf e458 29bf 2329 01bf
000001b0: 2bce 02bf a9ff e0be 9ab4 2a3e f7de c03e
000001c0: 63b7 71be 7190 b93c d3b8 e33e ec53 693d
000001d0: acbd 483d 0223 99be ba60 b5bd 7853 c6be
000001e0: 2a18 793e 68c6 63be 3061 35be daf7 4a3c
000001f0: 3b9d e73d 058c 863e 4d10 9bbc 5ced 74be
00000200: 0777 bf3e 0b00 ddbc b12a 373e 2d14 bcbe
00000210: 9136 96be 7b14 c3bd bdd8 2bbe 9250 0fbd
00000220: 46b0 a23d 3e07 a3bc f1bc 96bd bcb6 a7bb
00000230: 2e2a 8a3e 6f2d a33e d912 973e d704 733e
00000240: 107a 3e3e 4d0e c83e 1820 b0be 1efa c3be
00000250: 17b7 4d3e 5b13 9f3e 965b 9ebe ed40 f13d
00000260: 6188 0ebe 7c55 19be e5d1 b73e ad51 62be
00000270: 0056 403e fcab 8f3e e8e5 423e ef5b 5abe
00000280: 5494 213e 057b c9be f387 91be 3ab2 44be
00000290: 3eb1 8f3e 36fe ed3d 3660 bc3e 986c 833e
000002a0: 5ff7 aabd 8b1b cd3e 3d9b 81be 8c19 fbbd
000002b0: 8d17 c6bd b3fe 22bd ac73 a6be 42d1 b7be
000002c0: 524f 4f3e 638f 933e dd52 4f3e b0d6 433e
000002d0: af1c 463d 059c ad3c 3046 68be 41e7 c13d
000002e0: 4dd5 803e eaca 3a3e 96da a03e abd9 99be
000002f0: 94c8 cabe 76c3 363e 2cd2 c13e c085 32be
00000300: 6d8d b23b 39e8 223d c423 3c3e e1c7 82bb
00000310: 466a 95be cd76 0fbd 3c37 643e 98ab cd3c
00000320: 57f9 76be 9fe6 bfbe 60c3 8abe 41e9 a23e
00000330: 19b7 dd3d 65f9 843e 9bdf 8f3c bcde 643e
00000340: 2624 08bc 7636 7e3e 3c67 973e 0675 bbbe
00000350: 96db 8ebe 2de4 32be 05be b4bc 166e 2abe
00000360: 4339 a4be 9cc5 0b3e 141f c23e 8d5b 17be
00000370: b834 423e 6cb9 f4bd 89e0 323e cf1e 00be

hidden_layers_c.1.weight f4 [32]
0.91090465 0.8731237 0.90454525 0.9458299 0.9875521 0.88942146 0.82524735 0.808625
0.9034938 0.7550456 0.7971764 0.9544706 0.7921257 0.8847651 0.9085421 0.8673126
0.71540236 0.9077732 1.035079 0.94848275 0.9119937 0.89941883 0.94322234 0.95896566
0.9387872 0.92342263 0.89239556 0.8657718 1.0009092 0.8851342 0.9765986 1.0058252
00000000: 0c31 693f 0985 5f3f 4790 673f e921 723f
00000010: 37d0 7c3f 20b1 633f 6943 533f 0c02 4f3f
00000020: 5f4b 673f ab4a 413f c113 4c3f 2f58 743f
00000030: c0c8 4a3f f77f 623f 3796 683f 3308 5e3f
00000040: 9c24 373f d363 683f 787d 843f c4cf 723f
00000050: 6b78 693f 5040 663f 0577 713f c67e 753f
00000060: 5c54 703f 6d65 6c3f 0974 643f 38a3 5d3f
00000070: cb1d 803f 2898 623f 5e02 7a3f e1be 803f

hidden_layers_c.1.bias f4 [32]
-0.14083484 -0.11813316 -0.12199141 -0.044299953 0.02597922 -0.1081593 -0.089140676 -0.07546657
-0.17547765 -0.26738486 -0.1361056 -0.09967043 -0.17063761 -0.09443201 -0.07759693 -0.12560134
-0.15360856 -0.13704155 0.023386177 -0.12044972 -0.09239321 -0.26049277 -0.037687425 -0.031125762
-0.1471178 -0.07935084 -0.06902662 -0.18628033 0.035055585 -0.12294487 -0.17390916 -0.08265825
00000000: 0237 10be ccef f1bd a2d6 f9bd de73 35bd
00000010: 60d2 d43c a082 ddbd 638f b6bd 388e 9abd
00000020: 6ab0 33be abe6 88be 445f 0bbe 0320 ccbd
00000030: a0bb 2ebe 9265 c1bd 24eb 9ebd a39d 00be
00000040: 904b 1dbe 9f54 0cbe 5e94 bf3c 58ae f6bd
00000050: a738 bdbd 4f5f 85be 215e 1abd 74fb febc
00000060: 0ca6 16be b182 a2bd d45d 8dbd 45c0 3ebe
00000070: 7296 0f3d 85ca fbbd 3e15 32be bb48 a9bd

hidden_layers_c.3.fc.0.weight f4 [32, 32]
0.108020894 0.024471631 0.137263 -0.04793636 0.14746463 -0.15441526 -0.19292736 0.10583801
-0.12466243 0.036674175 0.19458234 -0.17567569 -0.09483476 0.13388579 -0.047930803 0.08039201
-0.028727528 0.042253435 -0.10526318 0.050628785 0.027143322 0.13739043 -0.2493715 0.028908502
0.050048597 -0.2593289 -0.05600295 -0.017324386 0.080882065 0.034722716 -0.1473396 0.017109524
0.06008808 0.19630904 -0.20141338 0.18844576 -0.15410866 -0.043629248 0.06711826 -0.10190088
0.02456519 0.17617935 -0.060786147 0.18990731 -0.0023194451 -0.011797357 0.19605553 0.11903042
-0.18608586 0.10515578 -0.14122906 -0.11241761 0.21068488 0.0521365 -0.108330786 0.0380774
0.049331035 0.22647847 -0.113009036 0.049054526 -0.26012474 -0.028796526 -0.084883705 -0.007973519
-0.11402227 -0.097332366 -0.072556786 -0.030980987 -0.070677966 0.013445479 0.03319718 0.20547609
0.20959772 -0.04104477 -0.0013484317 0.0383616 0.055094615 -0.005630011 -0.17656015 -0.1291337
0.07318374 -0.17807397 0.23721202 0.047919925 -0.048419435 -0.011553893 -0.07458072 0.011953728
-0.29652283 -0.014179654 0.18547875 -0.12259395 0.04250765 0.19439326 -0.16521227 -0.16684279
-0.011982252 -0.085777424 -0.10190795 -0.08895461 0.008104407 0.12972078 0.15460604 0.15441327
-0.1963438 0.025952727 0.057926763 0.14088729 -0.1372351 -0.08179243 -0.16663797 0.083267376
-0.078502715 0.20043987 -0.060369097 0.016238341 -0.017391464 -0.20451607 0.16990866 0.14349128
-0.1016259 -0.01761508 -0.19869141 0.042624835 -0.072437875 0.12823205 -0.026612055 -0.022284064
0.03521438 -0.0723923 -0.09575398 0.15932834 -0.017769262 -0.1425184 -0.04307398 0.0575687
-0.17840548 0.10342538 0.15514483 0.2036959 0.15434287 -0.09750551 -0.17743683 0.053187147
0.0789209 0.09219791 0.050026584 0.06626971 -0.06723162 -0.11824061 -0.035571046 -0.15391159
0.15055841 0.19155666 -0.1844757 0.14178371 -0.21134026 -0.04919442 0.16375685 -0.1420183
-0.08111266 -0.083546646 0.035834227 -0.08752626 -0.16737853 -0.10086973 0.033860914 -0.11505187
0.13487588 -0.09973907 0.2337268 0.10661669 -0.0684261 0.17461698 -0.1341716 0.18004987
-0.037351143 -0.13582273 -0.03564471 0.045657393 -0.09075628 0.10192817 0.17007022 -0.015264508
0.059031405 0.13451545 0.09323738 -0.114584975 0.08513509 -0.068675995 0.15309073 -0.037532035
0.18488933 0.10519039 -0.09040533 -0.10935738 0.28732648 -0.17914245 0.053525846 0.04840843
-0.18628731 0.2131171 0.059131246 -0.20334187 -0.25206634 -0.03380547 -0.1363549 -0.05774739
0.018642794 -0.20772713 -0.033098046 0.14424473 0.084424466 0.097404905 -0.2064852 0.12979235
0.215632 0.082636476 -0.17120707 0.037477385 -0.16555084 0.0115760295 0.056518454 0.23901258
0.07489263 -0.07079129 -0.14547682 0.0263652 -0.0072952867 -0.09438362 0.066393696 -0.12054807
-0.25852236 -0.18702202 0.09669264 0.1658942 -0.10381505 0.03598381 0.1855957 0.017993404
0.014565492 0.10009583 -0.19828428 -0.009142962 0.15897895 -0.051488265 0.18742087 0.0034495343
-0.18985547 0.033716574 -0.17738248 -0.05400173 -0.17463572 0.09412647 -0.1742141 -0.009938202
00000000: 0f3a dd3d bb78 c83c ac8e 0c3e eb58 44bd
00000010: f800 173e 091f 1ebe c08e 45be 99c1 d83d
00000020: 044f ffbd a937 163d 9840 473e 54e4 33be
00000030: ba38 c2bd 5b19 093e 1753 44bd 91a4 a43d
00000040: fe55 ebbc f011 2d3d 3994 d7bd 2160 4f3d
00000050: ac5b de3c 14b0 0c3e 3e5b 7fbe 86d1 ec3c
00000060: c2ff 4c3d c2c6 84be 5963 65bd dfeb 8dbc
00000070: 7fa5 a53d 6839 0e3d 31e0 16be 4629 8c3c
00000080: eb1e 763d 3d05 493e 4f3f 4ebe edf7 403e
00000090: a9ce 1dbe 95b4 32bd 4c75 893d 69b1 d0bd
000000a0: f03c c93c 5c68 343e e5fa 78bd 1077 423e
000000b0: d501 18bb b449 41bc c8c2 483e 39c6 f33d
000000c0: 4b8d 3ebe ea5b d73d 5a9e 10be 343b e6bd
000000d0: c7bd 573e 158d 553d 88dc ddbd 0cf7 1b3d
000000e0: 570f 4a3d f9e9 673e 4871 e7bd 66ed 483d
000000f0: 122f 85be b1e6 ebbc 82d7 adbd 5da3 02bc
00000100: 8284 e9bd 3156 c7bd a798 94bd d7cb fdbc
00000110: 9cbf 90bd 6d4a 5c3c c4f9 073d 5368 523e
00000120: c9a0 563e 901e 28bd dcbd b0ba 0e21 1d3d
00000130: e4aa 613d f57b b8bb 2fcc 34be a03b 04be
00000140: 5be1 953d 0659 36be b5e7 723e af47 443d
00000150: 7553 46bd 8a4c 3dbc c7bd 98bd 92d9 433c
00000160: d7d1 97be c851 68bc 24ee 3d3e 8912 fbbd
00000170: 801c 2e3d 070f 473e 682d 29be d6d8 2abe
00000180: 3551 44bc 13ac afbd 1eb5 d0bd d62d b6bd
00000190: 59c8 043c 86d5 043e 0c51 1e3e 831e 1e3e
000001a0: 590e 49be d09a d43c 9d44 6d3d c244 103e
000001b0: 5c87 0cbe ca82 a7bd 25a3 2abe 1688 aa3d
000001c0: 08c6 a0bd 1c40 4d3e 9645 77bd 4506 853c
000001d0: 8b78 8ebc a96c 51be 89fc 2d3e 61ef 123e
000001e0: 3d21 d0bd 804d 90bc c375 4bbe 6197 2e3d
000001f0: 4f5a 94bd 434f 033e 8601 dabc 128d b6bc
00000200: f43c 103d 6a42 94bd aa1a c4bd f826 233e
00000210: d890 91bc 58f0 11be 576e 30bd 28cd 6b3d
00000220: edaf 36be b0d0 d33d 49de 1e3e a895 503e
00000230: 0f0c 1e3e f8b0 c7bd 00b2 35be c4da 593d
00000240: 48a1 a13d 42d2 bc3d ade8 4c3d 6ab8 873d
00000250: bbb0 89bd 2228 f2bd f2b2 11bd 009b 1dbe
00000260: fc2b 1a3e 6e27 443e 33e7 3cbe c02f 113e
00000270: 9569 58be 1780 49bd e0af 273e 3f6d 11be
00000280: 651e a6bd 811a abbd e9c6 123d f840 b3bd
00000290: 4765 2bbe ca94 cebd beb1 0a3d 51a0 ebbd
000002a0: e71c 0a3e ff43 ccbd 1456 6f3e da59 da3d
000002b0: fc22 8cbd cbce 323e 4864 09be fe5e 383e
000002c0: 83fd 18bd 1d15 0bbe 3000 12bd 3f03 3b3d
000002d0: 6ede b9bd b7bf d03d e326 2e3e fd17 7abc
000002e0: eaca 713d 6bbe 093e 3df3 be3d 87ab eabd
000002f0: 4e5b ae3d 00a6 8cbd d1c3 1c3e 31bb 19bd
00000300: a153 3d3e 0f6e d73d 6e26 b9bd c3f6 dfbd
00000310: 751c 933e 1e71 37be eb3d 5b3d eb47 463d
00000320: 1ac2 3ebe 5e3b 5a3e 9b33 723d da38 50be
00000330: d70e 81be 9b77 0abd 9ea0 0bbe 8788 6cbd
00000340: c6b8 983c 6cb6 54be d191 07bd e4b4 133e
00000350: bce6 ac3d 397c c73d db70 53be 49e8 043e
00000360: a3ce 5c3e 503d a93d e850 2fbe e381 193d
00000370: 2986 29be 63a9 3d3c e57f 673d b7bf 743e
00000380: 4f61 993d 06fb 90bd e0f7 14be d5fb d73c
00000390: 4d0d efbb 334c c1bd 6bf9 873d e8e1 f6bd
000003a0: 0b5d 84be b382 3fbe ca06 c63d 2be0 293e
000003b0: fc9c d4bd c263 133d cd0c 3e3e e766 933c
000003c0: 1aa4 6e3c 0bff cc3d 090b 4bbe 5dcc 15bc
000003d0: 61cb 223e 5ce5 52bd 42eb 3f3e 9511 623b
000003e0: 7969 42be 641a 0a3d c1a3 35be eb30 5dbd
000003f0: b5d3 32be 61c5 c03d 2e65 32be d7d3 22bc

hidden_layers_c.3.fc.1.weight f4 [32]
0.8924281 1.0732942 0.91755044 1.0363569 0.9856537 0.99403965 0.9402725 1.0239159
1.0750449 0.94374025 1.1319369 0.99756163 1.0336515 1.0637232 0.97462404 0.93243194
0.94626325 0.9039449 1.007489 1.0349658 1.0577117 0.91890997 0.9566925 0.96526504
1.0595305 0.91977584 1.0657468 1.044951 1.0614028 1.1015095 1.0031567 0.990597
00000000: 2b76 643f b461 893f 96e4 6a3f 58a7 843f
00000010: cd53 7c3f 6279 7e3f b3b5 703f ad0f 833f
00000020: 129b 893f f698 713f 4fe3 903f 3360 7f3f
00000030: b14e 843f 1528 883f f680 793f dcb3 6e3f
00000040: 4f3e 723f ef68 673f 66f5 803f c279 843f
00000050: 1963 873f af3d 6b3f cde9 743f 9c1b 773f
00000060: b29e 873f 6e76 6b3f 646a 883f f4c0 853f
00000070: 0cdc 873f 43fe 8c3f 7067 803f c497 7d3f
