DFT/checkpoints/NN_PBE/state_dict_0.067.pth (torch, 60748 bytes, 34 tensors)

hidden_layers_x.0.weight f4 [32, 2]
000000 08 aa eb 3e e2 93 92 3e 2c 0c f0 be 70 81 2d 3f
       0.4602816 0.2862845 -0.46884286 0.6777563
000010 fa ef 30 bf 4d 63 3d be b5 ed aa 3e 98 cb 86 3e
       -0.69116175 -0.18494911 0.3338448 0.26327205
000020 ec 4d 1d bf 94 9f 51 bc 0f e0 69 be 4a a2 6a be
       -0.61447024 -0.012794394 -0.22839378 -0.22913471
000030 42 b8 30 bf 96 96 2a 3e 87 a4 1e 3f e0 ed ad 3e
       -0.69031155 0.16659006 0.619698 0.33970547
000040 f6 b6 76 3e 1f d9 cc be 1a 45 08 bf ce 65 fa 3d
       0.24093232 -0.400094 -0.5323044 0.12226449
000050 e1 2e 42 3e 7a cf c2 be 30 c5 37 bf f5 58 12 be
       0.18963195 -0.38048917 -0.7178526 -0.14291747
000060 65 8b 98 bd 2f 03 d5 3e 6c 11 ad 3c 73 5c d0 be
       -0.074484624 0.4160399 0.021126471 -0.40695533
000070 9c 15 71 be e1 2a d1 bd 55 78 30 bf cc 34 cc 3e
       -0.235434 -0.102132566 -0.6893361 0.3988403
000080 fd 04 13 3f 7a 3d 23 bf 3c bc 95 3e fc d9 b5 be
       0.57429487 -0.6376568 0.29245174 -0.3551787
000090 86 1b d5 3d 95 69 04 bf 7c 05 05 bf e7 57 ed be
       0.1040564 -0.51723605 -0.51961493 -0.46356127
0000a0 ee 33 b1 3e a9 68 ef be 60 a3 cb bd f0 b8 ef 3e
       0.34609932 -0.46759537 -0.09943271 0.46820784
0000b0 05 47 76 be a1 f6 19 3f 8b a8 d7 3e 9d d9 2d 3e
       -0.2405053 0.6014195 0.42120776 0.16977544
0000c0 07 ff b2 3e 5e 85 1d be c5 b8 91 bd ce 86 49 3e
       0.34960195 -0.15382907 -0.0711532 0.1968033
0000d0 0c 55 fd be d1 1f 00 3f 7f 80 05 bf 51 76 0b be
       -0.49478948 0.5004855 -0.52149194 -0.13619353
0000e0 76 a5 b3 be e6 ab b8 be ed da 33 3f b6 ac 20 3f
       -0.35087174 -0.36068648 0.7025593 0.62763536
0000f0 07 d2 d5 be 9f a7 61 3e 42 b0 b5 3d 3f 9b 7a be
       -0.417618 0.22036599 0.08871509 -0.24473284

hidden_layers_x.1.weight f4 [32]
000000 df 1c 72 3f 85 89 85 3f c0 b5 89 3f bf c3 72 3f
       0.94575304 1.0432593 1.0758591 0.94829935
000010 71 bf 7b 3f ad d7 83 3f 97 b2 6c 3f 84 f5 83 3f
       0.9833899 1.0300194 0.92460006 1.03093
000020 02 76 77 3f a9 2c 7b 3f 13 42 6e 3f ce 49 86 3f
       0.9666444 0.9811502 0.9306957 1.0491273
000030 41 9a 8e 3f 8f 35 74 3f 52 b1 6a 3f 2a 2b 81 3f
       1.1140825 0.95394224 0.9167682 1.0091298
000040 a0 e9 86 3f 55 5f 6f 3f 0c 17 81 3f 8f d4 5b 3f
       1.0540047 0.9350484 1.0085158 0.85871214
000050 e3 fd 83 3f 88 be 8c 3f 8f 20 71 3f 77 29 82 3f
       1.0311855 1.0995646 0.94190305 1.0168904
000060 da a2 5f 3f 4f 71 85 3f e5 4e 6f 3f 7a 3e 8b 3f
       0.87357867 1.0425204 0.9347976 1.0878441
000070 42 8a 88 3f 72 66 6e 3f ef eb 6d 3f fc aa 84 3f
       1.0667193 0.9312507 0.9293813 1.036468

hidden_layers_x.1.bias f4 [32]
000000 8b dc 84 bd 8d b8 79 bd 29 ac 87 3d df 8e 3f 3d
       -0.06487378 -0.060967017 0.06624634 0.046767112
000010 4b 64 8c 3d 2e 76 4f bd 36 8b 8e 3d 53 8b 7e bd
       0.06855067 -0.050649814 0.06960146 -0.06214459
000020 3d c1 3b 3d 1c 6b 87 3d 1d 5c 4d 3d 24 bc 96 3d
       0.045838583 0.06612226 0.050136674 0.07360104
000030 16 48 61 3d 29 1a 5f 3d 26 3d 55 bd 11 55 58 3d
       0.055000387 0.054468308 -0.05206027 0.0528155
000040 ca aa 4e 3d 63 3c 69 3d f1 98 6a bd 09 7e 88 bd
       0.050455846 0.056942355 -0.057274763 -0.06664664
000050 ac 9a 80 bd a3 d6 9f 3d 1c 3c af 3d 15 5f 54 bd
       -0.06279501 0.078046106 0.08556387 -0.05184849
000060 de e5 77 3d 51 e0 86 3d 51 a2 65 bd 88 38 98 3d
       0.060521953 0.06585754 -0.056063 0.074326575
000070 c5 7c 66 3d 57 43 50 3d d8 3d 65 3d f8 82 6d 3d
       0.056271333 0.05084547 0.055967182 0.05798623

hidden_layers_x.3.fc.0.weight f4 [32, 32]
000000 c5 f9 0e be f8 a4 5f bd 1e fb c8 3d fc 5a 37 bb
       -0.13962467 -0.054600686 0.09813522 -0.0027977815
000010 df b1 dc 3c a5 b1 18 bd 72 05 65 3d df f2 2a 3d
       0.026940284 -0.03727879 0.055913396 0.041735526
000020 f2 14 df bd aa 38 e6 3d 80 23 29 be 22 e1 ce 3b
       -0.10892667 0.112412766 -0.16517448 0.006313459
000030 ff 9d 4a 3c 6b fe c5 bd 9e 86 44 3d 1e 31 34 bc
       0.012366771 -0.09667667 0.047979943 -0.010998039
000040 cb 8d 96 be 48 d0 4e bd 00 f9 53 bd d4 d9 68 3d
       -0.29405054 -0.0504916 -0.051751137 0.056848362
000050 00 41 ec bd 73 18 31 be 77 e7 44 be 9f 42 d8 3d
       -0.11535835 -0.17294483 -0.19228922 0.10559582
000060 1b b8 c2 bd a3 50 7b be 3e 9f ff 3d 71 4a c1 bd
       -0.095077716 -0.24542479 0.12481545 -0.09438027
000070 53 8a a3 bd a0 a2 43 bd 42 9c 4e be a9 65 fa bc
       -0.079853676 -0.047762513 -0.20176795 -0.030566053
000080 12 b6 45 3d 8f 91 4a 3e 56 59 61 bd 28 b6 c1 3d
       0.04826934 0.19782089 -0.055016838 0.09458572
000090 82 e0 88 bd a0 82 8d 3c 4a 17 3e 3e e2 7b 5e bc
       -0.066834465 0.0172742 0.18563572 -0.013579341
0000a0 01 bb a1 3d 61 e8 77 3e 35 17 20 be 39 71 5b bd
       0.07896996 0.2420974 -0.15633853 -0.053574774
0000b0 d5 76 4a 3e ad 84 32 bc 6c 11 10 be 34 89 81 3d
       0.19771893 -0.01089589 -0.14069146 0.063249975
0000c0 b8 dc 1e bd 37 a4 e1 3c 68 72 99 bd 5a 10 ce bd
       -0.038784713 0.027544124 -0.074925244 -0.100617126
0000d0 90 34 80 bd d0 40 6e bd d0 48 94 bd a8 3c 6c be
       -0.062600255 -0.05816728 -0.072404504 -0.23070014
0000e0 a0 c0 32 bd eb 96 a5 3d d2 bc 21 3e fa 2a f1 3c
       -0.043640733 0.08085426 0.15794685 0.029439438
0000f0 48 a2 93 3c 5d 39 21 be a8 2d d1 bd 31 36 63 be
       0.018021718 -0.15744539 -0.10213786 -0.22188641
000100 b8 2a f1 bc 74 47 54 3d a4 94 3f bc dd 7a 37 3e
       -0.029439315 0.051825956 -0.0116931535 0.17917962
000110 d8 81 8f 3d 73 ec 21 be e2 4d 3d 3e ab 21 27 be
       0.070071876 -0.15812854 0.18486741 -0.16321437
000120 51 e7 e3 3d f2 70 59 3e 61 9b d3 3d bf 11 e6 3d
       0.111281045 0.21234491 0.103323705 0.112338535
000130 aa d0 24 bd b1 77 1b 3d 80 8d 49 be 57 08 56 3e
       -0.04023806 0.037955943 -0.19682884 0.20901619
000140 c4 93 d8 3d 9d 41 6a 3c 70 c3 4b be f1 68 c2 bd
       0.10575059 0.01429787 -0.19898772 -0.09492672
000150 58 3a 29 3d bb 26 48 3e 44 ac 4a 3d 3d bc 28 be
       0.041315407 0.19546025 0.04948069 -0.16478057
000160 ec 2b d7 bd 27 bc 5a 3e 74 40 f9 bc 4f ac b3 3d
       -0.10506424 0.21360837 -0.030426241 0.087731
000170 ea 24 af bd 69 e4 29 bd a8 3b a8 bd 3b 9a 38 3e
       -0.08551963 -0.041477595 -0.082145035 0.18027584
000180 9a b0 4d bd 9d 12 bd bc 07 ca a2 3c 59 61 36 be
       -0.05021725 -0.023080165 0.019871725 -0.17810573
000190 12 41 1c 3d 02 9b 05 bd f2 0f dd bb 6b c3 93 3d
       0.038147993 -0.03261853 -0.0067462856 0.072150074
0001a0 58 79 a0 3d a0 9f 10 bd dc 05 49 bd 10 ce 29 be
       0.078356445 -0.03530848 -0.049077854 -0.16582513
0001b0 89 4a 9d 3d cc 41 f6 3d 01 ed 81 3e 87 e3 5c 3d
       0.07680232 0.120242685 0.25376132 0.053927924
0001c0 07 30 d7 bc 94 d5 36 3e 62 9a ed 3c fe 5d 03 3c
       -0.026268018 0.17854911 0.02900428 0.008018015
0001d0 38 3e ea 3d 33 af f2 bd 18 5d 3a bd 1e ba 8d 3e
       0.114376485 -0.11849823 -0.045498937 0.2768106
0001e0 4d f2 16 bd 32 b3 6c bc c3 34 39 bd 2d 87 57 be
       -0.03685217 -0.01444702 -0.045216333 -0.21047659
0001f0 c8 c8 e8 3d 8c 59 16 3d ce 6f 9f 3d c8 66 01 3d
       0.11366421 0.036706492 0.07784997 0.03159216
000200 7f 58 96 bc 75 d7 8e bd fc 68 83 be 10 0b 0d be
       -0.018352745 -0.06974689 -0.25666034 -0.13773751
000210 65 ac 08 3d 1c 81 17 bd 85 61 76 be 61 17 94 bd
       0.033367533 -0.036988363 -0.24060638 -0.07231022
000220 bb f7 bd 3b 06 72 bf bd 3d 74 55 3e 33 24 98 be
       0.005797354 -0.0934792 0.20845123 -0.29715118
000230 c9 62 0e be db b7 17 3e bc 0c 42 3c 22 b0 b0 bc
       -0.13904871 0.14816229 0.011843856 -0.021568362
000240 44 ed 78 3d e6 12 c8 bc 79 0d fd 3d c5 46 d6 3d
       0.06077315 -0.024423074 0.12356085 0.10462717
000250 5b 1b 5e 3e fa c4 7d be 01 ac 45 be 8e 30 e6 3d
       0.21690123 -0.24782172 -0.19303896 0.1123973
000260 12 c8 97 3e 4f bb b0 be 83 21 b7 bd 1c e3 2a be
       0.2964483 -0.34517905 -0.08941939 -0.16688198
000270 58 1a 8a bd 3b 0f fa bc ac 20 77 be fa 4e 55 3e
       -0.06743306 -0.03052484 -0.24133557 0.20830908
000280 ca 48 60 be c9 1c 13 3c 4a e2 89 3d db 45 95 3d
       -0.21902767 0.008979031 0.06732614 0.072887145
000290 a9 1e a7 3d 1b 4d 9b bd 75 6f a6 bd f3 b2 fa bd
       0.08160145 -0.07583066 -0.081267275 -0.12241163
0002a0 6a 3a d2 bd bd 95 7d 3e 80 d4 10 bd 4a b3 31 bd
       -0.10265048 0.24764152 -0.035358906 -0.043383874
0002b0 4a ff f7 bc 43 21 23 3d 32 82 ab 3b d8 22 05 3e
       -0.030273098 0.039826643 0.0052340264 0.13001573
0002c0 76 de 04 be 1b 55 22 3c 16 63 61 3c c3 7a 4c be
       -0.12975487 0.009907986 0.013756534 -0.19968705
0002d0 fe 74 94 3d 7c c2 50 3e 01 f8 88 3d 2e cc e6 3d
       0.07248877 0.2038669 0.06687928 0.11269413
0002e0 53 8c 6d 3c c5 f0 e6 3d fe 19 dd bd 27 ac 37 3e
       0.014498788 0.11276392 -0.10795973 0.17936765
0002f0 15 26 f3 bd c2 cc f1 3d ac 17 d2 3d 90 c0 22 3e
       -0.11872498 0.118066326 0.10258421 0.1589377
000300 4b a8 a1 3d 17 54 a1 3d 5a b5 e9 3d d7 56 ec bd
       0.078934275 0.07877367 0.11411543 -0.11540001
000310 cc eb 4f bc 9b ba fe 3d 3a 3f 34 3e 7c 56 b4 3c
       -0.012690496 0.12437936 0.17602244 0.022013895
000320 ed 6d 4e 3e 37 9b 73 bd 37 b3 13 3e 72 74 18 be
       0.20159121 -0.059474196 0.14423834 -0.1488817
000330 22 5f e1 bd 21 4e 12 3e 8c ff 33 3e 9a 5f 01 3e
       -0.11004473 0.14287616 0.17577952 0.12634125
000340 2c e0 24 3e 2f f7 c1 bd f0 e6 0d be 0f 88 00 3e
       0.1610114 -0.09470975 -0.13857627 0.12551902
000350 fb ec c0 bd e9 88 24 be 40 dc af 3c a7 2a 4d bc
       -0.094202004 -0.16067852 0.021467328 -0.012522376
000360 4f 97 f6 bc 01 61 51 3d 58 78 82 be ce 84 9e 3b
       -0.030101446 0.0511179 -0.2548244 0.004837609
000370 e7 10 18 3e 8c da 41 be e5 49 dc 3d c2 ee c4 3d
       0.14850198 -0.18931025 0.10756282 0.09615852
000380 b5 c0 40 3d f8 89 1b 3e 7e 19 8b 3d 3f 24 e9 bc
       0.04705878 0.1518935 0.067919716 -0.028459666
000390 12 96 95 bd c9 11 45 bd 8c 89 cd bd b2 a0 db 3d
       -0.07304014 -0.048112664 -0.100360006 0.107240096
0003a0 66 0e 11 bc 00 d4 76 bd af a0 dd 3c 73 0c d2 bd
       -0.0088535305 -0.060260773 0.027054159 -0.10256281
0003b0 5b f9 3c 3d 48 94 e3 bc 63 33 44 bd 85 77 25 be
       0.04613624 -0.027780667 -0.04790057 -0.16158874
0003c0 ae e3 d9 bd 45 1c 4d bd 17 fd 26 3e fe 57 1e 3e
       -0.106391296 -0.050075788 0.16307484 0.15463254
0003d0 6f bf 83 3d 03 4f 1a be ea 0d f8 bd 4b d3 af bc
       0.064329974 -0.15069203 -0.12112029 -0.021463057
0003e0 f8 fb e8 3d 09 d3 40 bc 00 c4 51 3d d5 f8 6a be
       0.11376184 -0.011769065 0.05121231 -0.22946484
0003f0 e8 03 a9 3c 2f 8b dd bd 5d bb e8 bd 65 71 8a bc
       0.020631745 -0.10817563 -0.11363862 -0.016899774

hidden_layers_x.3.fc.1.weight f4 [32]
000000 90 fe 74 3f 70 5a 69 3f c8 62 88 3f 14 7e 73 3f
       0.9570093 0.9115362 1.0655146 0.95114255
000010 ff db 82 3f a0 13 72 3f 46 45 81 3f 73 ed 7a 3f
       1.0223387 0.94561195 1.0099266 0.9801857
000020 08 53 82 3f 27 dc 68 3f e7 b0 84 3f e4 1b 77 3f
       1.0181589 0.90960926 1.0366486 0.9652693
000030 9e 4b 7b 3f 31 f4 6b 3f 1a ad 7b 3f 75 98 81 3f
       0.9816226 0.9216948 0.9831101 1.0124651
000040 70 90 6f 3f 97 e2 80 3f 19 c1 84 3f 46 99 74 3f
       0.9357977 1.006915 1.0371429 0.95546377
000050 a6 aa 6b 3f 93 dd 6d 3f d4 8a 84 3f 2d 97 71 3f
       0.92057264 0.9291622 1.0354867 0.943713
000060 b2 6b 65 3f 26 79 68 3f 93 c0 7f 3f 35 cc 8b 3f
       0.89617455 0.9080986 0.9990322 1.0921694
000070 1f 90 78 3f 7f 3b 6c 3f b1 24 8b 3f 88 2b 71 3f
       0.9709491 0.92278284 1.0870572 0.9420705

hidden_layers_x.3.fc.1.bias f4 [32]
000000 d8 e7 47 3d ca d1 7a bd f6 52 5e 3d a2 b8 81 3d
       0.048805088 -0.061235227 0.054278336 0.06334044
000010 db eb 37 bd f3 da 88 3d 5e de 77 bd a7 2e 37 bd
       -0.044902664 0.06682386 -0.0605148 -0.044722226
000020 9e 55 81 3d 6e 3a 8e 3d 89 54 81 bd ef 12 87 bd
       0.06315158 0.06944738 -0.06314952 -0.06595408
000030 11 d3 7b bd 13 ae 81 3d 20 e1 6c 3d ad e7 42 3d
       -0.061480585 0.0633203 0.057831883 0.047584224
000040 04 1c 6b bd 44 ba 8c bd 51 86 73 bd 48 cd 80 bd
       -0.057399765 -0.06871465 -0.059454266 -0.06289154
000050 f4 a6 75 bd 11 a5 82 bd 3d c2 9e bd 0b 0d 44 3d
       -0.059973672 -0.0637914 -0.07751892 0.047864
000060 7c 5e 6c 3d 59 2a 80 3d 4e 5b 89 3d 62 0f 8d bd
       0.057707295 0.06258077 0.06706868 -0.068877
000070 f5 40 75 bd 4a 76 24 bd cd be 9a bd 05 59 42 bd
       -0.0598764 -0.04015187 -0.075559236 -0.047448177

hidden_layers_x.3.fc.3.weight f4 [32, 32]
000000 af 8a 36 be 6e bf d8 3d 75 19 2b 3e 10 50 4a bd
       -0.17826341 0.10583387 0.1670893 -0.04939276
000010 ea 72 53 3d 36 3a 44 3d 31 73 ba bd ad 35 7d 3d
       0.051623262 0.047907077 -0.09104002 0.061818767
000020 1b 1e 4c be ea df 02 3c 7d 62 4b be ec 1a d3 bd
       -0.1993336 0.007987956 -0.19861789 -0.10307869
000030 c1 38 34 bc 2a 8c 86 3c cd 43 1d be a3 b6 96 bd
       -0.010999859 0.016424257 -0.15357895 -0.07359054
000040 aa 4d e9 bd 49 07 76 3e b8 77 eb bd 65 b3 a7 3d
       -0.11391766 0.24026217 -0.11497444 0.08188514
000050 b1 68 8c 3d e1 94 24 be f3 70 0f be 1f 5a 96 bd
       0.06855906 -0.16072418 -0.1400793 -0.07341408
000060 7f 35 bb 3d c3 70 15 3c aa b9 35 3e 19 a9 25 be
       0.09141063 0.009121123 0.17746606 -0.16177787
000070 fa 97 e2 bd ed 61 1a bd 39 2c 9d bd 19 b8 96 3d
       -0.110641435 -0.037691046 -0.076744504 0.073593326
000080 6c 89 81 bd 6e 71 e8 bc 28 65 f8 bd 8a 2d a7 3d
       -0.06325039 -0.0283744 -0.12128669 0.08162983
000090 0b ba d3 3d 72 27 4f bd 46 50 3a 3e 0e f1 89 bd
       0.10338219 -0.050574727 0.18194684 -0.06735431
0000a0 48 d6 57 bd a2 dc ef 3d c7 f6 95 3d 25 37 3a be
       -0.05269459 0.11712004 0.0732246 -0.18185098
0000b0 90 f3 51 be 4a 57 66 bd 67 50 00 3e c4 98 22 3e
       -0.20503068 -0.05623559 0.12530671 0.15878588
0000c0 93 c0 af 3c b3 9a 32 be 90 97 77 3c 40 b0 4d bc
       0.021454131 -0.17441826 0.015111819 -0.012554228
0000d0 fb f7 97 bc 56 fc f0 3d 47 4f 5d 3d ad 4d 74 3d
       -0.018550863 0.11766879 0.054030683 0.05964439
0000e0 83 6e d7 3d 9e 37 e9 bd 84 d4 24 3e 39 23 67 3e
       0.10519125 -0.11387561 0.16096693 0.2257203
0000f0 cd cd 45 bd 0a 3e 39 3e bf 64 8c 39 87 06 41 3d
       -0.04829197 0.18090072 0.00026777943 0.047125366
000100 85 f5 92 3d 71 b5 0f 3e 27 8d 3b be 78 04 b9 3d
       0.071757354 0.14034058 -0.18315564 0.090340555
000110 a6 71 ea 3d 64 6e 4a be 06 ad 53 3d b2 00 05 be
       0.11447458 -0.19768673 0.05167868 -0.12988546
000120 ea 9a 1a be fe bf 98 bd 68 33 4a be 7e 09 80 3c
       -0.15098158 -0.074584946 -0.19746172 0.015629526
000130 2b 12 26 3c 14 32 92 bd d8 73 f5 bd 6c ec 22 be
       0.0101361675 -0.07138458 -0.11984986 -0.159105
000140 3a 4d 2b 3d 1f f8 83 3d cf c2 3d 3e d1 e6 43 3e
       0.041821696 0.0644381 0.18531345 0.19131018
000150 95 27 7f 3c 73 a3 52 be 75 92 06 3e 78 d6 16 bc
       0.015573402 -0.20570163 0.13141806 -0.009206407
000160 01 c4 0b be bd 9b 1c be 44 72 02 be d9 e1 77 bc
       -0.13648988 -0.15293784 -0.12738901 -0.01512953
000170 3f 92 b2 bd 1d 3d 2b be 8f 0c df bd dd bc 93 3e
       -0.087193005 -0.16722532 -0.10891067 0.2885503
000180 f5 c5 9f bd 50 d7 a8 3d a8 2d a5 3b 13 c4 70 bd
       -0.07801429 0.082441926 0.005040843 -0.05878074
000190 b6 06 35 3e 5e 1a b5 bd 39 aa 02 bd 54 21 f0 3d
       0.17678341 -0.0884292 -0.03190062 0.11725107
0001a0 26 4d 9d 3d c9 53 1c 3e eb b9 d3 bd 5d 34 e5 3c
       0.076807305 0.15266337 -0.103381954 0.02797907
0001b0 46 07 ab bc 3d 9b 67 39 b1 a3 73 3d 83 7c fd bb
       -0.020877492 0.00022087707 0.05948228 -0.00773579
0001c0 9c 9c 14 3d 28 e3 99 3d fc 48 55 3c 1c 4a 9c bd
       0.036282167 0.0751403 0.013017889 -0.07631323
0001d0 64 6c a9 3d fc 59 04 3e 95 25 46 be 3c 97 96 3d
       0.08272627 0.12924951 -0.19350274 0.073530644
0001e0 30 51 b9 bc 89 ec 53 3e 14 45 0b 3d 30 07 1f be
       -0.022621721 0.206957 0.034001425 -0.15530086
0001f0 cb 66 43 3e 06 69 6d bd bf 78 b1 3d 36 8c e3 3d
       0.19082181 -0.057961486 0.086656086 0.111107275
000200 0b a1 d3 3d b3 2c 39 3d bf e9 79 3d e2 12 07 3e
       0.10333451 0.045208644 0.061013933 0.13190797
000210 26 2e 28 be 17 9a f2 bc 02 4a 1d 3e 02 ee 9d bd
       -0.16423854 -0.029614491 0.15360263 -0.07711412
000220 9c 7c e4 3d ae 79 10 bd 72 cd 3e 3d c8 1a 98 3d
       0.1115658 -0.035272293 0.046582647 0.07426983
000230 16 9c 11 bd 52 d3 57 bd 19 25 26 3e 4e ee 85 3e
       -0.035549246 -0.052691765 0.16225089 0.26158375
000240 1b 93 04 3e 53 fb d5 bd 9d 45 24 3e 26 3c 4b 3c
       0.12946741 -0.10448327 0.1604218 0.012404477
000250 55 e8 d8 3d 31 40 7a 3a f7 16 82 3e 5f d2 09 3e
       0.10591189 0.00095463084 0.25408146 0.13459156
000260 83 09 6e 3d 41 9c a8 3b 25 71 89 3e d8 1e 8a bd
       0.05811454 0.00514558 0.26844135 -0.06744164
000270 4e 1c 0e bd 62 4f 18 be 05 5a d8 3c cb 88 11 bb
       -0.034694962 -0.14874032 0.026410112 -0.002220678
000280 dc 6a d3 bd ee 5f 49 3c 33 93 9f bd ec 6e b3 bb
       -0.10323116 0.012290938 -0.07791748 -0.0054758694
000290 90 77 15 3e d0 9a 73 be 7e 4a 09 be e3 40 67 bd
       0.1459639 -0.23789525 -0.13407323 -0.056458365
0002a0 9f 04 97 bc e3 bb 3b bb b5 74 c3 bd 79 10 27 3e
       -0.01843482 -0.0028645925 -0.095437445 0.16314878
0002b0 32 e0 31 3e a1 92 90 bd 1f c1 41 be ef e4 2f be
       0.1737068 -0.07059217 -0.18921326 -0.17177175
0002c0 9a 4b b1 bd e8 1f 1c 3e f1 56 4b 3e ce a0 60 3e
       -0.08656998 0.15246546 0.19857384 0.21936342
0002d0 15 fd 1d 3d 1c 9e e8 3d 85 d1 1f 3e 3d 0b 0d 3e
       0.038571436 0.11358282 0.15607269 0.13773818
0002e0 8a 5f de bd d6 c8 62 be da 82 0b be 91 2c 02 be
       -0.108580664 -0.22146925 -0.13624135 -0.12712313
0002f0 cb 6f fd bc 3e f0 4b be 12 4e 0f bd 5f 3e aa 3c
       -0.030937096 -0.19915864 -0.034986563 0.020781694
000300 2c 38 d3 3c 29 1d c2 3d 93 48 1a be 59 d4 2c be
       0.02578362 0.09478218 -0.15066747 -0.16877879
000310 3f c1 2a 3e 89 46 49 3c af cd 42 be cc e9 39 bd
       0.1667528 0.012284883 -0.19023775 -0.04538898
000320 fe f6 3d 3d 42 af 2e 3e 1b ba 4b bc ac eb e2 3d
       0.04637813 0.17059043 -0.012434508 0.11080107
000330 1c a2 7f 3e 7b c7 f5 3c 60 64 25 bc 59 14 ca 3c
       0.24964184 0.030002346 -0.010094732 0.024667906
000340 3e 91 14 bc b2 30 ce bd ed f4 75 3e 90 23 de 3d
       -0.009067832 -0.10067882 0.24019213 0.10846627
000350 a2 fd 04 3e aa 2c 2c be 5c 57 d5 bd 63 a7 c8 bd
       0.12987378 -0.16813913 -0.10417053 -0.097975515
000360 36 1f 49 be cc b3 56 3b 89 06 ca 3c 9c 07 2b bd
       -0.19640812 0.0032760976 0.02466132 -0.041755304
000370 2a be b0 3c 0f d7 1b 3e 4f 14 0a 3d 0c 60 8d bc
       0.021575052 0.15218757 0.033710774 -0.017257713
000380 2b f3 7c 3d 9e 31 07 be 67 07 d5 3c 05 0c 08 be
       0.06175534 -0.13202521 0.026004506 -0.13285835
000390 f2 3a 08 3e 44 c4 f7 bd d1 fa 0f be a7 cd c2 3c
       0.13303736 -0.120979816 -0.14060523 0.023779703
0003a0 2e 33 17 3e 22 c0 eb 3d 1f 17 7f be 1c 57 5d be
       0.14765617 0.11511256 -0.24911164 -0.21615261
0003b0 8c a3 59 be 7b a3 5e 3d be 5f 6e bd fc 86 14 bd
       -0.21253794 0.054355126 -0.058196776 -0.036261544
0003c0 b8 97 d0 3c 85 e2 12 3d 0d 2d 78 be 55 7f 8a bb
       0.02546297 0.035860557 -0.24235936 -0.004226605
0003d0 9c e9 77 bc cd 07 3b be cb 10 dc bd 7f 6a 07 3d
       -0.01513138 -0.18264695 -0.107453905 0.033060547
0003e0 e7 a6 c1 bd 69 f4 a1 3c df b9 9e 3d a0 f0 16 be
       -0.09455662 0.019769864 0.07750296 -0.14740229
0003f0 ee 9d 7c 3e 90 52 58 3e 4c 26 6d bd 03 2e f5 3d
       0.2466962 0.21125245 -0.05789785 0.11971667

hidden_layers_x.3.fc.4.weight f4 [32]
000000 42 63 84 3f de 39 6e 3f 9f f4 83 3f 19 b4 72 3f
       1.0342791 0.9305705 1.0309027 0.9480606
000010 1e b7 76 3f 3d 66 74 3f ea 64 6f 3f 2d 0b 88 3f
       0.96373165 0.95468503 0.9351336 1.062841
000020 00 fc 79 3f 32 12 81 3f 63 11 6e 3f 9b 00 5e 3f
       0.97650146 1.0083678 0.9299528 0.86719674
000030 47 7b 7c 3f 8d ec 79 3f 98 e7 6e 3f 98 fe 6a 3f
       0.98625606 0.9762657 0.93322134 0.9179473
000040 59 e1 82 3f b5 68 85 3f 21 7d 84 3f ee 1d 84 3f
       1.0225021 1.0422579 1.0350686 1.0321634
000050 15 87 77 3f 23 97 81 3f 47 00 6a 3f 35 ae 6c 3f
       0.96690494 1.0124248 0.91406673 0.9245332
000060 02 4a 80 3f d7 b2 75 3f 99 be 6e 3f a0 1e 70 3f
       1.0022585 0.9597601 0.9325958 0.9379673
000070 5f 60 72 3f 4e 4b 8c 3f 53 07 77 3f 27 85 89 3f
       0.946783 1.0960481 0.9649555 1.074376

hidden_layers_x.3.fc.4.bias f4 [32]
000000 d6 5b 4c 3d 08 b5 8d 3d 97 c9 46 bd d9 99 82 3d
       0.04989227 0.069192946 -0.048532095 0.06377
000010 aa 31 7e 3d bf b4 63 bd 02 e2 83 bd e8 44 17 3d
       0.062059082 -0.055592295 -0.06439592 0.03693095
000020 60 36 58 3d d3 c4 5a bd d9 e0 40 3d 3f dc 3d bd
       0.05278623 -0.053410362 0.04708943 -0.04635262
000030 41 a1 6b 3d 2c 65 78 3d 11 e7 32 bd 18 ea 99 3d
       0.05752683 0.06064336 -0.043677393 0.07515353
000040 56 36 16 3d b5 fe 92 3d 22 ab 7b 3d d6 ad 93 3d
       0.036672913 0.07177488 0.0614425 0.07210891
000050 11 40 92 3d db 69 8f bd 1d 9d 5c bd 6b cd 47 bd
       0.07141126 -0.07002612 -0.053860772 -0.048779886
000060 f9 ac a3 bd f2 a6 9b 3d e6 69 6b bd 56 99 24 bd
       -0.07991976 0.07600202 -0.05747404 -0.040185295
000070 bc 98 8f bd 56 06 7b 3d 25 19 83 3d 08 f4 56 3d
       -0.07011554 0.06128534 0.0640128 0.05247882

hidden_layers_x.4.fc.0.weight f4 [32, 32]
000000 a0 22 16 3e d1 60 5c be 17 ab d4 bb dc fe d7 bd
       0.14661646 -0.21521308 -0.006490122 -0.105466574
000010 42 4f c5 bd 31 57 3d 3e bd 87 c2 bd 9e f0 2e bd
       -0.09634258 0.18490292 -0.09498546 -0.04270994
000020 db ab f3 3c 05 35 48 bd 65 d5 1f bd ef ca 1e 3d
       0.029745033 -0.04887869 -0.03902187 0.03876775
000030 c3 69 b3 3d 8b 35 95 3d 63 95 de bd 17 c7 d2 bc
       0.08760407 0.07285603 -0.10868337 -0.025729699
000040 1f a3 1a be 9f c5 2b 3e 7b e7 b9 3c 2e 67 73 be
       -0.15101288 0.16774605 0.022693386 -0.23769829
000050 c1 d4 1c 3e 0d e4 10 be 0a 76 df 3d 16 95 61 3e
       0.15315534 -0.14149494 0.10911186 0.22029528
000060 8b 1b 8f 3d c6 d8 ec bd 09 5f 22 3e 23 da 02 3e
       0.06987675 -0.11564784 0.15856566 0.12778525
000070 84 37 3d 3d 1b 50 31 3b 31 6b 44 be 61 e0 76 bd
       0.046195522 0.0027055803 -0.19181515 -0.06027258
000080 61 e6 a1 bd a0 b2 34 3e 8e ae 18 3e 46 c0 18 3e
       -0.079052694 0.17646265 0.14910337 0.14917096
000090 98 82 ea ba af 0a 22 3e a6 6d 18 3d 3a 15 20 bd
       -0.0017891703 0.15824388 0.037213944 -0.039082743
0000a0 1b 09 c7 bd 4b 89 1e be 75 72 ff 3d f6 ca 29 be
       -0.097185336 -0.1548206 0.12473003 -0.1658133
0000b0 3f ad 2e 3e a1 cd 02 bd 01 c9 15 3e 95 4b 84 bd
       0.17058276 -0.031934384 0.14627458 -0.06459729
0000c0 cc 61 31 3e d9 a8 5e 3e 5d a0 70 3d 25 8f 97 bd
       0.17322463 0.21744098 0.058746684 -0.074003495
0000d0 ad 91 31 bc ea a6 9f 3d 3f 05 7f bd 7b be 12 3e
       -0.0108379545 0.07795508 -0.062260862 0.14330475
0000e0 7d f0 22 be a9 d6 5d be d3 d6 78 3e 72 fa 36 3e
       -0.15912051 -0.21663918 0.24300699 0.17868975
0000f0 e6 b9 a0 3d 07 d6 04 3d 15 02 bd 3c 2b a8 39 3e
       0.07847957 0.032430675 0.023072282 0.18130557
000100 c5 d6 61 3e ef 99 c2 3c bf f7 48 bd fe f9 47 bd
       0.22054584 0.023755042 -0.049064394 -0.048822396
000110 1e 97 c4 3d 71 fc 1b 3e 93 89 57 be ad fc fb 3d
       0.09599136 0.15233018 -0.21048574 0.123040535
000120 d4 65 80 3c 3e 9e d4 3d a7 b6 fa bd d7 28 1f be
       0.015673555 0.10381745 -0.122418694 -0.15542923
000130 a9 93 0b be d4 9e 84 bd 8d c3 ec 3d 23 94 88 bc
       -0.13630547 -0.064756066 0.11560736 -0.0166722
000140 ec a6 3d be 97 24 02 be 55 db c9 bc 3b e3 28 be
       -0.18520707 -0.1270927 -0.024640718 -0.16492932
000150 34 89 2e bd 3e bf 22 be d8 23 01 3e 99 01 48 3e
       -0.042611316 -0.15893266 0.1261133 0.1953186
000160 32 74 87 bd 7d fb 60 3d af a7 be 3d 6e f3 2f 3d
       -0.06613959 0.054927338 0.09309327 0.042956762
000170 e9 c3 e5 3d db 5d 9f 3d 55 c9 e8 bd 94 59 2d be
       0.112190075 0.077815734 -0.11366526 -0.16928703
000180 71 f4 c5 3c ce c9 a0 3d 50 67 29 be 5f ed 59 bd
       0.02416441 0.07850991 -0.16543317 -0.05320489
000190 83 e7 b2 bc bc cb 90 bb be b0 03 be e5 4f fe 3c
       -0.021838909 -0.0044188183 -0.1286039 0.031043956
0001a0 6b a1 c1 3d e4 8b 22 be b7 b3 bb 3d 03 e2 d3 3c
       0.09454616 -0.15873677 0.09165137 0.025864607
0001b0 98 95 9f 3c 62 ba 88 bb 12 7e bb bd 89 08 df 3d
       0.019480512 -0.004172609 -0.091549054 0.108903
0001c0 db c3 b1 bc 0c 28 ea bc 8b d0 7c 3d 1b 6f 06 bc
       -0.021699836 -0.028583549 0.06172232 -0.008205201
0001d0 ea df fa 3c 09 4b b6 bd 75 f0 27 3e df 69 4d be
       0.030624349 -0.089010306 0.16400321 -0.20059918
0001e0 d4 db d0 bd a3 58 15 be 7e 90 33 be 47 d6 66 bd
       -0.10198179 -0.14584593 -0.17535588 -0.056356695
0001f0 c8 5a 02 3e b1 a9 73 3d 40 dd 1c 3e ba d2 b9 bd
       0.12729943 0.059488002 0.15318775 -0.09073396
000200 40 eb 0c be 35 68 3c bd d9 41 24 3d 32 c9 13 3d
       -0.13761616 -0.045997817 0.04010186 0.036080547
000210 a6 10 5d 3e 65 10 24 3c 29 d1 4f 3e 66 94 14 be
       0.21588382 0.010013674 0.20294632 -0.14509735
000220 27 d7 1c 3d ae 85 64 3e b2 20 ee 3c 6e a0 3c 3e
       0.038291123 0.2231662 0.029068325 0.18420574
000230 d2 f2 28 3e be c9 0d 3e 4d 85 25 3e d2 8a 4d be
       0.16498879 0.1384649 0.16164131 -0.20072487
000240 54 f6 50 3e 52 9f 04 3e c4 2f 5c 3e 69 5b 72 3e
       0.20406467 0.12951401 0.21502596 0.23667683
000250 a8 af ae bd e3 ef 89 3d d0 81 e5 bc f2 a1 c1 3c
       -0.085295975 0.06735208 -0.028016001 0.023636792
000260 5b ef c7 bd 9f cf cd bd 03 82 54 be a6 59 f8 bd
       -0.0976245 -0.10049366 -0.2075272 -0.12126474
000270 25 ff 48 3e 9e 6e 6b bd ce 54 ce 3d ba af ab 3d
       0.1962858 -0.05747854 0.10074769 0.083831266
000280 a0 e2 fb bd 4b 9b 32 be f4 59 e0 bd fa c6 23 be
       -0.12299085 -0.17442052 -0.10954657 -0.15993872
000290 01 cc 22 bd df 38 91 3d ed 52 b6 3b 85 ef 7a 3d
       -0.039745335 0.070909254 0.0055640847 0.06126358
0002a0 66 3f d9 3d be 45 8d bd 18 3c 45 be 85 43 39 be
       0.106077954 -0.06898068 -0.19261205 -0.18092163
0002b0 b5 cb fd bd 76 96 80 3d 7b e5 da 3d d8 f6 de 3d
       -0.1239237 0.06278698 0.10688301 0.108869255
0002c0 75 b8 01 be 5c 97 b1 3c 33 4a 00 be 57 aa 9a bd
       -0.12668021 0.02167862 -0.12528305 -0.07552021
0002d0 35 07 ec bd fe 01 56 bc 6b 07 27 bd fb 76 ce bd
       -0.11524812 -0.013061998 -0.04077856 -0.100812875
0002e0 2b 79 21 be 34 9f 0d 3d 62 83 cf bd 49 a0 42 bd
       -0.15768878 0.034575656 -0.10132481 -0.04751614
0002f0 e4 70 8e 3d 8e f3 18 bd 4c 3c 85 3c 67 f6 2f 3e
       0.06955126 -0.037341647 0.016264103 0.17183839
000300 d2 e8 90 bd e5 a5 64 be 22 99 14 be 7d 9b 52 be
       -0.07075657 -0.22328909 -0.1451154 -0.20567127
000310 bf f0 cf 3d 3a f8 50 bd d6 44 0c be 74 da f2 bd
       0.101533405 -0.051017977 -0.13698134 -0.11858073
000320 37 1e e9 3c a6 a4 96 3c 14 be 92 3d b7 0d f7 3d
       0.02845679 0.018389057 0.07165161 0.12063163
000330 ea 3e cd bd 8d 66 1f 3e 48 95 84 3d ef 92 46 ba
       -0.100217655 0.15566464 0.06473786 -0.00075749954
000340 9c 03 31 bd 95 cd 5d bd b1 17 87 3d ec eb 30 be
       -0.043216333 -0.054151136 0.06596316 -0.17277497
000350 dd ce c1 bc 1b aa 4e be 96 bf ed 3d ff 16 94 bc
       -0.02365821 -0.20182078 0.11608808 -0.018077372
000360 39 87 02 bd 56 d1 5a bd 60 1e 4b be 87 68 98 bd
       -0.03186724 -0.053422295 -0.19835806 -0.07441812
000370 53 a2 1e be 10 1c a7 3d d0 5a 20 3e 71 ba 62 3d
       -0.1549161 0.08159649 0.15659642 0.055353586
000380 95 3d cb 3d dc 0e df bc 42 bc e2 bb 4b f7 5e 3e
       0.09923855 -0.027228765 -0.0069194147 0.21774022
000390 d4 c1 96 3e c6 cf 51 3c 24 73 85 bc ec ed 22 3e
       0.29444754 0.012805885 -0.016290255 0.15911072
0003a0 49 39 db bd ef eb 19 be bf a8 1f 3e c1 81 cd 3d
       -0.10704286 -0.15031408 0.15591715 0.10034514
0003b0 0d c2 56 bc b6 ef 89 3d 11 2b 73 3d 83 4c ac be
       -0.013107789 0.06735174 0.059367243 -0.33652124
0003c0 95 09 95 3d 75 47 e8 bd bc 12 50 be 83 a6 84 bd
       0.07277218 -0.11341754 -0.20319647 -0.06477072
0003d0 44 3c a6 3d 38 f4 5e bc c8 c2 94 3b 54 1e e3 3d
       0.081169635 -0.013608031 0.0045398213 0.11089769
0003e0 6a 05 e8 3d 35 7a 10 be c8 80 01 be 1e 9f 84 be
       0.11329158 -0.14109118 -0.12646782 -0.25902647
0003f0 b4 10 0a be 3f 89 15 be cc f6 10 be b9 1c 05 3e
       -0.13482934 -0.14603136 -0.14156646 0.12999238

hidden_layers_x.4.fc.1.weight f4 [32]
000000 e0 09 6e 3f 99 3a 86 3f 35 ee 7a 3f 77 45 7d 3f
       0.9298382 1.0486633 0.98019725 0.9893412
000010 bd 19 8c 3f 2e bc 65 3f dc 46 75 3f f8 52 80 3f
       1.0945355 0.89740264 0.9581125 1.002532
000020 02 a9 5a 3f 92 fb 87 3f aa c9 6e 3f 5d f5 87 3f
       0.85414135 1.0623648 0.93276465 1.0621754
000030 bb aa 75 3f 69 dc 7e 3f 2d c5 83 3f 02 df 6e 3f
       0.9596364 0.9955507 1.0294548 0.9330903
000040 cb b2 80 3f cb 39 6b 3f ae c6 72 3f 81 f4 90 3f
       1.0054563 0.9188506 0.9483441 1.1324617
000050 cc ac 80 3f 7c 39 6e 3f ab ac 75 3f 85 c6 7a 3f
       1.0052733 0.93056464 0.95966595 0.97959167
000060 36 f9 7b 3f 7b 6d 90 3f 75 94 a1 3f ec a3 65 3f
       0.9842714 1.1283411 1.262343 0.8970325
000070 1e da 79 3f e9 63 71 3f 62 96 8b 3f 32 b7 70 3f
       0.97598445 0.94293076 1.0905268 0.94029534

hidden_layers_x.4.fc.1.bias f4 [32]
000000 95 17 7f bd e0 cf 88 bd 4b a6 87 bd 4f fe 89 3d
       -0.06227835 -0.06680274 -0.06623515 0.06737959
000010 b0 66 90 3d 2c 63 5e 3d db 7d 83 bd 8c 60 7d bd
       0.07050836 0.054293796 -0.064204894 -0.061859652
000020 c6 76 87 3d f1 84 52 3d 06 1b 74 3d d7 b9 6a 3d
       0.06614451 0.051396314 0.059596084 0.057306137
000030 17 b3 95 bd e0 a1 7a 3d a8 af 8d 3d 79 f1 78 bd
       -0.07309549 0.061189532 0.069182694 -0.06077716
000040 be 19 74 bd 83 bc 50 bd 94 c0 8d bd 52 a4 84 bd
       -0.059594862 -0.05096103 -0.06921497 -0.06476654
000050 41 97 7c bd b0 37 30 3d d5 26 68 bd 0b 1a 77 bd
       -0.061667684 0.043021858 -0.056677658 -0.06032757
000060 45 98 8f bd 76 63 2e bd f2 ef 30 bd d8 01 6e bd
       -0.07011465 -0.042575322 -0.04319758 -0.058107227
000070 8a 49 53 bd 09 1e 5c 3d f8 18 8a 3d 56 92 33 3d
       -0.051583804 0.05373958 0.06743044 0.04384073

hidden_layers_x.4.fc.3.weight f4 [32, 32]
000000 1f f1 63 3e b2 91 0c 3d 05 0a 12 3c e2 6a f4 3d
       0.22259949 0.034318633 0.008913522 0.11934449
000010 44 a3 04 3e 12 7c 27 bd b1 0a a6 bd e5 1c 11 3d
       0.12952906 -0.040889807 -0.08107508 0.035427947
000020 c1 a4 44 3e a3 49 97 3e 6b 32 76 3d 4d a4 55 3b
       0.19203474 0.29548368 0.060106676 0.0032599152
000030 04 8c 83 bd 72 80 52 3e 74 bc 0c 3e 24 d1 ae bd
       -0.0642319 0.2055681 0.13743764 -0.08535984
000040 2b 90 04 3e 9b 52 9c be ad 9f df bc 36 ad 98 3e
       0.1294562 -0.30531773 -0.027297819 0.2981965
000050 62 5a 10 bd fa a6 68 3e 24 7d 81 bd da 82 5c 3e
       -0.035242446 0.22719947 -0.06322697 0.21534291
000060 e9 e7 35 be a0 43 87 3e 56 54 18 3d 44 33 ba 3d
       -0.17764248 0.2641878 0.037189804 0.090918094
000070 e7 22 30 3e c9 22 e1 bd 59 d5 ae 3e 0d d2 87 bd
       0.17200814 -0.10992963 0.34147146 -0.06631861
000080 e0 34 e3 3d 29 be 30 be 24 3a 09 bd 62 80 b1 3d
       0.110940695 -0.1726004 -0.033502713 0.08667065
000090 bb 80 e6 bc dc 11 d4 3d 7b 8e 27 3e 60 05 d9 bd
       -0.028137555 0.10354969 0.16362946 -0.10596728
0000a0 26 11 94 3c b1 bd 5b be 3d 50 a2 3d 2a 81 a7 3c
       0.018074583 -0.2145908 0.079254605 0.020447332
0000b0 41 34 04 be 6d 48 5b 3d 4a 9b 45 3d 81 46 d0 3d
       -0.12910558 0.053535867 0.0482438 0.101696976
0000c0 4d 70 aa 3d 8f fb 16 3e 23 0e 36 be 6d 6a d1 bb
       0.08322201 0.147444 -0.1777883 -0.006390861
0000d0 62 17 62 bd ad b8 98 3d a5 af 88 3d c1 43 6a bd
       -0.05519808 0.07457099 0.066741265 -0.05719352
0000e0 ad fa 52 bd 24 e8 89 bd 59 cb 04 3d 13 57 96 3d
       -0.051508594 -0.067337304 0.03242049 0.07340827
0000f0 43 2c fd 3b 44 7c d9 3d d4 3e 21 be 2f 11 cd bc
       0.0077262237 0.10619405 -0.15746623 -0.025032608
000100 75 3f 03 3d 3f 60 7e bd e7 67 99 ba 04 5d af 39
       0.03204294 -0.062103506 -0.0011703939 0.00033447903
000110 25 64 a9 bd 58 eb ac bd f7 58 a4 bd 85 98 a8 3d
       -0.08271054 -0.08443326 -0.08024781 0.08232216
000120 6f fc 1f 3d 6c 40 8e 3d 48 a4 cf 3d b2 58 10 be
       0.0390591 0.06945881 0.10138756 -0.14096335
000130 1f 0c 07 3e 11 48 1d be 33 ca 45 be 22 30 1b 3d
       0.13188218 -0.15359522 -0.19315414 0.0378877
000140 fc 4e be bc 74 9c df bd bc 02 09 be 17 b3 15 be
       -0.023231022 -0.10918513 -0.1337995 -0.14619099
000150 46 e0 12 3b 77 64 ca 3d 65 9b 95 3c c2 c0 bb 3d
       0.002241151 0.098824434 0.018262574 0.09167625
000160 2f e4 2a bd 3f 72 98 bd 82 af ea 3d 4b c0 90 3d
       -0.04172152 -0.07443666 0.11459257 0.07067927
000170 0d 5a a4 bd 86 94 01 bd 12 2f e9 3b 09 d8 e3 3b
       -0.08024988 -0.031635784 0.007116207 0.0069532436
000180 80 d5 38 3e 42 0c 9b bd 4b 1d d1 bd b1 54 4c bb
       0.18050194 -0.07570697 -0.10210665 -0.003117841
000190 99 45 f7 bd 20 df 4e 3e 61 6e f7 bd 45 3e 00 be
       -0.120738216 0.20202303 -0.120816 -0.12523754
0001a0 1d 03 91 3d af 2c dc bd 6c 2d 05 be 4e 61 e0 3c
       0.07080672 -0.1075071 -0.13005608 0.027390148
0001b0 a2 50 63 be 96 0f 14 be a2 3c 82 be 6c 75 29 be
       -0.22198728 -0.1445907 -0.25436884 -0.16548699
0001c0 01 e1 25 bc ad 22 c5 3d 2f 7b 7e be 6e 21 f1 bd
       -0.010124446 0.096257545 -0.24851678 -0.11773954
0001d0 02 b0 49 bc 85 d7 9e 3d 8a be 61 bd 87 e5 85 bd
       -0.01231003 0.07755951 -0.055113353 -0.065379195
0001e0 98 f4 48 3d 26 88 0f be 97 e0 96 be 74 d4 c5 bd
       0.049061388 -0.1401678 -0.29468223 -0.09659663
0001f0 96 26 1d be c3 0d 29 3e c6 86 1c bd 7a 3e b4 bc
       -0.1534675 0.16509156 -0.038214467 -0.022002447
000200 46 6a 08 bd 22 97 8a 3d 9d 88 0c 3e 6d 17 2d 3e
       -0.033304475 0.067671075 0.13723989 0.16903467
000210 a1 73 7a 3e 46 a4 7d 3c 54 67 9c bd 59 61 24 3e
       0.24458171 0.01548106 -0.07636896 0.1605276
000220 81 80 c3 3d 7a 27 98 3e 43 e7 2b 3e a7 84 d8 bd
       0.095459945 0.29717618 0.16787438 -0.105721764
000230 b5 84 ac bd 1f 95 a8 3d e5 ae 24 3e 9a af 8f 3d
       -0.08423749 0.082315676 0.16082342 0.07015915
000240 7d 92 74 3e 44 a1 72 bc d9 f4 51 3e 4e 6c df 3d
       0.23884006 -0.0148089565 0.20503558 0.10909329
000250 55 20 67 be 4c db 29 3c 32 57 ef 3c 3e 52 52 3e
       -0.22570927 0.010367226 0.029216383 0.20539185
000260 a1 d8 9d bd d7 2a 8d 3e 46 66 8a 3e be 50 b4 bc
       -0.07707334 0.27571747 0.27031153 -0.022011157
000270 e3 b7 a2 bd 48 59 c7 bd 6f 98 6f 3e 45 5a 2b 3e
       -0.0794523 -0.09733826 0.23397993 0.16733654
000280 b8 47 84 be 8b ea 98 3d 2c 52 3f bc 3a d2 1f 3d
       -0.25835967 0.074666105 -0.011677306 0.039018847
000290 61 b2 9f bd a1 5e d4 3d ea f3 1d be a2 0f d0 3d
       -0.07797695 0.103696115 -0.15425077 0.10159232
0002a0 4a c0 7d bc 43 26 3b 3d 9f 4b 12 be 6a 85 7f be
       -0.01548774 0.045690786 -0.1428666 -0.24953237
0002b0 0a 59 64 bd 32 c8 8b bd e1 3e d3 bd 1d e0 fe bd
       -0.055748977 -0.068252936 -0.103147276 -0.1244509
0002c0 7a 25 07 be 1c 9b a4 3d dd 65 43 bd f6 f8 7d bc
       -0.1319789 0.08037397 -0.047704566 -0.015501251
0002d0 6f 00 0f be 58 0b 2a be 84 15 81 3d ad a4 0b 3e
       -0.13965009 -0.1660589 0.06302932 0.13637038
0002e0 e5 19 0b be 5a ca 01 be b4 61 ae bd be 48 e5 bb
       -0.13584097 -0.12674847 -0.08514729 -0.006997197
0002f0 dd 3c 1d be 3b e3 59 be 76 a5 08 bd b9 7a 14 be
       -0.15355249 -0.21278088 -0.03336092 -0.1449994
000300 65 36 d8 3c 87 b8 d8 bd 83 d7 38 bd fd c1 2f be
       0.026393125 -0.10582071 -0.045127403 -0.17163844
000310 b5 87 35 be a2 f3 9d 3c 7a ca 26 be 6d b1 33 3c
       -0.1772755 0.019281212 -0.16288176 0.010967595
000320 28 85 3e be 6a 93 4a be 52 8c 5d 3e ee 07 0a 3e
       -0.18605483 -0.19782797 0.21635559 0.13479587
000330 ca 32 17 3d be d3 1a bd a9 21 40 bd c7 c1 c4 3d
       0.03691367 -0.03779959 -0.0469071 0.096072726
000340 46 d7 9f bd cb 7b b3 bb b7 c0 fe bd 7a 75 0b 3e
       -0.07804732 -0.0054774038 -0.12439101 0.13619033
000350 88 9b 6e 3e 8a ba 67 bd 48 70 00 be c0 fb 10 3d
       0.23301518 -0.056574382 -0.12542832 0.035396338
000360 5d c0 a7 3d 63 d5 11 be 23 b8 56 be 10 a2 9f bd
       0.08190987 -0.14241557 -0.2096868 -0.07794583
000370 d6 8e d4 3d fc 9f 61 3d f7 b1 e5 3d ee 79 c1 3d
       0.10378806 0.055084214 0.11215585 0.09447084
000380 27 87 a4 bc 6f c2 33 bd 90 e1 17 be ac 0c 04 be
       -0.020083977 -0.0438866 -0.14832139 -0.12895459
000390 88 dc 60 3c bd e8 88 be 0a b8 ee 3d 3a 9f eb 3d
       0.013724454 -0.26740065 0.116561964 0.115049794
0003a0 da 8d 1c 3d ee 7c e4 b9 08 3f 23 bd e2 9e 04 bc
       0.038221218 -0.0004358063 -0.039855033 -0.008094521
0003b0 8c 9c 05 be ab 87 09 be 4f 92 a3 bd cc 3f 44 be
       -0.13047999 -0.1343066 -0.079868905 -0.19164962
0003c0 9f cb 28 3d a3 0d f7 3c b4 6c 88 bd 76 1a 3e 3c
       0.041209813 0.03015787 -0.066613585 0.0116029885
0003d0 15 4e 28 bd 65 51 04 3e 44 73 80 3d 4c 3a 84 bd
       -0.04109009 0.12921675 0.06271985 -0.06456432
0003e0 cd 5f 53 3e ca f1 1f be bf 2e bc bc 30 b5 e9 3d
       0.20642014 -0.15619579 -0.022971509 0.11411512
0003f0 3e c6 fe 3d b7 2b 05 3d 64 30 ac 3d 0d 5c 1b be
       0.124401554 0.032512393 0.08407667 -0.15171833

hidden_layers_x.4.fc.4.weight f4 [32]
000000 b6 6f 77 3f 22 b4 6e 3f a2 e0 88 3f 22 e5 93 3f
       0.9665483 0.9324361 1.0693552 1.1554301
000010 f4 22 82 3f ee 55 81 3f 84 9b 79 3f 62 42 69 3f
       1.0166917 1.0104349 0.97502923 0.9111692
000020 b6 83 69 3f 9e 35 71 3f cc fa 7d 3f a8 d6 6b 3f
       0.912166 0.9422244 0.9921081 0.92124414
000030 7c 9e 6d 3f 2f 51 60 3f be 94 7b 3f d0 88 80 3f
       0.9281995 0.87623876 0.9827384 1.0041752
000040 a3 e8 8a 3f 4e a6 76 3f 97 a7 69 3f f4 08 7e 3f
       1.0852245 0.9634751 0.91271347 0.9923241
000050 c9 13 66 3f 77 00 7e 3f a8 0c 92 3f 12 9a 8b 3f
       0.8987394 0.9921946 1.1410112 1.0906394
000060 07 bc 71 3f 86 d2 6d 3f f2 f3 6b 3f 0f d9 6c 3f
       0.9442753 0.9289936 0.92169106 0.92518705
000070 8d a1 6b 3f de 59 88 3f dd 5b 82 3f d1 69 70 3f
       0.9204338 1.0652425 1.0184284 0.93911463

hidden_layers_x.4.fc.4.bias f4 [32]
000000 04 42 41 39 c1 71 68 bd 0e 66 cf bc 0e ba 29 be
       0.00018430507 -0.05674911 -0.025317218 -0.1657488
000010 82 84 18 3d fb 5e 90 bd 43 3f a7 bd 47 6d 5c bd
       0.037235744 -0.07049366 -0.08166363 -0.053815152
000020 01 8f 8c bd 00 51 02 bd b8 49 4b bd 09 6a 00 bd
       -0.06863213 -0.03181553 -0.04963085 -0.031351123
000030 1e 33 4c 3d c0 2f 29 bd 37 68 07 bd b0 97 95 3b
       0.049853437 -0.041305304 -0.03305837 0.0045652017
000040 f1 9a 6c 3d 1f 15 57 bd 50 9c 1f be 1d d0 df bd
       0.05776495 -0.052510377 -0.15586972 -0.10928366
000050 7f 2e 93 bc 81 82 26 be a7 ff b0 bd 32 05 05 be
       -0.017966507 -0.16260721 -0.08642512 -0.12990263
000060 2b 37 9c bc e7 c6 8a bd b7 4b a7 bd db c6 c4 bd
       -0.019069275 -0.06776219 -0.08168738 -0.09608241
000070 7d d3 63 bc 68 72 18 bd ff 54 35 bd e9 4c cf bd
       -0.013905403 -0.03721848 -0.04427051 -0.10122091

hidden_layers_x.5.weight f4 [2, 32]
000000 45 c9 80 39 78 53 42 3c cb be 86 3b d7 68 f4 3c
       0.0002456402 0.011860721 0.0041120998 0.029835148
000010 cc b1 79 ba ae 46 76 bb 6a a3 4f bc b5 79 b6 ba
       -0.000952509 -0.003757875 -0.012673238 -0.001392177
000020 7e d2 23 bc b8 83 9f bb 9b 6f bc 3a dc 26 88 bc
       -0.009998916 -0.004867997 0.0014376523 -0.016620092
000030 0c 7d 15 bb 9d 16 bc bd 98 b3 49 3c 63 21 be 3a
       -0.002281013 -0.09184001 0.012310885 0.00145058
000040 86 11 34 3a fd 1c 90 3c be e2 b7 b9 a9 ce 59 bc
       0.0006869066 0.017591948 -0.00035073416 -0.0132939005
000050 b8 d4 16 3c b9 ea ce ba 7a 28 cf bb e6 97 40 bb
       0.00920599 -0.0015786506 -0.006321964 -0.0029387414
000060 88 9c 22 3a 8f c8 2b 3c da a5 29 3c 51 63 12 bb
       0.00062031345 0.010484829 0.0103544835 -0.002233703
000070 ad 04 fd 39 89 a1 73 bc c4 3b 1e 3c f5 31 12 bb
       0.00048259404 -0.014870056 0.009657804 -0.0022307609
000080 db cd f2 3d c5 8a 5f bd 03 6b 90 3c 0d 3a 61 3d
       0.1185567 -0.0545757 0.017629152 0.054987002
000090 a1 6a 6f 3e e3 53 de 3b 47 3d 38 3c 25 6d 9b be
       0.2338052 0.0067849024 0.011245078 -0.30356708
0000a0 2b ab 28 3b eb 13 4c 3e d9 e1 09 3e 43 74 07 be
       0.002573679 0.19929473 0.1346506 -0.13227944
0000b0 3f cf 6e 3e d6 7c b6 3d ec 03 94 bd 64 b3 22 3e
       0.23321246 0.08910529 -0.072273105 0.15888745
0000c0 8c 9e 34 3e 3b 8c 0e bc 5d be 84 3d bf dc 4b 3d
       0.17638606 -0.008700426 0.064816214 0.049771067
0000d0 e9 e2 fb 3d 2e 2d 16 3e 97 aa 45 bd d6 5a 1f 3e
       0.12299139 0.14665672 -0.04825839 0.15561995
0000e0 49 1f 6f 3e c2 c4 c4 bc 8c e7 00 3e 10 db a4 bd
       0.23351778 -0.024019603 0.12588328 -0.08049595
0000f0 34 38 61 3e 46 42 75 3d 38 6c 1c 3e 6a 7f 62 be
       0.21994096 0.059877656 0.15275657 -0.22118917

hidden_layers_x.5.bias f4 [2]
000000 e9 37 54 3d a2 78 09 3d
       0.051811133 0.03356231

hidden_layers_c.0.weight f4 [32, 7]
000000 f9 4d 1b be ab f3 1c be 52 13 af 3e 39 ea 4e be
       -0.15166463 -0.15327327 0.34194428 -0.20206536
000010 3f 38 06 be 80 dc 81 3e 1c 68 93 be 0a 8d 57 3e
       -0.13107394 0.2536354 -0.28790367 0.21049896
000020 c5 fe 88 3e 83 dd 3a 3e 37 43 10 3e 85 ff 5c 3e
       0.26756874 0.18248563 0.1408814 0.21581848
000030 91 74 c8 3e 24 95 17 3d f2 10 ad be 15 f5 88 3e
       0.39151433 0.037007466 -0.3380199 0.26749483
000040 a3 ca 82 3e 7d 8f 09 bd 82 56 68 be c1 35 bd bd
       0.25545225 -0.033584107 -0.2268925 -0.09238768
000050 42 93 66 be c9 5e 87 3e 97 4f 84 bc f0 52 82 3e
       -0.22517112 0.26439503 -0.016151233 0.254539
000060 7d c4 22 3e 06 48 a3 bd 80 24 7f be f7 8c 15 3e
       0.15895267 -0.07972722 -0.24916267 0.14604555
000070 65 0e f6 bd d5 03 18 3d d6 13 98 3e ca f3 0b be
       -0.12014464 0.03711303 0.29702634 -0.13667217
000080 a9 12 39 3d 23 e8 a7 bd 52 63 75 bd 56 a7 c5 3e
       0.04518381 -0.081985734 -0.059909172 0.3860423
000090 22 55 72 3e cf 5f 44 be bf 22 8f 3e 4a 61 22 be
       0.23665288 -0.19177173 0.27956197 -0.15857425
0000a0 58 8d 3d 3e 71 1a 45 3e fc 13 9c 3d c2 2c 88 be
       0.1851095 0.19248368 0.07620999 -0.26596648
0000b0 32 27 b7 3e c6 07 b3 bd 9a 8e 8a 3e 36 6c 59 be
       0.3577209 -0.08741717 0.2706192 -0.21232685
0000c0 98 0c 57 bc 92 dd 8d 3e 20 28 c1 be 33 be 81 3d
       -0.013125561 0.27708107 -0.37725925 0.06335106
0000d0 af 93 25 3d 8c 0b 95 be d5 48 17 bd 6e 04 77 be
       0.040424045 -0.29110372 -0.036934692 -0.24122784
0000e0 4a 37 22 3e bd c9 18 3e e4 4a 96 3e a3 2e cc 3d
       0.15841404 0.14920707 0.29354012 0.09969833
0000f0 4d c7 a9 bd e9 25 7b be cb 7e 4f be fa b5 88 3e
       -0.08289967 -0.2452618 -0.20263211 0.26701337
000100 e5 e9 d1 3d 61 db a9 be 8d 98 de 3d 5d 1d 4a bc
       0.1024969 -0.33175185 0.108689405 -0.012336102
000110 14 2e 91 3e f8 49 b0 bd 9b 0f 98 3e 15 c8 ab 3d
       0.28355467 -0.086078584 0.29699406 0.08387772
000120 7c 37 8e be f4 db 03 3e 19 ff 17 bd f9 1c 92 3e
       -0.27776706 0.12876874 -0.037108514 0.2853773
000130 d5 2d 51 be 4e 8b 2d bd 1b f3 72 3e 85 8c 2d 3d
       -0.2042764 -0.04236918 0.2372555 0.042370338
000140 9e cd ae 3d f9 70 60 3e 44 17 1b 3e 9a 8f 45 3d
       0.08535312 0.21918096 0.15145594 0.048232652
000150 8c 16 11 bc c6 17 94 bd 74 95 bc 3e 07 cd 49 bd
       -0.008855473 -0.07231097 0.36832774 -0.049267795
000160 d3 43 d2 3d 65 1d f0 3c da c0 d1 bc 52 f2 82 3e
       0.10266843 0.029310891 -0.025604654 0.255755
000170 71 9e 13 bb 7f e9 3e be 59 04 d0 3e 2f 53 9e 3c
       -0.0022524858 -0.18643759 0.40628317 0.019326774
000180 25 82 c2 bd 7e a5 eb be 44 84 33 3e af ad 5b be
       -0.09497479 -0.46024698 0.17530924 -0.21452974
000190 4f 1d 03 bd 2f 16 a4 3e 69 54 b6 3d 55 a8 aa 3e
       -0.032010373 0.32048175 0.08902819 0.33331552
0001a0 af a7 54 be 08 3e e8 be 03 02 cb be dd 0e 0e be
       -0.20767091 -0.45359826 -0.39649972 -0.13872857
0001b0 03 54 1d be ad 05 7e bd 28 ec 51 3e ed a1 bb 3e
       -0.15364079 -0.06201713 0.20500243 0.36646977
0001c0 be 52 0f bf dd 9b b0 be 96 c1 83 3e fb 8f 03 be
       -0.5598563 -0.34493914 0.25733632 -0.12847893
0001d0 f7 60 06 be f2 71 b0 be d4 d9 9c bd f4 80 af be
       -0.13122927 -0.34461933 -0.07658735 -0.3427807
0001e0 b7 cb 9a 3e 2d 35 fb bd c1 6c 87 bd 22 0e f0 3d
       0.30233547 -0.12266002 -0.0661254 0.117214456
0001f0 e1 85 ab 3d 56 be 73 3e d9 6f d3 3c 19 02 49 be
       0.08375145 0.23803076 0.025810169 -0.19629706
000200 76 f6 b0 3e 10 a1 17 bd 48 a5 20 3e 5b a0 c4 be
       0.34563035 -0.037018836 0.1568805 -0.38403592
000210 9f d2 b5 be 30 bc 3e 3d 68 fb 3b bd 66 92 49 3c
       -0.35512254 0.04656619 -0.045894057 0.0123029705
000220 aa e5 0d 3e 59 71 67 3d b1 18 e7 bd 88 8a 03 3e
       0.13857141 0.05650458 -0.112840064 0.12845814
000230 ab 6b 6a 3e 8b de 90 3e 2a 64 93 3e 14 15 65 3e
       0.22892635 0.28294787 0.28787357 0.22371322
000240 e6 03 30 3e 6a ee dd 3e 9a e6 bb be 44 e7 9e be
       0.17188987 0.43345958 -0.36699373 -0.31035817
000250 7b 2e 80 3e 57 67 b7 3e 75 57 91 be 4e ae 24 3e
       0.25035462 0.3582103 -0.28387037 0.16082117
000260 e6 3a cc bd 20 aa 27 bb 35 db d2 3e 17 f9 2e be
       -0.099721715 -0.002558358 0.41182867 -0.17087208
000270 34 fa 2a 3e 7a 30 7f 3e 6d 08 2d 3e b2 c5 75 be
       0.16697007 0.24920836 0.16897745 -0.24001196
000280 a1 28 5e 3e 3b e2 96 be b5 b1 1c be fc af 87 be
       0.21695186 -0.29469475 -0.15302165 -0.26501453
000290 de 15 51 3e 27 cc 15 3d 72 b2 8d 3e 41 fd 0e 3e
       0.20418498 0.036571648 0.27675205 0.13963796
0002a0 5a 85 16 be 42 01 b7 3e 09 4a 6a be 79 14 c1 bd
       -0.14699307 0.35743147 -0.22879805 -0.09427733
0002b0 27 67 ab bd f0 ff 64 3e cc 20 c3 3c 10 3e 8a be
       -0.08369284 0.22363257 0.02381935 -0.27000475
0002c0 b5 71 9e 3e c4 49 77 3e 55 ec 20 3e fe 87 1c 3e
       0.30946127 0.24149233 0.15715154 0.15286252
0002d0 28 58 f1 bd 93 55 d5 bd eb 0b 9e be a1 06 44 3c
       -0.117843926 -0.104167126 -0.30868468 0.011964471
0002e0 d7 35 4c 3e 56 53 00 3e 86 39 84 3e ae 4c 7b be
       0.19942413 0.1253179 0.25825137 -0.2454097
0002f0 d0 2d 6f be 24 88 fb 3d 99 53 a1 3e b0 98 bc bc
       -0.2335732 0.12281826 0.31509092 -0.023022026
000300 41 c7 2a 3e 52 cb 59 3e f7 00 b5 3e 55 8f 77 3e
       0.16677572 0.21268967 0.353523 0.2417577
000310 b1 39 8b be f1 68 b4 3c 5b bf 73 3e 01 d1 df 3c
       -0.27192453 0.022022696 0.23803465 0.02732134
000320 e2 33 75 be 32 e1 81 be de 6c 02 be d1 9a 8c 3e
       -0.23945573 -0.25367123 -0.12736842 0.27461866
000330 c5 d2 24 3d 2c e9 bd 3e a1 64 fb 3d 6d 06 a8 3e
       0.040240068 0.3709196 0.12275053 0.32817402
000340 10 cf b5 3c 92 c5 95 3e 41 b4 81 3e d7 44 ba be
       0.022193462 0.29252297 0.25332835 -0.36380646
000350 39 96 a7 be 33 43 44 be d8 44 80 bd ce c7 84 be
       -0.32731798 -0.1916626 -0.06263131 -0.2593369
000360 d1 f0 ca be d4 9e 15 3d 17 01 8c 3e 50 5c 5e be
       -0.39636853 0.036528423 0.2734458 -0.21714902
000370 55 d6 35 3e ba 6f 22 be 80 12 3b 3e 67 2f 90 bd
       0.17757542 -0.15862933 0.18268776 -0.07040291

hidden_layers_c.1.weight f4 [32]
000000 86 5f 7a 3f de 44 81 3f d2 7d 71 3f ec b5 76 3f
       0.9780201 1.0099142 0.9433261 0.9637134
000010 23 ba 78 3f 04 57 78 3f 6c f7 75 3f 28 4c 70 3f
       0.9715902 0.97007775 0.9608066 0.93866205
000020 6e 94 84 3f f3 50 69 3f e8 c7 70 3f c0 c2 64 3f
       1.0357797 0.91139144 0.9405503 0.89359665
000030 43 6f 70 3f d4 d8 72 3f 0c 20 85 3f 38 f4 68 3f
       0.9391977 0.94862103 1.0400405 0.9099765
000040 f6 20 75 3f bb 42 54 3f 82 c9 83 3f e8 6d 7e 3f
       0.9575342 0.8291432 1.029587 0.99386454
000050 27 7b 71 3f 64 4b 76 3f c4 bc 81 3f 36 d0 69 3f
       0.9432854 0.96208787 1.0135732 0.9133333
000060 d7 f6 7b 3f 26 91 6b 3f e4 3c 62 3f 1d 96 6a 3f
       0.9842352 0.92018354 0.8837416 0.91635305
000070 15 da 7a 3f f9 22 68 3f 41 f8 74 3f 34 f3 7f 3f
       0.97989017 0.90678364 0.95691305 0.99980474

hidden_layers_c.1.bias f4 [32]
000000 6e 4a 30 bd 8e b2 ca 3c ab 56 04 be 3b ef ca bd
       -0.04303973 0.024743345 -0.12923686 -0.09908911
000010 7f dc 9f bc 41 31 5b 3d 35 91 37 3d 71 e8 60 3d
       -0.01951432 0.05351377 0.044816215 0.054909173
000020 3e 35 7f bd 3a 44 59 3d cc 78 51 bd 41 38 df bd
       -0.062306635 0.05304358 -0.05114059 -0.108994015
000030 84 41 8e 3d 4d 39 37 bd af f3 ce 3d 1e f7 52 bd
       0.0694609 -0.04473238 0.10105073 -0.0515052
000040 87 d5 de bd a4 8e a7 3d 09 1a 4f bd 8b 38 a7 3d
       -0.10880571 0.081815034 -0.05056194 0.081650816
000050 50 63 0f bc 92 47 35 3d 9d 4e 4b 3d cf 52 87 bd
       -0.008751705 0.044257708 0.04963552 -0.06607591
000060 40 46 8c bd 88 1b 8f 3d 0b 38 cd bc b2 15 58 bd
       -0.068493366 0.06987673 -0.025051137 -0.052755065
000070 47 c7 73 3d ec 4d 85 bd d4 92 ad bd 4a dc 6d bd
       0.059516218 -0.06509003 -0.08475271 -0.058071412
