density_functional_approximation_dm21/checkpoints/NN_XALPHA/state_dict.pth (torch, 105643 bytes, 81 tensors)

hidden_layers.0.weight f4 [32, 7]
-0.309834 -0.25345135 0.12126805 -0.120360084 0.68365175 -0.2973425 -0.3112962 -0.061915603
-0.6061106 0.06408166 -0.000845213 -0.15152213 0.29637823 -0.45011237 0.43232137 0.14882281
0.29611441 0.052960668 -0.17965254 1.6079445 0.5572208 0.803749 0.6247574 0.13128404
-0.08719332 -0.0065426957 -0.020486925 0.10003027 0.20675132 0.52760464 0.2025165 -0.15140803
0.14359605 -0.03934343 0.1500035 0.24572144 0.087900914 0.28047165 1.0064539 0.000751985
0.19439074 -0.0046319026 -0.4682145 -0.1611221 0.26256385 -0.06859652 0.14381306 -0.3078416
-0.12114357 -0.52112997 -0.24369702 0.3201318 -0.057356004 0.20735969 -0.41199672 0.026542062
-0.21929932 0.3173376 -0.3668776 0.030879967 0.16893932 -0.1369628 0.38526192 0.4539494
0.163357 -0.27235615 0.062384564 -0.15678021 0.70199335 0.009449102 -0.43057337 -0.19500762
-0.113175124 0.13646373 0.08276927 -0.3648036 -0.6896998 -0.25288302 -0.3951541 -0.027641945
-0.08987915 -0.10365761 -0.4228165 -0.3862154 0.21534647 0.36434406 0.094141856 -0.036909513
0.20873453 0.17311044 0.17721738 -0.2150938 -0.3449759 -0.16975622 0.024342263 -0.2952246
-0.6380077 -0.4278888 -0.3853958 0.16844338 -0.5325426 -0.17409533 0.046103425 0.061878465
0.34378874 -0.13478959 -0.23732184 -0.10575902 -0.233351 -0.04624834 -0.3618805 -0.40701163
0.054326903 0.3639177 0.30724308 -0.3553222 -0.2497676 -0.14692126 0.3925757 0.89742243
0.30749893 -0.06379254 0.039706994 -0.19649135 0.06658486 -0.11462225 0.39483514 -0.2685952
0.28256792 -0.13338554 0.056622073 0.04878285 -0.36363003 0.98532605 0.2519025 7.19256e-05
-0.017402226 -0.098270305 0.013220397 -0.20892467 -0.035989232 0.06262701 0.29176712 -0.43073398
0.07928086 -0.8360291 -0.11567516 1.0286032 0.40214214 -0.20339774 -0.13131973 -0.30822384
0.04492886 -0.121412925 0.21678883 -0.33541024 0.15185636 0.08226929 -0.10625204 0.10332773
-0.36699072 -0.04052898 0.3405241 0.09632637 -0.73395604 0.014700601 -0.10142277 0.03993113
-0.9824293 -0.522075 0.047711436 -0.06107646 0.046937108 -0.043496534 0.0468098 -0.5846014
-0.8067496 0.19998513 -0.08607296 0.1706122 -0.37681454 -0.23595168 -0.4843295 -0.30756694
0.12336578 0.065805644 0.11648819 -0.5451233 -0.4143255 0.8843205 -0.2098957 0.087749
0.070778124 -0.12205452 0.12591876 -0.43548426 -0.62178534 0.31005704 0.2594038 -0.041830685
-0.0060427245 -0.57300395 0.20027965 -0.6281123 -0.47024137 -0.056351688 0.13831334 0.23666748
-0.33361882 -0.22012512 0.7672524 0.27764967 -0.20990108 0.0746318 0.1941855 -0.33877164
-0.27808395 -0.88259506 -0.41016218 -0.096613795 0.27215818 -0.061183065 0.015638985 0.06220882
00000000: 90a2 9ebe 60c4 81be 625b f83d 597f f6bd
00000010: cd03 2f3f 473d 98be 3762 9fbe 379b 7dbd
00000020: 102a 1bbf 3f3d 833d 4991 5dba 9e28 1bbe
00000030: e3be 973e 2175 e6be 3a59 dd3e 0265 183e
00000040: 4f9c 973e 49ed 583d d6f6 37be 20d1 cd3f
00000050: 06a6 0e3f 7fc2 4d3f 1af0 1f3f 536f 063e
00000060: 6992 b2bd 1c64 d6bb 32d4 a7bc acdc cc3d
00000070: 9eb6 533e 1911 073f 7c60 4f3e b50a 1bbe
00000080: d80a 133e 9426 21bd 849a 193e 679e 7b3e
00000090: 6505 b43d fb99 8f3e 7bd3 803f dc20 453a
000000a0: 5e0e 473e 37c7 97bb d0b9 efbe 31fd 24be
000000b0: c56e 863e 557c 8cbd bb43 133e 6a9d 9dbe
000000c0: 1f1a f8bd c668 05bf b68b 79be 51e8 a33e
000000d0: 21ee 6abd 1956 543e 3cf1 d2be bd6e d93c
000000e0: 0090 60be 137a a23e 61d7 bbbe fcf7 fc3c
000000f0: 6efe 2c3e fa3f 0cbe 0d41 c53e 0e6c e83e
00000100: 0f47 273e 4472 8bbe f586 7f3d fe8a 20be
00000110: d6b5 333f 68d0 1a3c 1d74 dcbe 14b0 47be
00000120: 5cc8 e7bd 26bd 0b3e ef82 a93d 8ac7 babe
00000130: 2b90 30bf e279 81be a351 cabe 5c71 e2bc
00000140: 8f12 b8bd 714a d4bd 677b d8be 06be c5be
00000150: c983 5c3e 4e8b ba3e 72cd c03d 6e2e 17bd
00000160: 81be 553e dd43 313e 7978 353e 8d41 5cbe
00000170: aea0 b0be 93d4 2dbe 6d69 c73c ae27 97be
00000180: 7954 23bf 3e14 dbbe 9952 c5be 6c7c 2c3e
00000190: b654 08bf 0c46 32be f2d6 3c3d 4674 7d3d
000001a0: 1405 b03e 4806 0abe 7f04 73be 2f98 d8bd
000001b0: 91f3 6ebe e66e 3dbd 6748 b9be d463 d0be
000001c0: e385 5e3d 6c53 ba3e f74e 9d3e cbec b5be
000001d0: 14c3 7fbe 8772 16be afff c83e 7abd 653f
000001e0: 8070 9d3e aaa5 82bd cda3 223d 0735 49be
000001f0: a55d 883d 12bf eabd d527 ca3e 4f85 89be
00000200: beac 903e 3896 08be 8cec 673d 87d0 473d
00000210: b72d babe 543e 7c3f 5df9 803e c3d6 9638
00000220: 1d8f 8ebc f141 c9bd 5d9a 583c 59f0 55be
00000230: 7269 13bd 9742 803d 8062 953e 2a89 dcbe
00000240: 015e a23d 0106 56bf 19e7 ecbd 45a9 833f
00000250: 93e5 cd3e 7f47 50be ae78 06be 84cf 9dbe
00000260: 5307 383d 57a7 f8bd e4fd 5d3e e4ba abbe
00000270: 3c80 1b3e cd7c a83d ab9a d9bd 7d9d d33d
00000280: 35e6 bbbe b701 26bd 2d59 ae3e c346 c53d
00000290: 8be4 3bbf cada 703c beb6 cfbd d38e 233d
000002a0: 7d80 7bbf b5a6 05bf 116d 433d 4f2b 7abd
000002b0: 2041 403d 6c29 32bd a2bb 3f3d 70a8 15bf
000002c0: 2487 4ebf e7c8 4c3e 0547 b0bd f7b4 2e3e
000002d0: d6ed c0be 519d 71be 09fa f7be 6a79 9dbe
000002e0: 33a7 fc3d 1cc5 863d 5c91 ee3d 338d 0bbf
000002f0: 7922 d4be d462 623f e6ee 56be bfb5 b33d
00000300: 1ff4 903d b8f7 f9bd d9f0 003e cbf7 debe
00000310: 532d 1fbf ccbf 9e3e 93d0 843e a756 2bbd
00000320: 0c02 c6bb 63b0 12bf 1c16 4d3e f8cb 20bf
00000330: 7ac3 f0be 07d1 66bd 03a2 0d3e f658 723e
00000340: 16d0 aabe 7b68 61be a76a 443f 1928 8e3e
00000350: 4ff0 56be 8fd8 983d 90d8 463e 7a73 adbe
00000360: 0561 8ebe c0f1 61bf c700 d2be 74dd c5bd
00000370: 5158 8b3e 189b 7abd 541d 803c adce 7e3d

hidden_layers.1.weight f4 [32]
0.20229807 -0.010804628 0.1169831 0.03836529 -0.015641926 -0.018584976 -0.04745964 -0.27911627
0.10341399 0.23122291 -0.2420014 0.07287105 -0.07687421 -0.009513159 0.23100221 0.12003528
-0.0005720872 -0.009227247 -0.14737494 0.090676665 0.18163387 0.13680153 -0.12313123 0.22749628
0.001520705 -0.10461677 0.0019695442 0.17742078 0.28641662 -0.03607533 0.38888127 0.006348154
00000000: 3a27 4f3e e505 31bc d694 ef3d ec24 1d3d
00000010: 7f23 80bc 853f 98bc 0a65 42bd 54e8 8ebe
00000020: b7ca d33d b3c5 6c3e 37cf 77be 6b3d 953d
00000030: 3a70 9dbd 15dd 1bbc d88b 6c3e 0fd5 f53d
00000040: 1ff8 15ba e12d 17bc 75e9 16be b0b4 b93d
00000050: 3bfe 393e b315 0c3e 3a2c fcbd c9f4 683e
00000060: 6452 c73a 5141 d6bd 7813 013b cbad 353e
00000070: 33a5 923e bac3 13bd 721b c73e 2d04 d03b

hidden_layers.1.bias f4 [32]
-0.13266031 -0.07752071 -0.47298184 -0.21868122 -0.14968662 -0.31761354 -0.24287894 -0.5871879
-0.51377094 -0.31578887 -0.4391264 -0.21002252 -0.19006616 -0.18023078 -0.62706244 -0.46098825
-0.043178637 -0.20657086 0.010029145 -0.07717392 -0.34692684 -0.28687164 -0.3365536 -0.15011583
-0.03147674 0.08175987 -0.12167135 -0.044826478 -0.5219138 -0.21803692 -0.39117324 -0.08542179
00000000: 1bd8 07be 2ec3 9ebd ad2a f2be f8ed 5fbe
00000010: 7347 19be 3e9e a2be 42b5 78be f251 16bf
00000020: 7e86 03bf 14af a1be 2dd5 e0be 2510 57be
00000030: b4a0 42be 6b8e 38be 2a87 20bf a706 ecbe
00000040: 15dc 30bd 5087 53be 4851 243c 5c0d 9ebd
00000050: 65a0 b1be d7e0 92be c150 acbe f7b7 19be
00000060: c1ed 00bd b871 a73d d42e f9bd f89b 37bd
00000070: 259c 05bf 1245 5fbe dc47 c8be 9ff1 aebd

hidden_layers.1.running_mean f4 [32]
-0.48133934 -1.1385312 3.5261643 1.919496 1.3319223 2.1021578 -0.81996524 -0.7755275
0.22840603 1.0502212 -1.9345236 -2.0427089 1.4952708 -2.5648878 -0.6037836 -1.8379782
0.49365845 1.122197 0.062019337 1.1175823 -1.0839374 0.84492075 -0.32452855 -0.3330789
-1.7815381 -2.0582383 -1.7376816 0.47249696 -0.5261398 -1.6215515 0.59432757 -1.4083352
00000000: 1c72 f6be 64bb 91bf adac 6140 0cb2 f53f
00000010: 6e7c aa3f c189 0640 3ee9 51bf f888 46bf
00000020: 45e3 693e a66d 863f 789e f7bf bebb 02c0
00000030: 0965 bf3f 1f27 24c0 9091 1abf df42 ebbf
00000040: cdc0 fc3e 27a4 8f3f fd07 7e3d f00c 8f3f
00000050: 76be 8abf ba4c 583f 9b28 a6be 5189 aabe
00000060: 7109 e4bf 2dba 03c0 5a6c debf 1feb f13e
00000070: 19b1 06bf 008f cfbf da25 183f 5444 b4bf

hidden_layers.1.running_var f4 [32]
0.0727646 0.272875 2.3775756 0.7020244 0.3333967 0.84939224 0.14551044 0.13974854
0.02875313 0.22306375 0.72618103 0.80153847 0.41961578 1.2328535 0.07195514 0.64797837
0.053905856 0.25730142 0.010441114 0.2443973 0.24428877 0.16923614 0.034897845 0.03295673
0.6159816 0.8596981 0.602535 0.059465215 0.06821379 0.52128226 0.06834717 0.37329385
00000000: 9b05 953d 46b6 8b3e 332a 1840 dfb7 333f
00000010: f9b2 aa3e c571 593f b000 153e 3e1a 0f3e
00000020: af8b eb3c d36a 643e 00e7 393f a031 4d3f
00000030: e1d7 d63e 25ce 9d3f 375d 933d e9e1 253f
00000040: 63cc 5c3d 03bd 833e 3511 2b3c 4943 7a3e
00000050: d626 7a3e 3d4c 2d3e 0bf1 0e3d a3fd 063d
00000060: f8b0 1d3f 2d15 5c3f bc3f 1a3f cc91 733d
00000070: acb3 8b3d c172 053f 9af9 8b3d 5f20 bf3e

hidden_layers.4.fc.0.weight f4 [32, 32]
0.18901889 -0.08141119 0.40900782 0.3774612 0.034448612 0.11915045 0.023191359 0.16515897
0.27763999 -0.4102582 0.34434757 -0.2321261 0.50376755 0.42112505 -0.61472476 -0.27594316
-0.04093305 -0.06803681 -0.17488195 0.34358323 -0.16143674 0.2274575 0.7424183 0.1784116
0.47383538 0.52881664 -0.46997058 0.17876425 -0.20538983 0.35110214 0.33391094 0.34746
0.06224175 -0.021803379 0.036332857 -0.49890265 0.36701956 0.28329417 -0.12864831 -0.12442833
0.27429026 -0.14267837 0.1261487 -0.21686219 0.21426694 -0.07801711 0.37157607 0.23513733
0.6090506 -0.044653483 0.21981263 0.52120167 -0.11992286 0.33347914 0.31996664 -0.19495106
-0.32095313 0.03396064 0.24804349 0.49444938 0.14180866 0.11790634 0.48376015 -0.054917395
0.23790307 0.97622126 -0.02132168 -0.15879329 0.9398921 -0.086546555 0.29134852 0.07891995
0.12791353 -0.012554644 -0.66052055 -0.011570922 -0.15818408 -0.14037423 -0.038772885 0.16863161
0.39452294 0.25887826 0.07652642 -0.014366498 0.6913304 -0.5358227 -0.062297195 -0.617118
0.107616395 0.11755769 0.12569943 0.15124075 0.4077299 -0.14065298 0.21565367 0.058368545
-0.1216244 -0.3811041 -0.00069690525 0.25752625 -0.19657047 0.5852679 -0.117893726 -0.00403973
0.5349451 0.24240446 0.011802841 0.20116232 -0.034970637 0.2530242 0.078119434 0.059504703
0.024616249 -0.046569366 -0.57901514 0.11642594 -0.25641614 0.063864954 0.32738504 0.17604405
-0.020459216 0.06714099 -0.38916862 0.07375594 -0.35627112 0.07465174 -0.017262172 -0.18740593
0.4343629 0.57522655 -0.37525442 -0.10832247 0.27084255 0.015161632 -0.29916382 -0.5634074
-0.45640388 0.52665067 0.16478978 0.5400213 -0.1866525 0.14212699 0.6292749 -0.12692317
0.24851269 -0.17418627 0.66524106 -0.10615083 0.42181507 0.10294465 -0.5604159 0.15839703
-0.0376712 0.10935964 -0.01330123 -0.30347225 0.44737267 -0.029653218 -0.15974596 -0.16377972
0.35034302 0.07338451 -0.78979325 -0.24445197 0.28470486 -0.111704215 0.15821043 -0.5682792
-0.39308956 -0.30669338 -0.7238753 -0.1328189 0.52933306 -0.068834335 0.50242865 0.07093305
-0.16329046 -0.067551054 0.65291077 -0.46574432 -0.20243958 -0.24243669 -0.17226225 0.5948633
-0.13280225 -0.03472175 -0.062265094 -0.2154314 0.20435344 -0.42944402 -0.23179904 -0.22180581
-0.26719227 -0.69387215 -0.11896775 0.27210066 -0.8201526 0.42949325 -0.20723261 0.22070104
0.15003984 0.09148483 0.2640248 0.022939373 -0.21717094 0.4055011 0.71738243 0.2807783
0.14413357 0.17606497 0.038410705 0.49853656 -0.16691884 -0.2814254 0.19736715 0.063292965
-0.23942341 -0.30683452 -0.5214192 0.20647025 0.14445388 0.39140332 0.28555402 0.11019966
-0.10476654 0.321419 0.08877395 -0.37047073 -0.33023888 -0.3863284 -0.20456547 0.19564666
-0.43438768 -0.33241838 0.20343108 -0.42425224 -0.17402433 -0.41009128 0.5716462 -0.15918452
-0.060467426 0.29964596 0.09942805 -0.033265512 0.37575182 -0.026370466 -0.22714314 0.06944304
0.05698311 -0.09066697 0.11332947 -0.51947063 0.42924482 0.2649673 -0.9165796 -0.49479884
00000000: 2b8e 413e e9ba a6bd 7969 d13e 9842 c13e
00000010: fd19 0d3d 2705 f43d cefb bd3c 6f1f 293e
00000020: d426 8e3e 5d0d d2be 534e b03e 77b2 6dbe
00000030: e9f6 003f b49d d73e 9a5e 1dbf 6c48 8dbe
00000040: 6aa9 27bd e256 8bbd 4114 33be 24ea af3e
00000050: ac4f 25be 9eea 683e 200f 3e3f 88b1 363e
00000060: 8d9a f23e 8760 073f fc9f f0be fa0d 373e
00000070: b651 52be a9c3 b33e 60f6 aa3e 47e6 b13e
00000080: 35f1 7e3d 009d b2bc c3d1 143d 2b70 ffbe
00000090: fde9 bb3e ef0b 913e 62bc 03be 48d4 febd
000000a0: c66f 8c3e 471a 12be 202d 013e 1f11 5ebe
000000b0: cb68 5b3e 6fc7 9fbd 383f be3e d7c7 703e
000000c0: bdea 1b3f 92e6 36bd 9016 613e 796d 053f
000000d0: 1e9a f5bd c7bd aa3e abd2 a33e 40a1 47be
000000e0: f853 a4be 501a 0b3d 1dff 7d3e 7828 fd3e
000000f0: 4a36 113e e178 f13d 69af f73e 10f1 60bd
00000100: dd9c 733e a3e9 793f ceaa aebc b59a 22be
00000110: c59c 703f 523f b1bd a22b 953e c8a0 a13d
00000120: c4fb 023e feb1 4dbc e017 29bf f793 3dbc
00000130: 02fb 21be 43be 0fbe 51d0 1ebd c4ad 2c3e
00000140: e9fe c93e b18b 843e e2b9 9c3d 7661 6bbc
00000150: 07fb 303f ad2b 09bf 582b 7fbd 72fb 1dbf
00000160: fc65 dc3d 16c2 f03d 5ab7 003e dbde 1a3e
00000170: f9c1 d03e 5607 10be 51d4 5c3e db13 6f3d
00000180: 3716 f9bd 1420 c3be 85b0 36ba 7bda 833e
00000190: c549 49be 1ed4 153f 4472 f1bd b65f 84bb
000001a0: 29f2 083f e038 783e b460 413c 7ffd 4d3e
000001b0: 5f3d 0fbd 638c 813e 15fd 9f3d 34bb 733d
000001c0: 04a8 c93c 85bf 3ebd 563a 14bf b970 ee3d
000001d0: fa48 83be a1cb 823d 039f a73e e444 343e
000001e0: 169a a7bc 3781 893d 1c41 c7be 5b0d 973d
000001f0: 2b69 b6be 03e3 983d 6669 8dbc 57e7 3fbe
00000200: d064 de3e 0c42 133f 5921 c0be 2cd8 ddbd
00000210: e0ab 8a3e 7e68 783c 002c 99be 783b 10bf
00000220: c5ad e9be 94d2 063f a7be 283e d63e 0a3f
00000230: d521 3fbe bd89 113e 2918 213f 26f8 01be
00000240: 1c7a 7e3e e35d 32be 3d4d 2a3f 9b65 d9bd
00000250: 25f8 d73e a5d4 d23d 6b77 0fbf d532 223e
00000260: 1e4d 1abd f2f7 df3d 67ed 59bc b760 9bbe
00000270: 080e e53e 4eeb f2bc 7294 23be dfb5 27be
00000280: 2960 b33e 9e4a 963d e42f 4abf 9e51 7abe
00000290: d6c4 913e 2ec5 e4bd ea01 223e bf7a 11bf
000002a0: 0943 c9be ea06 9dbe e44f 39bf ad01 08be
000002b0: 5f82 073f 04f9 8cbd 2a9f 003f 5945 913d
000002c0: 9d35 27be 3558 8abd 2925 273f 0a76 eebe
000002d0: 524c 4fbe 5341 78be 8465 30be f648 183f
000002e0: 50fd 07be 6538 0ebd af09 7fbd 0d9a 5cbe
000002f0: 0742 513e 16e0 dbbe ba5c 6dbe 1021 63be
00000300: 6dcd 88be 9ba1 31bf 5da5 f3bd c750 8b3e
00000310: 85f5 51bf 8ae6 db3e c934 54be 74ff 613e
00000320: 0ba4 193e 665c bb3d 422e 873e 5aeb bb3c
00000330: 0f62 5ebe d79d cf3e 60a6 373f 2cc2 8f3e
00000340: c097 133e 604a 343e 8b54 1d3d 2f40 ff3e
00000350: c6ec 2abe fd16 90be 9d1a 4a3e be9f 813d
00000360: 692b 75be 6a19 9dbe bb7b 05bf f06c 533e
00000370: b8eb 133e 0466 c83e 2334 923e 5cb0 e13d
00000380: d78f d6bd 0891 a43e 1ecf b53d 57ae bdbe
00000390: 1215 a9be d6cc c5be 9c79 51be 9957 483e
000003a0: 1068 debe be32 aabe 3d50 503e 9737 d9be
000003b0: 6f33 32be 7cf7 d1be 6857 123f 4401 23be
000003c0: b1ac 77bd 326b 993e efa0 cb3d 6b41 08bd
000003d0: 8b62 c03e e006 d8bc 3698 68be 2738 8e3d
000003e0: 1f67 693d 9baf b9bd 4819 e83d 07fc 04bf
000003f0: fac5 db3e cba9 873e f6a4 6abf 4656 fdbe

hidden_layers.4.fc.1.weight f4 [32]
-0.06707088 -0.12086381 0.2931532 -0.21442796 0.027627653 0.47635734 -0.11925589 -0.094807096
0.47833526 0.07930092 -0.29109135 -0.5769552 0.021292422 -0.17579444 -0.04680281 0.18331476
-0.4848798 0.23873478 0.080242515 0.025412878 0.32182658 -0.078023694 0.1773375 -0.4177017
0.09771067 0.36305708 0.052464984 0.27665508 0.09311826 -0.1908927 -0.17271565 0.20798564
00000000: 755c 89bd 7287 f7bd 2d18 963e 0193 5bbe
00000010: 6353 e23c 1ce5 f33e 6f3c f4bd 392a c2bd
00000020: 5ce8 f43e 8568 a23d ed09 95be 56b3 13bf
00000030: 726d ae3c 7503 34be 4eb4 3fbd ddb6 3b3e
00000040: 2a42 f8be e476 743e 3056 a43d ab2e d03c
00000050: 74c6 a43e e3ca 9fbd f697 353e ffdc d5be
00000060: 881c c83d 9ee2 b93e 86e5 563d bca5 8d3e
00000070: c9b4 be3d 6079 43be 5fdc 30be 30fa 543e

hidden_layers.4.fc.1.bias f4 [32]
-0.22443703 -0.26096848 -0.8394845 -0.30702212 -0.69669104 -0.16306163 -0.60665166 -0.07004122
-0.9065572 -0.12382753 -0.018836042 -0.2136786 -0.6112681 -0.54382044 -0.2503281 -0.12754257
-0.10862144 -0.5643682 -0.4659064 -0.5154191 -0.3198902 -0.183936 -0.43448403 -0.09642617
-0.22059171 0.068223536 -0.070125766 -0.0821175 -0.28901234 -0.4188389 -0.20473166 -0.30883312
00000000: d2d2 65be a99d 85be 75e8 56bf 0132 9dbe
00000010: 585a 32bf a1f9 26be 864d 1bbf c571 8fbd
00000020: 2214 68bf 4a99 fdbd 0b4e 9abc 90ce 5abe
00000030: 117c 1cbf d137 0bbf 012b 80be 859a 02be
00000040: eb74 debd 6f7a 10bf 498b eebe 82f2 03bf
00000050: a6c8 a3be b859 3cbe b174 debe 157b c5bd
00000060: cbe2 61be c8b8 8b3d 199e 8fbd 382d a8bd
00000070: 6df9 93be 0d72 d6be 2da5 51be 601f 9ebe

hidden_layers.4.fc.1.running_mean f4 [32]
0.07922622 0.04838356 -0.006477496 0.059209622 0.08004626 -0.017069692 0.028021198 -0.073472254
-0.00862935 0.10396076 -0.09647058 -0.058333803 -0.049214937 0.0374783 0.14581507 0.058088634
-0.0674241 -0.02286292 -0.06674707 0.07268621 0.019148968 -0.07880408 0.034359023 0.00031244755
-0.11676644 0.126711 -0.1401957 -0.032286867 0.04370417 0.08596988 0.06708577 -0.044859927
00000000: 5b41 a23d d72d 463d 2d41 d4bb ca85 723d
00000010: 4bef a33d bdd5 8bbc b68c e53c 9f78 96bd
00000020: 1e62 0dbc 61e9 d43d 5e92 c5bd 6def 6ebd
00000030: 9a95 49bd d982 193d 8c50 153e 59ee 6d3d
00000040: a615 8abd 054b bbbc b0b2 88bd 82dc 943d
00000050: 4cde 9c3c 0964 a1bd 0cbc 0c3d 00d0 a339
00000060: 3e23 efbd 87c0 013e 768f 0fbe 3c3f 04bd
00000070: 2503 333d fa10 b03d 4464 893d 0bbf 37bd

hidden_layers.4.fc.1.running_var f4 [32]
0.103916906 0.08841962 0.056179084 0.13928856 0.09359796 0.1757292 0.07452586 0.12653998
0.10432625 0.16211233 0.23829627 0.15012991 0.12422409 0.07822667 0.4214981 0.19622993
0.124969184 0.07957257 0.118203975 0.063202545 0.17116444 0.119622216 0.04803399 0.1226427
0.22984748 0.5334589 0.36360124 0.04266896 0.2335017 0.17547181 0.092141576 0.06928932
00000000: 63d2 d43d 5915 b53d 0a1c 663d a9a1 0e3e
00000010: 4ab0 bf3d 5bf2 333e 04a1 983d b293 013e
00000020: 00a9 d53d c600 263e f003 743e a8bb 193e
00000030: 3369 fe3d 4e35 a03d 99ce d73e 80f0 483e
00000040: d8ef ff3d f2f6 a23d ed14 f23d 5670 813d
00000050: bb45 2f3e 7efc f43d 4abf 443d 192c fb3d
00000060: 235d 6b3e c390 083f f129 ba3e a6c5 2e3d
00000070: 121b 6f3e e2ae 333e b9b4 bc3d 8fe7 8d3d

hidden_layers.5.fc.0.weight f4 [32, 32]
-0.087025814 -0.14480758 -0.38077158 -0.055427715 -0.15857838 0.3961389 -0.14362955 -0.36705709
-0.15224104 -0.038642954 0.25979102 -0.19885936 -0.50474423 0.2546418 0.5306589 -0.095919356
-0.29568318 -0.15809947 0.34643307 -0.014982859 0.027828656 0.089478076 0.020746259 -0.29174718
0.17867894 0.37154725 -0.086092785 -0.2090595 -0.18882343 -0.8005035 -0.2786268 -0.27557364
-0.53495777 -0.06729171 -0.23682582 -0.06987705 0.14081088 -0.3371797 0.25352308 -0.093609534
-0.122641556 0.25801137 -0.018596735 -0.4769741 -0.06650163 -0.13173452 -0.57915676 -0.5174982
-0.4971975 0.3505703 0.0062357048 0.05869114 0.019816287 -0.018989617 -0.5077678 -0.23423676
0.07080398 -0.05263166 0.692518 -0.040870294 0.011512943 0.08130743 -0.4628038 -0.3153096
0.20267658 0.46394262 -0.0859266 0.099748 -0.04058379 -0.21892838 -0.04439718 -0.38134012
-0.053300776 0.036782883 0.25902072 0.39183444 0.3211446 -0.2288435 0.5033437 0.13574973
0.42061746 -0.25039324 0.5547122 -0.261369 -0.36130044 -0.27863008 0.31006038 -0.20751873
0.03443551 0.19065489 -0.14644858 -0.24335803 0.049050115 -0.21122572 -0.3255491 0.06343037
0.009858214 0.36741048 0.053305067 0.18167485 -0.060393546 0.27740934 0.4867452 0.3977132
-0.12504578 0.15642798 0.6411698 -0.16744807 0.18254422 0.25145808 0.82325387 0.63943267
-0.04073555 -0.21011876 0.42499372 0.18982229 0.58715034 -0.2576768 0.036812697 0.51524615
0.27483234 -0.021071097 0.16024396 0.20896873 0.2165174 0.6074464 0.00993916 -0.065910496
0.14127707 -0.2833667 -0.14644721 -0.057402685 -0.0085042715 -0.07312106 0.08735603 -0.07747136
0.07167049 -0.16277151 0.42142835 -0.474703 0.43825015 -0.031354047 -0.056811925 0.110589236
0.6523532 0.18297 0.27164307 -0.2905567 -0.5882974 0.19292465 0.06344489 0.27695733
-0.53509444 -0.049604215 -0.35108322 0.12862913 -0.11151249 -0.01137074 -0.067704774 0.6905678
0.21009006 -0.17388003 -0.30580845 0.31428188 -0.031243319 -0.05900051 -0.44629058 0.08526572
0.14722155 -0.04416636 0.43883026 0.21702856 -0.32650885 -0.0076187486 0.15281768 0.3967445
-0.14811726 0.21801983 0.25852105 -0.00151787 0.19727786 -0.47085407 -0.14108963 -0.25671902
-0.28955746 0.7286172 0.31309974 -0.004574387 -0.064929135 0.05788241 -0.429221 -0.5043885
0.05421016 0.16895549 0.13335647 0.18753834 -0.2752996 -0.3274056 -0.2515968 0.50571334
-0.09026904 0.23356259 0.4726766 -0.45611128 0.3195152 -0.033976853 0.3570195 0.059574243
0.6348503 0.38090202 0.74099344 -0.17856705 0.16245851 0.05147111 0.52404857 -0.1430697
0.017275158 -0.025434384 0.048653558 -0.2217152 0.853455 -0.016125372 0.009647455 0.20453188
0.1875551 -0.16730037 -0.36541876 0.041416947 -0.23278059 -0.0008637627 -0.26201499 -0.040330414
0.3131328 -0.16084267 -0.22910799 -0.33483726 -0.43016136 -0.33538643 -0.5934248 -0.08933891
-0.07870758 0.5357188 -0.13967887 -0.13170874 -0.055597156 0.14848989 0.107333615 -0.15936439
0.13331413 -0.031143477 0.10315806 -0.08841092 -0.11807886 0.11558829 -0.36315873 -0.2805568
00000000: 973a b2bd 7048 14be 7ef4 c2be 2c08 63bd
00000010: 5f62 22be b8d2 ca3e a013 13be e8ee bbbe
00000020: 13e5 1bbe 1348 1ebd 5403 853e caa1 4bbe
00000030: eb36 01bf 6960 823e 43d9 073f 5e71 c4bd
00000040: c963 97be d4e4 21be ad5f b13e aa7a 75bc
00000050: ecf8 e33c 4840 b73d 0ff4 a93c e35f 95be
00000060: 9df7 363e 713b be3e 6a51 b0bd b213 56be
00000070: ee5a 41be cced 4cbf 2ca8 8ebe fd17 8dbe
00000080: fef2 08bf 3cd0 89bd 7882 72be b31b 8fbd
00000090: ba30 103e d1a2 acbe c7cd 813e 5bb6 bfbd
000000a0: 7f2b fbbd 111a 843e 2e58 98bc f335 f4be
000000b0: 0232 88bd 6ae5 06be 9e43 14bf c37a 04bf
000000c0: ac90 febe f37d b33e e254 cc3b 1f66 703d
000000d0: c455 a23c 1d90 9bbc 12fd 01bf c3db 6fbe
000000e0: ad01 913d 4c94 57bd dc48 313f 9c67 27bd
000000f0: c8a0 3c3c 8384 a63d 9ff4 ecbe 4370 a1be
00000100: 738a 4f3e e389 ed3e 49fa afbd ae48 cc3d
00000110: 303b 26bd c32e 60be d1d9 35bd 033f c3be
00000120: ea51 5abd a6a9 163d 5d9e 843e 869e c83e
00000130: 116d a43e f355 6abe 22db 003f fa01 0b3e
00000140: 2c5b d73e 8b33 80be 9e01 0e3f 28d2 85be
00000150: 5ffc b8be 9aa8 8ebe 3cc0 9e3e ca7f 54be
00000160: 400c 0d3d 093b 433e 9ef6 15be d932 79be
00000170: c6e8 483d 8e4b 58be 5fae a6be c8e7 813d
00000180: 5984 213c 3a1d bc3e 6a56 5a3d f908 3a3e
00000190: 395f 77bd 9908 8e3e ab36 f93e 11a1 cb3e
000001a0: 000c 00be a82e 203e b423 243f 8277 2bbe
000001b0: dfec 3a3e 1dbf 803e c4c0 523f dcb1 233f
000001c0: 52da 26bd 5f29 57be c798 d93e c660 423e
000001d0: 7c4f 163f 37ee 83be e9c8 163d 2ce7 033f
000001e0: d3b6 8c3e 4b9d acbc fe16 243e e6fb 553e
000001f0: bdb6 5d3e 9b81 1b3f dcd7 223c 15fc 86bd
00000200: f0aa 103e 7115 91be 42f6 15be 141f 6bbd
00000210: 8055 0bbc 7fc0 95bd b8e7 b23d 4ea9 9ebd
00000220: fac7 923d 93ad 26be 75c5 d73e 460c f3be
00000230: 5362 e03e 1a6d 00bd 9fb3 68bd 9c7c e23d
00000240: 9f00 273f 7d5c 3b3e cd14 8b3e d9c3 94be
00000250: a99a 16bf 0a8e 453e 65ef 813d 5acd 8d3e
00000260: f3fb 08bf ca2d 4bbd 2ec1 b3be 5bb7 033e
00000270: a960 e4bd 574c 3abc cda8 8abd 0dc9 303f
00000280: d921 573e 9b0d 32be ed92 9cbe 8ee9 a03e
00000290: fdf1 ffbc 85aa 71bd 3380 e4be cb9f ae3d
000002a0: 3fc1 163e c9e7 34bd 5cae e03e bc3c 5e3e
000002b0: 2b2c a7be b2a6 f9bb 3d7c 1c3e 1822 cb3e
000002c0: 0dac 17be 9740 5f3e df5c 843e 44f3 c6ba
000002d0: 3503 4a3e c913 f1be cd79 10be ad70 83be
000002e0: e040 94be a886 3a3f 9c4e a03e bde4 95bb
000002f0: 91f9 84bd 1b16 6d3d dbc2 dbbe 9b1f 01bf
00000300: 790b 5e3d ab02 2d3e 998e 083e 0d0a 403e
00000310: 12f4 8cbe b5a1 a7be 4cd1 80be 6e76 013f
00000320: f9de b8bd 082b 6f3e ab02 f23e 6b87 e9be
00000330: 7f97 a33e 502b 0bbd 43cb b63e 1f04 743d
00000340: 8d85 223f 9705 c33e bfb1 3d3f 48da 36be
00000350: 865b 263e 5fd3 523d 0c28 063f dd80 12be
00000360: a284 8d3c c55b d0bc f448 473d 4f09 63be
00000370: 077c 5a3f 5b19 84bc 5c10 1e3c ce70 513e
00000380: 720e 403e ca50 2bbe 2b18 bbbe d1a4 293d
00000390: 095e 6ebe 226e 62ba d426 86be 8131 25bd
000003a0: f152 a03e f1b3 24be 499b 6abe ca6f abbe
000003b0: 1c3e dcbe c5b7 abbe b0ea 17bf 52f7 b6bd
000003c0: 7131 a1bd de24 093f fa07 0fbe a8de 06be
000003d0: d8b9 63bd bc0d 183e bad1 db3d 6b30 23be
000003e0: 8083 083e 9b20 ffbc 8844 d33d c910 b5bd
000003f0: 54d3 f1bd 8eb9 ec3d f1ef b9be 24a5 8fbe

hidden_layers.5.fc.1.weight f4 [32]
0.1766142 0.01584422 0.26111284 -0.23246968 0.0019228038 -0.1395423 0.22126853 0.32186115
-0.07764159 -0.4095028 -0.2323442 0.119380556 -0.301183 -0.17565766 0.17736799 -0.06911987
0.16765435 -0.14989196 0.050480206 -0.24363786 0.18230563 -0.090123974 0.1598923 0.47647697
-0.0012076742 0.10420176 -0.19208266 0.06867971 0.40931344 0.28874937 -0.3653563 0.0782572
00000000: 5ada 343e bdcb 813c 95b0 853e 880c 6ebe
00000010: 9706 fc3a 2de4 0ebe 3894 623e fcca a43e
00000020: 8e02 9fbd 5aaa d1be a3eb 6dbe cb7d f43d
00000030: a834 9abe 9adf 33be f49f 353e b88e 8dbd
00000040: 95ad 2b3e 477d 19be 55c4 4e3d 347c 79be
00000050: 54ae 3a3e eb92 b8bd cfba 233e caf4 f33e
00000060: d24a 9eba bb67 d53d 51b1 44be f3a7 8c3d
00000070: 8891 d13e f5d6 933e fb0f bbbe 5045 a03d

hidden_layers.5.fc.1.bias f4 [32]
-0.39416182 -0.21856244 -0.21164729 -0.14257774 -0.2599085 0.0139505165 -0.3121901 -0.47401428
-0.33273128 -0.14047097 -0.14333454 -0.057916015 -0.087012835 -0.51756346 -0.121364586 -0.3039326
-0.08128829 -0.54473424 -0.2715465 -0.35256383 -0.36579248 -0.19216697 -0.18754444 0.015157672
-0.11580978 -0.026141303 -0.6763814 -0.2734893 -0.47584704 -0.16764404 -0.15562217 -0.38589773
00000000: 94cf c9be d5ce 5fbe 11ba 58be e6ff 11be
00000010: ba12 85be b590 643c 61d7 9fbe 00b2 f2be
00000020: c15b aabe 9fd7 0fbe 4ac6 12be 5839 6dbd
00000030: c933 b2bd 0a7f 04bf ff8d f8bd 0e9d 9bbe
00000040: 7a7a a6bd b473 0bbf 2508 8bbe 3f83 b4be
00000050: 2749 bbbe 6bc7 44be a60b 40be e257 783c
00000060: ae2d edbd 4926 d6bc 5527 2dbf ca06 8cbe
00000070: 39a2 f3be e1aa 2bbe 6b5b 1fbe 6394 c5be

hidden_layers.5.fc.1.running_mean f4 [32]
-0.028559105 -0.124046125 0.03580216 0.1120485 0.037384495 0.060610402 0.04180462 -0.063298434
-0.050634027 0.071514025 0.10960004 0.0009335287 0.011902266 0.049548544 -0.12395223 0.13527042
0.058485445 0.03975327 -0.0018337294 0.13751392 -0.010146503 0.097422406 -0.010519076 0.087779626
-0.09077332 -0.08890437 0.020743242 -0.0039507695 -0.014516027 -0.025319494 -0.008886993 -0.009465002
00000000: c9f4 e9bc e50b febd 49a5 123d af79 e53d
00000010: 7c20 193d 9d42 783d 523b 2b3d 9ca2 81bd
00000020: a065 4fbd f275 923d fc75 e03d 0db8 743a
00000030: b901 433c 6af3 4a3d abda fdbd 5484 0a3e
00000040: 6f8e 6f3d 53d4 223d c059 f0ba 73d0 0c3e
00000050: 853d 26bc 6685 c73d 3458 2cbc cec5 b33d
00000060: 5de7 b9bd 7f13 b6bd bbed a93c 7575 81bb
00000070: a1d4 6dbc d46a cfbc c09a 11bc 1913 1bbc

hidden_layers.5.fc.1.running_var f4 [32]
0.15128317 0.2729644 0.109613515 0.27928466 0.103074715 0.21001306 0.25000367 0.09474349
0.15830073 0.17361487 0.24935688 0.15982917 0.205179 0.08389345 0.40534753 0.18003851
0.12739673 0.07186982 0.10415586 0.27696592 0.048597448 0.30029178 0.110728264 0.28099334
0.22553125 0.25432444 0.08857546 0.1401287 0.104116075 0.11416565 0.09300076 0.06311826
00000000: fae9 1a3e fdc1 8b3e 0d7d e03d 66fe 8e3e
00000010: d618 d33d aa0d 573e 7b00 803e e008 c23d
00000020: 9619 223e 19c8 313e 6957 7f3e 42aa 233e
00000030: 721a 523e 54d0 ab3d b689 cf3e 045c 383e
00000040: 4a74 023e 7c30 933d ab4f d53d 7ace 8d3e
00000050: 1e0e 473d d8bf 993e 80c5 e23d 5cde 8f3e
00000060: aaf1 663e d036 823e 0d67 b53d e67d 0f3e
00000070: cf3a d53d aecf e93d 2f77 be3d 2544 813d

hidden_layers.6.fc.0.weight f4 [32, 32]
-0.12568468 -0.1677673 -0.13577543 -0.35214007 -0.11159677 0.02781412 -0.13170743 -0.39147228
-0.086286336 -0.038546044 -0.12687622 -0.06210466 0.026154926 0.09412926 0.0626318 -0.6195036
0.55863523 -0.37859333 0.20709775 -0.3211109 -0.3070495 -0.736392 0.33663923 -0.25338098
-0.35379148 0.050040115 0.11318227 -1.0651662 -0.15312591 0.36408225 -0.09154594 -0.06397302
0.17343353 0.4310587 0.1434458 0.39649627 0.3078265 -0.11495442 -0.13656697 -0.2760818
-0.24285059 0.37140623 0.2591821 0.1394966 -0.14631785 -0.122264996 0.55185777 -0.55443245
-0.37507743 -0.17222653 0.42269838 -0.18472783 0.4908183 0.03719528 0.58447003 0.030520624
-0.48321396 -0.15118344 -0.2864697 -0.30941302 0.11481913 -0.88489 0.6196764 -0.09292566
-0.14085868 0.5479711 -0.55889416 -0.28177252 0.057040337 0.26965258 0.2527991 0.0010508227
0.49670154 -0.30451655 0.118466355 -0.16778941 -0.45385718 0.22989713 -0.60458386 0.5429689
0.13232896 0.6483559 -0.32233915 0.21217808 -0.2772656 -0.35021263 0.19488052 -0.20349546
-0.17168927 0.07200034 -0.1253288 -0.020331262 -0.069263056 -0.13658366 0.46485057 -0.44657716
0.40776902 0.06410384 -0.54022956 0.21600549 -0.07469316 -0.12810622 0.038614906 0.28647703
-0.3215412 0.3659443 0.19530821 0.31492504 -0.4763933 0.06906087 -0.32084998 0.024655335
-0.77806926 0.067518644 -0.43731818 -0.2668931 0.06582136 -0.4580911 0.15335232 -0.4742211
-0.27113903 0.23240493 -0.39866963 -0.24928981 -0.0739281 -0.13270688 -0.37637803 -0.2061525
0.42661622 -0.5845586 -0.69012874 -0.14978956 0.65374005 -0.31305745 -0.5306337 0.30074894
-0.29564717 -0.3900371 -0.39529973 0.08870142 0.055102296 -0.1623542 -0.37379643 -0.40085974
-0.12505619 -0.5621577 0.0458603 -0.11993579 -0.12442663 -0.5491019 -0.04642729 -0.18557999
0.17841412 -0.036886435 0.05370716 0.050684255 -0.13579528 -0.5381489 -0.66135526 -0.32734036
-0.20857012 -0.20076185 0.26914206 0.053315267 0.5044817 0.35686526 0.3977553 0.0808855
-0.47021613 0.4191458 -0.095921576 -0.13183284 0.25396606 -0.34832996 0.2258188 -0.01338901
0.19245572 -0.33549276 0.3825206 -0.09830237 -0.029665237 -0.3367504 0.18249506 0.15473011
-0.015408029 0.5589872 -0.12518498 -0.24671753 0.32527956 0.09251937 0.03125366 -0.41118315
0.35711923 0.16066147 0.37691212 -0.39386138 -0.04539397 0.0977258 -0.20082234 0.2061707
0.2517301 0.3973648 -0.25558764 0.25903934 0.34118193 -0.22849248 0.7614907 0.50352985
-0.4821384 0.13036573 0.22535367 0.01677046 0.5409741 0.64895976 0.06457467 0.12493751
0.49850348 -0.3880946 0.28181836 -0.21144725 0.25297278 -0.15599063 0.24089636 0.15978372
0.37997 0.04058051 -0.0824013 -0.36026657 0.20819135 -0.3323786 0.14825088 -0.04976636
0.12843445 0.29859364 -0.111648776 -0.24945419 0.13714495 0.16298185 0.18229088 0.21342513
0.59902096 0.10410239 0.47831136 -0.16949601 -0.082518995 0.10383045 0.35412705 -0.42044577
-0.56021976 -0.33577836 -0.49159926 -0.0020624732 0.72436506 0.12433923 -0.013409689 -0.40204597
00000000: 7cb3 00be 31cb 2bbe b708 0bbe b44b b4be
00000010: d98c e4bd 70da e33c 50de 06be 0e6f c8be
00000020: e4b6 b0bd 75e2 1dbd d7eb 01be 7561 7ebd
00000030: db42 d63c d7c6 c03d 1a45 803d ca97 1ebf
00000040: b802 0f3f fcd6 c1be 6f11 543e a668 a4be
00000050: 9835 9dbe 3084 3cbf fa5b ac3e 27bb 81be
00000060: 2824 b5be ddf6 4c3d 1bcc e73d 5e57 88bf
00000070: 0acd 1cbe fd68 ba3e 707c bbbd 4904 83bd
00000080: 8f98 313e bab3 dc3e 75e3 123e 8f01 cb3e
00000090: 6f9b 9d3e 396d ebbd 36d8 0bbe 985a 8dbe
000000a0: d3ad 78be f528 be3e 84b3 843e 32d8 0e3e
000000b0: 59d4 15be 1266 fabd 8d46 0d3f 49ef 0dbf
000000c0: 260a c0be 275c 30be ec6b d83e 4b29 3dbe
000000d0: 894c fb3e 145a 183d d49f 153f 6306 fa3c
000000e0: d267 f7be d5cf 1abe 28ac 92be 626b 9ebe
000000f0: 4b26 eb3d 2788 62bf 1da3 1e3f cf4f bebd
00000100: 423d 10be d647 0c3f b013 0fbf 7d44 90be
00000110: 21a3 693d e70f 8a3e e26e 813e c2bb 893a
00000120: aa4f fe3e 98e9 9bbe 7d9e f23d fdd0 2bbe
00000130: f85f e8be 276a 6b3e 02c6 1abf 0300 0b3f
00000140: 3e81 073e a7fa 253f a309 a5be 3645 593e
00000150: c2f5 8dbe 124f b3be c28e 473e 1d61 50be
00000160: 50cf 2fbe ea74 933d 3156 00be bf8d a6bc
00000170: cad9 8dbd 96dc 0bbe e500 ee3e c3a5 e4be
00000180: 1ac7 d03e e048 833d 7c4c 0abf 8b30 5d3e
00000190: baf8 98bd 472e 03be aa2a 1e3d 1ead 923e
000001a0: 0ca1 a4be 0d5d bb3e e0fe 473e db3d a13e
000001b0: d3e9 f3be c96f 8d3d 7346 a4be fcf9 c93c
000001c0: 8c2f 47bf 3747 8a3d 2be8 dfbe 36a6 88be
000001d0: 59cd 863d eb8a eabe 6408 1d3e 1ccd f2be
000001e0: bcd2 8abe 8ffb 6d3e 6d1e ccbe d445 7fbe
000001f0: 9e67 97bd 50e4 07be 9fb4 c0be a419 53be
00000200: 716d da3e a2a5 15bf 47ac 30bf 6f62 19be
00000210: 825b 273f 1149 a0be 9cd7 07bf c4fb 993e
00000220: 115f 97be f1b2 c7be ba64 cabe 17a9 b53d
00000230: f2b2 613d 2e40 26be 3f62 bfbe 7d3d cdbe
00000240: bb0e 00be 91e9 0fbf 03d8 3b3d e5a0 f5bd
00000250: 64d3 febd f191 0cbf 8b2a 3ebd ae08 3ebe
00000260: 31b2 363e 3b16 17bd 0afc 5b3d 4b9a 4f3d
00000270: eb0d 0bbe 20c4 09bf 944e 29bf 2899 a7be
00000280: 6893 55be 8494 4dbe fdcc 893e 1c61 5a3d
00000290: b625 013f 0bb7 b63e 95a6 cb3e 4ca7 a53d
000002a0: 2bc0 f0be 479a d63e 8872 c4bd 30ff 06be
000002b0: d707 823e 4e58 b2be 0b3d 673e 945d 5bbc
000002c0: 1d13 453e b5c5 abbe bdd9 c33e c152 c9bd
000002d0: 8304 f3bc 8c6a acbe fcdf 3a3e 9271 1e3e
000002e0: f571 7cbc c919 0f3f 7e30 00be 85a3 7cbe
000002f0: 0b8b a63e cc7a bd3d d603 003d 9986 d2be
00000300: 55d8 b63e 7184 243e a0fa c03e 33a8 c9be
00000310: 07ef 39bd 7724 c83d 5fa4 4dbe 691e 533e
00000320: c5e2 803e 6673 cb3e 62dc 82be cea0 843e
00000330: 66af ae3e eff9 69be 0ef1 423f 55e7 003f
00000340: d8da f6be 987e 053e 1dc3 663e 3462 893c
00000350: 477d 0a3f 3a22 263f b93f 843d 3ddf ff3d
00000360: d93b ff3e 56b4 c6be 7f4a 903e a185 58be
00000370: a685 813e 02bc 1fbe 89ad 763e 589e 233e
00000380: 6e8b c23e c037 263d 03c2 a8bd dc74 b8be
00000390: 1d30 553e 872d aabe 14cf 173e d0d7 4bbd
000003a0: 5284 033e 44e1 983e 1da8 e4bd eb70 7fbe
000003b0: ba6f 0c3e b7e4 263e 76aa 3a3e 1e8c 5a3e
000003c0: 7059 193f a233 d53d 3ae5 f43e 5d90 2dbe
000003d0: b8ff a8bd 0fa5 d43d 2450 b53e ab44 d7be
000003e0: 906a 0fbf 24eb abbe e6b2 fbbe 8f2a 07bb
000003f0: fd6f 393f 91a5 fe3d 50b4 5bbc f8d8 cdbe

hidden_layers.6.fc.1.weight f4 [32]
0.38518122 0.20502779 0.48024246 0.032626636 0.015739314 -0.12475138 -0.28617758 0.26360697
-0.23728116 0.02831209 0.16949657 -0.19167753 -0.108398035 -0.066354625 0.26064542 -0.3433722
-0.012199846 -0.0073405877 -0.046682402 -0.2856184 0.22921851 0.73856467 0.0020318986 0.39646992
-0.25533313 0.1968165 -0.25641277 0.33689678 -0.38064077 0.0042649065 0.12927595 0.2863876
00000000: 7936 c53e cef2 513e 57e2 f53e 82a3 053d
00000010: bcef 803c a77d ffbd de85 92be 7ef7 863e
00000020: d5f9 72be c2ee e73c 8290 2d3e 1d47 44be
00000030: caff ddbd efe4 87bd 5173 853e 7bce afbe
00000040: dde1 47bc 5089 f0bb 0c36 3fbd 933c 92be
00000050: 42b8 6a3e 9312 3d3f 9a29 053b 1bfe ca3e
00000060: 06bb 82be 448a 493e 8948 83be bc7d ac3e
00000070: 59e3 c2be a1c0 8b3b ea60 043e 65a1 923e

hidden_layers.6.fc.1.bias f4 [32]
-0.15629089 -0.4292423 -0.12429648 -0.03929729 -0.27226618 -0.025271911 -0.13729651 -0.2534227
-0.16584185 -0.2640819 -0.33186036 -0.40072942 -0.08751066 -0.41580135 -0.25713706 -0.18833916
-0.059667908 -0.080315426 -0.36214766 -0.27627584 -0.28468823 -0.51387393 -0.02754138 -0.055725716
-0.14896326 -0.07011109 -0.08588644 -0.08085246 -0.137164 -0.009835187 -0.17008086 -0.3846623
00000000: b80a 20be a6c5 dbbe 278f febd 32f6 20bd
00000010: 7966 8bbe 0a07 cfbc 7597 0cbe 9fc0 81be
00000020: 72d2 29be be35 87be 9ae9 a9be 682c cdbe
00000030: ca38 b3bd eae3 d4be 78a7 83be fbdb 40be
00000040: 5666 74bd 6a7c a4bd 6b6b b9be 0774 8dbe
00000050: a8c2 91be 3e8d 03bf 769e e1bc a640 64bd
00000060: d389 18be 6796 8fbd 3be5 afbd f995 a5bd
00000070: b874 0cbe c423 21bc ad29 2ebe 75f2 c4be

hidden_layers.6.fc.1.running_mean f4 [32]
-0.061128043 -0.014479908 -0.025739968 -0.081234336 -0.08334861 0.08786623 0.020098526 -0.07537523
0.20607033 -0.049345545 -0.16811281 0.1546758 0.117250524 0.09448739 -0.018193284 0.18037342
0.18665338 0.192293 0.00478819 0.17206796 -0.005530204 -0.040278245 -0.10069396 0.011456852
-0.016282905 0.07139292 -0.018956514 -0.1309089 0.053644165 -0.011070235 -0.015769586 0.0005747497
00000000: 6661 7abd 233d 6dbc a0dc d2bc 305e a6bd
00000010: adb2 aabd 36f3 b33d aaa5 a43c 545e 9abd
00000020: 1a04 533e 8e1e 4abd c425 2cbe 5563 1e3e
00000030: 0b21 f03d 9b82 c13d 150a 95bc cfb3 383e
00000040: 1022 3f3e 75e8 443e 40e6 9c3b 9532 303e
00000050: b736 b5bb cdfa 24bd a338 cebd 85b5 3b3c
00000060: ba63 85bc 7436 923d b14a 9bbc fc0c 06be
00000070: fcb9 5b3d ee5f 35bc 382f 81bc cdaa 163a

hidden_layers.6.fc.1.running_var f4 [32]
0.24066265 0.123462245 0.31853557 0.55508626 0.6293259 0.11173224 0.46674636 0.17298299
0.6535329 0.18972874 0.4843508 0.5533465 0.22540452 0.10776652 0.14627571 0.51165617
0.81817573 0.59052825 0.1689423 0.40669093 0.09110875 0.1453005 0.8096706 0.13546914
0.17578006 0.43682066 0.3489413 0.7953089 0.39790034 0.2988892 0.2812426 0.292583
00000000: 4570 763e c6d9 fc3d 1817 a33e 221a 0e3f
00000010: 811b 213f dfd3 e43d 61f9 ee3e 7422 313e
00000020: ef4d 273f 4048 423e d4fc f73e 1ea8 0d3f
00000030: 71d0 663e b1b4 dc3d 4dc9 153e e6fb 023f
00000040: f773 513f dc2c 173f 36ff 2c3e cb39 d03e
00000050: 3997 ba3d a7c9 143e 9346 4f3f 6cb8 0a3e
00000060: b0ff 333e f5a6 df3e 6fa8 b23e 5d99 4b3f
00000070: 98b9 cb3e 0108 993e 08ff 8f3e 70cd 953e

hidden_layers.7.fc.0.weight f4 [32, 32]
-0.47419268 -0.1061905 0.06509268 0.18935911 -0.29053193 -0.45613 0.51978594 0.156089
0.257128 -0.58068544 -0.2536249 0.019670626 0.06160414 -0.12128474 -0.08677621 0.42666486
-0.15502982 0.022344735 -0.38156578 0.16386536 -0.44895008 0.088265926 -0.5421357 -0.35538504
0.057241403 -0.37258783 -0.012720114 -0.16687791 -0.5078698 -0.097594865 -0.12037395 -0.116612345
0.1014722 -0.13764586 0.15622824 0.1976902 -0.067488454 -0.78994966 0.05339643 0.11117746
0.039575476 0.0326958 0.14177911 0.076299384 -0.1961889 -0.3534867 0.39619896 0.5979116
0.0011734831 -0.26718867 0.14687905 0.3606598 0.056337267 0.31515124 -0.14977485 -0.38408393
0.049158808 -0.30498824 -0.0711847 0.3426078 -0.2767613 -0.22848569 0.735189 0.12000775
0.1859218 0.66836506 0.23935452 0.17330423 -0.097450115 -0.1376113 -0.0355966 0.18862787
0.23054099 -0.18904598 0.1761321 -0.21554388 -0.03395229 0.32059985 0.53601855 -0.087876394
0.18895221 0.4105963 0.31457636 -0.009404558 0.690504 0.2680211 0.28438795 -0.11392908
0.5739399 0.16633885 0.034242734 0.1833792 0.3847076 0.06412605 0.12071272 0.7041832
-0.48202714 0.15598957 -0.064275414 0.17563887 0.016272837 0.266985 0.017040055 -0.00727707
-0.29405934 -0.3790494 0.07375063 -0.34228846 -0.13027567 0.40421146 -0.24427947 -0.16283688
-0.2991362 0.36073738 -0.31951615 -0.34101272 0.18942912 -0.41682643 0.21364938 -0.10611526
-0.003114174 -0.057349376 0.080459155 0.115967534 -0.1350308 -0.033979688 0.03339241 0.75493485
0.14228673 -0.31708774 -0.014309539 0.39811262 -0.6738113 -0.016864063 0.14226058 0.30370885
-0.19663875 -0.48609912 -0.22367236 -0.046893314 -0.10236367 0.23138507 -0.2641553 -0.039727144
0.34475324 0.21668641 -0.09744714 -0.37820044 0.01347654 -0.13141008 0.22123413 -0.5199028
-0.1965275 -0.24608004 0.27395058 0.66004616 0.303157 0.662792 -0.26819256 -0.044558004
0.31524965 -0.35366303 0.10460316 -0.14509569 -0.24631555 -0.39515507 -0.06741472 0.18996851
0.038418565 -0.028746689 -0.16642787 0.2843005 0.25330502 -0.03514472 -0.2916572 -0.006847466
0.20964895 -0.069750406 -0.3203769 0.22624163 -0.20177032 0.123885624 -0.17477274 0.30052668
-0.47263741 0.057184514 -0.0680037 0.26417005 0.025729267 0.24724916 -0.8281524 -0.8904546
-0.14066075 -0.16417395 0.1292505 -0.008330008 -0.33930615 0.09254965 -0.34681538 0.016383471
-0.245808 0.18639332 0.29020187 -0.15589751 -0.049486693 -0.051983234 -0.24089438 -0.1353863
0.07614273 -0.6875594 -0.042569585 -0.661523 0.05493254 -0.08131707 -0.38543314 0.14187641
-0.1212546 0.34218866 0.110676005 -0.11760813 -0.30559143 -0.35934106 -0.14087418 -0.19495311
0.18857802 -0.24089743 0.36163852 -0.017370006 0.018413182 0.08443634 -0.2764627 0.24876124
-0.07095143 0.19562328 0.3214675 0.12912509 0.06599997 -0.0015420096 0.01295922 -0.43921363
0.17416453 -0.47244728 -0.02992299 -0.4978255 0.13069892 0.2164427 -0.2736974 0.100963265
-0.32790506 0.41086456 -0.3644016 -0.03598161 -0.16885628 -0.25616947 -0.21729901 0.018606264
00000000: 62c9 f2be 687a d9bd 504f 853d 5be7 413e
00000010: 9ac0 94be df89 e9be b110 053f cbd5 1f3e
00000020: 48a6 833e cda7 14bf 1fdb 81be 4b24 a13c
00000030: 9f54 7c3d 2264 f8bd bab7 b1bd d173 da3e
00000040: 23c0 1ebe 4e0c b73c 975c c3be 52cc 273e
00000050: c9dc e5be c4c4 b43d 68c9 0abf 07f5 b5be
00000060: f675 6a3d d5c3 bebe 0668 50bc 0be2 2abe
00000070: c103 02bf d1df c7bd 9e86 f6bd 74d2 eebd
00000080: a8d0 cf3d 09f3 0cbe 4cfa 1f3e 4d6f 4a3e
00000090: 6337 8abd 243a 4abf 37b6 5a3d 02b1 e33d
000000a0: e519 223d 08ec 053d 8b2e 113e da42 9c3d
000000b0: bee5 48be 35fc b4be 97da ca3e bc10 193f
000000c0: 8fcf 993a f4cc 88be 7667 163e 67a8 b83e
000000d0: e8c1 663d 815b a13e 945e 19be a6a6 c4be
000000e0: bf5a 493d 6b27 9cbe 49c9 91bd 4a6a af3e
000000f0: a8b3 8dbe 27f8 69be 5935 3c3f a0c6 f53d
00000100: 4962 3e3e f919 2b3f 5a19 753e aa76 313e
00000110: ed93 c7bd fae9 0cbe becd 11bd aa27 413e
00000120: f012 6c3e 4595 41be f95b 343e 89b7 5cbe
00000130: 8e11 0bbd aa25 a43e 8338 093f 8af8 b3bd
00000140: b07c 413e ae39 d23e 2710 a13e 9315 1abc
00000150: dfc4 303f 103a 893e 4c9b 913e a653 e9bd
00000160: baed 123f bb54 2a3e 1c42 0c3d c2c7 3b3e
00000170: 65f8 c43e 8554 833d 3b38 f73d 5a45 343f
00000180: 43cc f6be bbbb 1f3e d4a2 83bd adda 333e
00000190: 9d4e 853c 42b2 883e 9697 8b3c 7d74 eebb
000001a0: f28e 96be c312 c2be 920a 973d 6f40 afbe
000001b0: fc66 05be cef4 ce3e 6624 7abe b6be 26be
000001c0: 6128 99be 92b2 b83e 9f97 a3be 3899 aebe
000001d0: b5f9 413e 466a d5be e7c6 5a3e f552 d9bd
000001e0: 2b17 4cbb 2ee7 6abd c5c7 a43d 6380 ed3d
000001f0: 8445 0abe 492e 0bbd 7bc6 083d 6943 413f
00000200: 9db3 113e 5359 a2be 8f72 6abc 6bd5 cb3e
00000210: e67e 2cbf 8126 8abc c2ac 113e ba7f 9b3e
00000220: ab5b 49be fce1 f8be 5e0a 65be 3413 40bd
00000230: 0ba4 d1bd 35f0 6c3e 5d3f 87be eeb8 22bd
00000240: 7f83 b03e 0be3 5d3e 5e92 c7bd 7da3 c1be
00000250: b5cc 5c3c 5d90 06be 338b 623e 5a18 05bf
00000260: 813e 49be 68fc 7bbe 4043 8c3e c9f8 283f
00000270: 6537 9b3e bdac 293f 8950 89be 7482 36bd
00000280: 6768 a13e 5213 b5be 2e3a d63d f793 14be
00000290: 253a 7cbe c451 cabe bb10 8abd 1b87 423e
000002a0: c95c 1d3d 2d7e ebbc 116c 2abe d68f 913e
000002b0: 32b1 813e e9f3 0fbd 1854 95be b560 e0bb
000002c0: 37ae 563e 4dd9 8ebd 7108 a4be e3ab 673e
000002d0: e19c 4ebe bfb7 fd3d a0f7 32be a2de 993e
000002e0: 88fd f1be 4f3a 6a3d 8645 8bbd 4c41 873e
000002f0: 2fc6 d23c e22e 7d3e cc01 54bf d5f4 63bf
00000300: 5f09 10be 371d 28be 3e5a 043e 967a 08bc
00000310: 89b9 adbe ac8a bd3d c991 b1be a136 863c
00000320: 18b5 7bbe e4dd 3e3e 5795 943e 99a3 1fbe
00000330: 8fb2 4abd 5fec 54bd 04ad 76be b5a2 0abe
00000340: b8f0 9b3d e503 30bf 725d 2ebd 9259 29bf
00000350: f100 613d 9089 a6bd 7e57 c5be 0d48 113e
00000360: 5554 f8bd 5a33 af3e 1aaa e23d 88dc f0bd
00000370: 7b76 9cbe 8dfb b7be 5241 10be caa1 47be
00000380: 991a 413e d1ad 76be af28 b93e 8b4b 8ebc
00000390: 3ed7 963c f6ec ac3d 858c 8dbe 44bb 7e3e
000003a0: fc4e 91bd 7851 483e 6397 a43e 5e39 043e
000003b0: fe2a 873d 421d caba e952 543c 9ce0 e0be
000003c0: 3058 323e 9ce4 f1be 0f21 f5bc fce2 febe
000003d0: f0d5 053e 28a3 5d3e 1122 8cbe d4c5 ce3d
000003e0: 2ce3 a7be d75c d23e d992 babe 7461 13bd
000003f0: a9e8 2cbe a528 83be a283 5ebe 2a6c 983c

hidden_layers.7.fc.1.weight f4 [32]
0.11123066 0.1846366 0.08649914 0.28156245 0.053995304 -0.87286353 -0.111201964 -0.11355171
-0.16512805 -0.027294558 -0.6393039 -0.094154544 0.18202238 -0.09344176 -0.071419 -0.24748611
0.13868237 0.1224774 0.38965675 -0.27193022 0.22880477 0.22681087 0.10404025 -0.16485068
0.38549015 0.71031636 -0.48138967 0.28293553 0.20726176 -0.03137648 0.13703978 -0.16445935
00000000: e6cc e33d 6011 3d3e 7626 b13d f428 903e
00000010: 2e2a 5d3d fc73 5fbf dbbd e3bd cd8d e8bd
00000020: 5417 29be d698 dfbc 6ca9 23bf 19d4 c0bd
00000030: 1364 3a3e 655e bfbd 2044 92bd 006d 7dbe
00000040: c002 0e3e 6ed5 fa3d 1781 c73e 703a 8bbe
00000050: cc4b 6a3e 1c41 683e 0e13 d53d 9ece 28be
00000060: f75e c53e 4bd7 353f b578 f6be eddc 903e
00000070: 6d3c 543e a084 00bd 2854 0c3e 0868 28be

hidden_layers.7.fc.1.bias f4 [32]
-0.04774345 -0.07888673 -0.3722132 -0.26080573 -0.24065647 -0.6064208 -0.7278336 -0.55708724
-0.3913407 -0.02605346 -0.041192222 -0.0789285 -0.0652995 -0.17942159 -0.36598238 -0.25747633
-0.11193656 -0.19575404 -0.22292699 -0.3378413 -0.12701629 -0.24952787 -0.058008965 -0.07353016
-0.20488234 0.011828047 -0.35863054 -0.12962148 -0.09678255 -0.043821055 -0.085709326 -0.052914616
00000000: a38e 43bd 5e8f a1bd bb92 bebe 5488 85be
00000010: a66e 76be 653e 1bbf 4e53 3abf 459d 0ebf
00000020: cf5d c8be 116e d5bc 2db9 28bd 44a5 a1bd
00000030: bfbb 85bd 4bba 37be 0b62 bbbe f0d3 83be
00000040: ff3e e5bd bf73 48be f946 64be 89f9 acbe
00000050: 8f10 02be 3c84 7fbe cf9a 6dbd fb96 96bd
00000060: adcc 51be 6dca 413c 6c9e b7be 7ebb 04be
00000070: ee35 c6bd b57d 33bd 5f88 afbd ffbc 58bd

hidden_layers.7.fc.1.running_mean f4 [32]
-0.18487127 -0.084765896 0.06622952 -0.044346645 -0.08976463 0.02167878 0.087540485 0.12192377
0.19470674 -0.0064185634 0.11461094 0.1923445 -0.15085363 0.14134113 0.16103357 0.20210013
-0.07194622 -0.22030382 -0.09709023 0.089558735 -0.075798884 -0.22768702 -0.18188804 -0.00038479647
-0.22561796 0.11599085 0.19228378 -0.11183545 -0.09284744 -0.06511117 -0.15266131 0.10525579
00000000: e54e 3dbe be99 adbd 58a3 873d d4a4 35bd
00000010: 85d6 b7bd b297 b13c 6d48 b33d 2bb3 f93d
00000020: 3461 473e d052 d2bb 24b9 ea3d f5f5 443e
00000030: 6079 1abe bbbb 103e fce5 243e 56f3 4e3e
00000040: 8a58 93bd 5397 61be 3ed7 c6bd 926a b73d
00000050: 723c 9bbd c926 69be dc40 3abe 82be c9b9
00000060: 6508 67be 9c8c ed3d 0ae6 443e fc09 e5bd
00000070: cc26 bebd 0159 85bd 3f53 1cbe 5990 d73d

hidden_layers.7.fc.1.running_var f4 [32]
0.8388301 0.6025774 0.6088705 0.19396508 0.23813176 0.6013791 0.16463779 0.2340308
0.62776625 0.4375334 0.41911328 1.2541841 0.5728693 0.7517371 0.36585864 0.9443201
0.15878783 0.9980904 0.25969318 0.342114 0.405168 1.2538307 1.9324774 0.34684342
0.98509145 0.87514764 0.70332485 0.38825303 0.44029823 0.282002 0.38678563 0.4083836
00000000: 92bd 563f 8342 1a3f f0de 1b3f c89e 463e
00000010: d0d8 733e fbf3 193f cf96 283e c5a5 6f3e
00000020: 4ab5 203f 6104 e03e 0496 d63e 1b89 a03f
00000030: 90a7 123f d871 403f d351 bb3e f6be 713f
00000040: 4799 223e da82 7f3f 81f6 843e 9129 af3e
00000050: 2e72 cf3e 867d a03f 6b5b f73f 7695 b13e
00000060: f42e 7c3f ad09 603f 190d 343f 1ac9 c63e
00000070: c56e e13e 9162 903e c408 c63e a817 d13e
