density_functional_approximation_dm21/checkpoints/NN_XALPHA/state_dict.pth (torch, 24439 bytes, 21 tensors)

hidden_layers.0.weight f4 [32, 7]
00000000: f7a3 85bc 062c aabc 1e32 5c3b d84c 7e3c
00000010: 74fa 563a a1a4 073c 7d7b d53a 5c70 e6bb
00000020: d721 98bc 929a 563b 7f05 863c 70fd d33b
00000030: 3406 6b3b 091a 803a db1f 6f3a 044a 1cbc
00000040: 5091 08bc d6c0 a53b c1fc 9d38 fee2 543c
00000050: 09d9 133c 5c06 5fbc 2ca1 42bc 427b 42bb
00000060: 0a49 5b3c e752 a63b 6bdc 523c bd82 063c
00000070: 84a6 1cbc 0c89 63bc bc78 c73a 7993 593c
00000080: 5fb2 933b 04a8 0e3c 610f b03b 509a 20bc
00000090: 3f2b b4bc 70c9 073c 9fe2 243c 49d6 893b
000000a0: bfda 0e3c d79b de3a c9e5 29bb c1b2 19bc
000000b0: 9fcc f63b e482 e23b cdba ccbb f4d9 1d3c
000000c0: d1d7 a63b 2b35 3fbc e823 86bc 498f d33b
000000d0: fc4e 513c 03d6 e83b 2fc6 173c 8734 beba
000000e0: 0666 91bc 6c76 d5bc b626 113c 048f cf3b
000000f0: 778f a93b bdfd 7a3b bc00 0fbc fc01 f7bb
00000100: 8211 6fbc 039c e0bb 89a8 263c dc56 083b
00000110: 79c2 54bc b315 1dbc 7be8 4abc cdfa 97bc
00000120: c4a8 c73b 1718 293c 2c15 b93b 85c8 373c
00000130: e0b5 58b9 ed0f 06bc cb3b 9dbc 023b e63a
00000140: 26f9 913c de0b 8e3b 3e29 263c df4f fe3a
00000150: 46cd 56bc d6d0 8dbc a38a c83b 68af 753c
00000160: 112d c83b 99fc 053c f22f 7cbb 3cef 973c
00000170: f353 9cbb 213a 513c 806e b1bb d5df 0ebd
00000180: e269 ef3c f77e 98bc 685c 6fbc 9da6 16bc
00000190: 6d89 023b a934 623c 49f9 d23b 5352 893b
000001a0: cd37 b83b b0ad 053b e3be 033c 9996 1239
000001b0: ee6d b43b 5ef4 91b9 630c 5d3b b53a cc3b
000001c0: 4c16 4bbc 2fb2 3fbc 60c0 013b 7148 793c
000001d0: f8a3 b13b e621 b23b 8d11 1d3c e943 30bc
000001e0: 77a4 18bd a3b7 1f3c 4c32 96bb 8134 a43b
000001f0: 2af8 fa3b dbc8 00bc ca06 23bc d060 b43b
00000200: 7580 9cbb 909f b0b8 ab4b bcba b723 0dbb
00000210: d79f d2bb 03d3 73bc 61d8 9dbc 9c51 473c
00000220: 5e8e 35bd 72d6 943c dd48 163c 7745 1f3c
00000230: a1a0 74bc d3b0 7ebc 0e81 943a 3b4d 1c3c
00000240: 7131 133c aa38 4c3c 1ae4 b3b9 826a 55bc
00000250: fc70 143b e7c2 83bc 6844 b5bc be19 16bb
00000260: 3f99 aebb 959d 663c 0355 43bc 2280 22bd
00000270: 1484 2d3c d76f 62ba a143 1d3c 42e7 8a3b
00000280: aca0 11bc 22e8 31bc 33c9 8ebc 7cc7 c23b
00000290: 4f68 2b3c 81d3 ba3b c6f4 463c def9 273a
000002a0: 30eb 5ebc c169 38bc 0f12 413c 9527 633c
000002b0: 56f2 a13b a1aa cb3b ff9b 79ba cc32 17bc
000002c0: fa21 49bc c606 8cbc 19a0 10bd 4eab fd3b
000002d0: 421f b73a 8a3c 8a3c 8e40 cb3b 3db0 713d
000002e0: 1a56 6cbb 7d58 463c ac8c b9bb 4c2b eab9
000002f0: 7a44 333c 6b47 f83b f4ef 9a3c 77b1 053b
00000300: 0fb3 023c dfbd 833c 43ac f1bc 83f1 cfbc
00000310: 2826 73bc 61f1 10bd fa29 783c 3a3a 0a3a
00000320: 10bd 443c b433 acba a7c7 69bc 7b7c 89bc
00000330: a12c ea3c 4d12 cf3b 116b b93c 63f1 3bbc
00000340: a809 843c 4a04 07bb 3a79 8abc 4693 94bc
00000350: 023a 693c 5348 503c 6e4a ab3b f2c0 bb3b
00000360: b193 b1bb 24e7 65bc 5fd0 1cbd 384b 633c
00000370: 79bb b8b9 efe1 193c 33f8 6e3b 6c58 49bc
-0.016313536 -0.020772945 0.0033599208 0.015521251 0.00082007726 0.008278997 0.0016287413 -0.0070324373
-0.018570824 0.003274594 0.016360043 0.006469421 0.0035861852 0.0009773384 0.00091218733 -0.009539131
-0.008335426 0.005058388 7.5334225e-05 0.012993572 0.009023913 -0.013612356 -0.011879247 -0.0029675518
0.013384113 0.0050758007 0.012869935 0.008209881 -0.009561185 -0.013887655 0.0015218477 0.013279789
0.0045073475 0.00870705 0.005372927 -0.009802416 -0.021993278 0.008287773 0.010063796 0.004206453
0.008719145 0.00169837 -0.0025924316 -0.009380997 0.007531717 0.006912576 -0.0062478543 0.009634484
0.0050916453 -0.011670391 -0.016374543 0.00645629 0.012775179 0.0071055903 0.009263559 -0.0014511504
-0.017748844 -0.026057445 0.008859327 0.0063341875 0.005174573 0.0038298212 -0.008728202 -0.0075380784
-0.0145915765 -0.0068545355 0.010172018 0.0020803725 -0.012985819 -0.009587693 -0.012384529 -0.018552208
0.0060931165 0.010320685 0.005648276 0.011217241 -0.00020667119 -0.008182508 -0.01919355 0.0017565193
0.017818999 0.004334911 0.010141669 0.0019402466 -0.013110464 -0.017311495 0.0061200424 0.014995433
0.006108888 0.0081779 -0.0038480726 0.018546693 -0.0047707497 0.012770207 -0.005414784 -0.03488143
0.029225294 -0.018615229 -0.014609434 -0.009194997 0.0019918338 0.0138065005 0.0064384085 0.004190722
0.0056218863 0.0020397715 0.008041116 0.00013979747 0.0055062687 -0.00027838623 0.0033729307 0.0062325844
-0.012395453 -0.011700197 0.0019798502 0.015215025 0.005421158 0.00543617 0.009586704 -0.010758379
-0.03726622 0.009748372 -0.0045836326 0.0050111418 0.007658978 -0.007860388 -0.009950349 0.005504705
-0.0047760555 -8.422055e-05 -0.0014365813 -0.002153618 -0.006427746 -0.014881852 -0.019268217 0.012165453
-0.044325225 0.018168662 0.009172645 0.009721152 -0.014930875 -0.015545088 0.0011329965 0.009539898
0.008983956 0.012464682 -0.0003431149 -0.013025882 0.0022650352 -0.016084148 -0.022127345 -0.0022903527
-0.005328327 0.014075656 -0.011922124 -0.03967298 0.010590572 -0.0008637881 0.0095986435 0.004238994
-0.008888405 -0.010858567 -0.017429924 0.0059441905 0.010461881 0.0057014828 0.0121433195 0.00064077775
-0.013605878 -0.011255682 0.011784091 0.013864418 0.004942219 0.006215409 -0.00095218414 -0.0092284195
-0.012276167 -0.017093074 -0.03530893 0.0077413684 0.0013971108 0.01687457 0.006202764 0.059005965
-0.0036062063 0.012106058 -0.0056625213 -0.00044664217 0.010941619 0.007576873 0.018913247 0.0020399967
0.007977261 0.016081749 -0.029501086 -0.025383716 -0.01484064 -0.035386447 0.015146727 0.00052729587
0.012007967 -0.0013137967 -0.014268792 -0.01678299 0.028585734 0.0063193203 0.022634061 -0.011471125
0.016117886 -0.0020601922 -0.016903508 -0.018136632 0.014235022 0.012712556 0.0052273786 0.005729788
-0.0054192175 -0.014032159 -0.038284656 0.013872914 -0.00035234893 0.009392246 0.0036463856 -0.012289148

hidden_layers.1.weight f4 [32]
00000000: 2e60 3a3d e87e 233d 54f6 d63c 2c43 2b3d
00000010: 70f6 ff3c 1d04 293d c82f f03c ece8 1e3d
00000020: a668 0f3d a96c 3b3d d252 1a3d bc77 323d
00000030: 78b0 113d 0b3f a93d 3a43 093d 74c2 0a3d
00000040: bffa 203d d0c6 963d aeff 8a3c 4f03 d53d
00000050: 3937 0d3d 84bc 5e3d af53 a03d f419 233d
00000060: e90e 0b3d 1a65 af3d 50c6 b53d 5517 1f3e
00000070: cd8e 963d b574 913d dc01 2b3d adfc 9e3d
0.04550188 0.03991595 0.026240505 0.041812107 0.03124544 0.04126369 0.029319659 0.03879635
0.03501191 0.045757923 0.03767664 0.04357122 0.035568684 0.082639776 0.033511378 0.03387685
0.03930163 0.07362139 0.01696762 0.10401022 0.034476493 0.054379 0.078284614 0.039819673
0.033949766 0.085642055 0.08875716 0.15536244 0.07351456 0.07102338 0.04174982 0.07763038

hidden_layers.1.bias f4 [32]
00000000: 5c89 783d ca90 593d 87a4 1d3d d301 653d
00000010: 034e 683d e7b4 743d 74a5 4f3d 6977 733d
00000020: 0575 bc3d 28d8 353d 689c 713d 9282 543d
00000030: 3b02 713d 887c c03c 7b7a 653d 728f 213d
00000040: d3e9 653d 5fae 073d 943b 02bc b453 20bb
00000050: 3eb6 6d3d 5df3 c43c 1392 ec3c 9c5c 6e3d
00000060: 3bd4 713d 18bc 2d3d 5428 763c ed51 813c
00000070: 6388 c13c 40ff 6c3d 8d8a 4d3d d3ed d73c
0.06067787 0.053116597 0.038486984 0.055909943 0.056715023 0.059742834 0.050694898 0.05944005
0.09202007 0.044395596 0.05898705 0.051882334 0.058840018 0.023496881 0.05602501 0.03944344
0.056131195 0.033125278 -0.007948775 -0.0024463953 0.058035128 0.024041826 0.028878247 0.058193788
0.05904029 0.04241571 0.015024263 0.015786136 0.023624605 0.057860613 0.05018096 0.02635852

hidden_layers.1.running_mean f4 [32]
00000000: 968d fbb8 c108 4e3a 9136 a63a 3adf a03a
00000010: e760 9a3a 8748 ae39 6434 ab3a 605b 4e3a
00000020: 16a7 0abb e371 3ebb f29b 003a fd5e 943a
00000030: f65a be39 3cfc 8039 6e1a 733a efab 0e3b
00000040: a528 b93a 102a 47bb 28a3 c9ba 96c5 5fbb
00000050: 7bce ca39 ed35 6cbb 82cb 45bb b6f8 543a
00000060: 3508 a23a 29e7 8cbb ed86 cc3b 7c6f 10ba
00000070: 959f 55bb bcae 813b fd6b c8b8 39f4 4cbb
-0.00011994985 0.0007859581 0.0012681057 0.0012273558 0.0011778147 0.00033241903 0.0013061878 0.00078718923
-0.002115672 -0.002905958 0.000490605 0.0011319813 0.00036307395 0.00024601992 0.00092736527 0.002176996
0.0014126493 -0.0030390061 -0.0015383707 -0.003414487 0.00038682282 -0.0036042884 -0.0030181115 0.0008124219
0.0012362065 -0.0043000174 0.0062416703 -0.00055097765 -0.003259634 0.0039575975 -9.5568575e-05 -0.0031273498

hidden_layers.1.running_var f4 [32]
00000000: 2211 1137 2f0d 4037 2197 3837 714d 9737
00000010: ef9d 8a37 992a 1537 969f 6b37 f252 5d37
00000020: fef1 e037 b6c6 8138 1112 2937 f154 8f37
00000030: 1d66 1437 6e3e 9636 928c 5b37 b346 f837
00000040: aa25 bb37 d78c 5138 db3c 9237 68ad 4338
00000050: 82e4 1037 f7e6 b938 ff5c 4a38 d98a 6137
00000060: e4fd b237 277e e838 edbc 6e39 e80a 6137
00000070: 7d77 5e38 ca83 c038 b47b 0437 6f97 5438
8.6466625e-06 1.1447161e-05 1.1002442e-05 1.8036664e-05 1.6524426e-05 8.89101e-06 1.4044248e-05 1.3191939e-05
2.6815567e-05 6.188212e-05 1.0077391e-05 1.7086482e-05 8.8452625e-06 4.477616e-06 1.3086146e-05 2.9596826e-05
2.2309676e-05 4.996065e-05 1.7432894e-05 4.665312e-05 8.6362725e-06 8.864508e-05 4.8247162e-05 1.3443373e-05
2.133748e-05 0.0001108612 0.00022767829 1.3413584e-05 5.3040207e-05 9.179821e-05 7.896615e-06 5.0685772e-05

hidden_layers.4.fc.0.weight f4 [32, 32]
00000000: bd5a abba 864e d83b 1a29 d03b 6eb4 5e3a
00000010: 57df f03b 34b8 da3b 59f5 d13b 7900 b13b
00000020: 3d72 aa3b a8e3 583c 7934 f13b 8e55 e03b
00000030: b13e 393b 1c64 3bbd b9cd 483b c9bf da3b
00000040: 988e 483c cad6 233c 14a7 0bbd c511 a2bc
00000050: ff45 0d3c 6c0e 9bbc 87dc b73c 430a 003c
00000060: ded5 443b d611 72bc 5c2e 13bd 9644 d43c
00000070: 9866 8f3c e48e c8bc ed8f faba 7990 663c
00000080: b80a b93b d657 ea3a 94a3 0f3c 6a4f 8bbb
00000090: 52d5 32bb 9df1 f33b 1e40 923b 686a 373c
000000a0: 2906 6b3c 78b4 653c c306 d23b b927 a43b
000000b0: 8dff 023c 5fdf 603c ad67 f93a b815 0b3c
000000c0: 6f87 4e38 fd31 9c3c 6d8f 0bbd 480f 97bc
000000d0: 4f4f 273c 63d4 4ebc ccf5 9f3c 954c ff3b
000000e0: 9fdd 8f3b 45a5 87bc b782 34bd 3f63 083d
000000f0: 0cc9 943c 8ca5 0fbd 5a2b ba3b 9b05 8d3c
00000100: 66c4 b23a 500f 3f3c bb92 f738 ae26 0b3c
00000110: 598c a3ba 74c0 0d3c 09b5 c4bb adb9 293c
00000120: 2102 d43b ec33 623c 9c27 2d3c f397 ab3b
00000130: cf38 f63b aa24 13bd ea9a 0a3c 0148 3b3b
00000140: 95ca 3e3b 81e9 553c 95dd d6bc a26f 92bc
00000150: b15d 6b3c 372f 61bc 1425 d23c 8569 1f3c
00000160: d5ab 943b c2dc 38bc 7cf8 0cbd 4da3 0e3d
00000170: f6c3 c43c e1f9 10bd b629 f839 b359 b23c
00000180: 6d14 4b3c 0f79 9c3b 88a2 293c 4dbe e3ba
00000190: bf27 c03a 6aec 9e3b 4639 383b 9c21 103c
000001a0: a95b 893b bb1c ac3c 2735 c93b e1eb 0f3c
000001b0: 4190 173c 19be 263c f072 f23a cb70 ee3a
000001c0: f9da 693b 8e7c 693c 6c56 21bd c509 95bc
000001d0: cb1d 1d3c 12b6 5fbc af5d 9f3c 845a 2d3b
000001e0: cf5c 57bb aac7 41bc e33c 19bd 853c a33c
000001f0: 7cb3 af3c 2ceb 87bc c766 02bc e077 8e3c
00000200: 042c aa3c 7a9d d33b ed33 4b3c 78e9 9e3b
00000210: 54ce 6e3a f295 0b3c 5dc4 d83b eebf 763c
00000220: e056 9e3c 6183 063c c96d 873c 969a 633c
00000230: cedb 633c a7d1 e93b 0510 343b f561 c53b
00000240: 567c a03b 9246 773c d81c 4bbd e7d5 dcbc
00000250: 34e2 953c 416d 94bc e189 b53c 7c91 133c
00000260: cff2 b33b abad 2fbc 7237 0ebd 516c bc3c
00000270: 2a4f 803c 1601 8ebc bc3e 613c ff76 c23b
00000280: ed31 0e3c 6d25 0d3a c7e6 a13b c669 4b3a
00000290: d6e3 a1ba 0ffe de3b 7a49 213c 71d0 303c
000002a0: 3f2f 303c e66e ca3c 3a72 743c 73b8 0b3c
000002b0: 6d30 843b 8179 d6bc 9912 06bb d5d2 273b
000002c0: 63ab ab3b 3a26 8d3c f297 01bd d540 7dbc
000002d0: af57 473c f593 4dbc 2010 cc3c cd70 023c
000002e0: 4198 513a 615a a0bc fbee 1ebd db67 3a3d
000002f0: 51a2 c03c 32c7 18bd 9d77 2d3c b3dc 913c
00000300: 0b29 2338 5740 213c e71c 3b3b e96d 883b
00000310: cf7d 483c 5d11 0c3c 55c7 2cba d37b 5f3b
00000320: 9fc7 2c3c f296 613c 83ce 593b 42d6 ae3b
00000330: a32f c43b 3e49 2dbd f55a f03b 6c16 c33b
00000340: ceb9 ad3a 6e5b b53c e5d0 c1bc 9668 a7bc
00000350: 1d0f 143b 16ea 50bc fdaa c93c 8e69 063c
00000360: fa3b b13b b2eb 9cbc 9c57 04bd da39 093d
00000370: 122d aa3c 913e febc e472 21bb 4106 c33c
00000380: 3f27 c33b 624e 4e3b 1984 7f3b f38f 0f3a
00000390: c2f8 253a 52b1 173c 2d8c 3a3b eb5f 063c
000003a0: 016d 233b c598 843c 528e 113c ec45 6a3b
000003b0: cb62 983b 1bb3 38bd 05f8 0a3a 019d 123c
000003c0: 5d60 8b3b 4548 563c 5a64 d8bc b4bf b0bc
000003d0: d62e 113c 100d 8abc 5e81 c93c 585b 043c
000003e0: 79f7 de3b 1a54 96bc 28db 10bd 941a 3c3d
000003f0: 1503 a03c 371c d4bc 88bd 683b bd7c a33c
-0.0013073307 0.0066011576 0.006352556 0.0008495514 0.007350843 0.0066747908 0.0064074215 0.0054016677
0.0052016065 0.013237871 0.0073609916 0.0068461364 0.0028266127 -0.04574977 0.0030640198 0.0066756946
0.012241028 0.00999994 -0.034094885 -0.019783864 0.008622645 -0.018927775 0.022444023 0.007814947
0.0030034701 -0.01477476 -0.035932884 0.02591161 0.017504975 -0.024482198 -0.001911638 0.014072531
0.0056470297 0.001787896 0.008767027 -0.0042514103 -0.0027287793 0.007444574 0.00446321 0.011194803
0.01434473 0.014020078 0.0064094975 0.005009618 0.007995498 0.013725131 0.001902809 0.008489065
4.924036e-05 0.019066805 -0.03407233 -0.018439904 0.01021178 -0.012623879 0.019526385 0.0077911117
0.004390433 -0.016558299 -0.044069972 0.033297773 0.018162273 -0.035069987 0.0056814374 0.017214587
0.0013638854 0.011661366 0.000118052085 0.008493109 -0.001247774 0.008651841 -0.0060030264 0.01035921
0.0064699803 0.013806324 0.010568526 0.0052366196 0.0075140963 -0.035923637 0.008459786 0.0028576853
0.0029112448 0.01305616 -0.026228705 -0.017875496 0.0143655995 -0.013744167 0.025652446 0.009729748
0.0045370855 -0.0112831015 -0.03441666 0.034823705 0.024019223 -0.035394553 0.00047333323 0.021771288
0.012395007 0.0047751735 0.010353692 -0.001737544 0.0014660283 0.00484996 0.002811031 0.008797076
0.004191835 0.021009794 0.0061403695 0.008784265 0.009250701 0.010177159 0.0018497389 0.0018191574
0.0035683496 0.014250888 -0.03938906 -0.018193135 0.009589623 -0.013654249 0.019453852 0.0026451657
-0.0032861715 -0.011827389 -0.03741158 0.019926319 0.02144789 -0.01659163 -0.007959074 0.017391145
0.020772941 0.0064579817 0.012402517 0.004849609 0.0009109725 0.0085196365 0.006615205 0.015060408
0.019328535 0.008210034 0.016531842 0.013891837 0.013907386 0.007135588 0.0027475369 0.0060236403
0.0048976345 0.015092509 -0.049588054 -0.026957465 0.018296339 -0.018118503 0.022160472 0.009006854
0.0054915915 -0.010722558 -0.034720846 0.023000868 0.015662748 -0.017334502 0.013747867 0.0059345956
0.008678895 0.00053843 0.004940841 0.0007759597 -0.0012351226 0.0068051885 0.009844178 0.010791884
0.010753452 0.024711084 0.014919812 0.008527863 0.004034093 -0.026180984 -0.0020457862 0.0025607843
0.0052389367 0.017230142 -0.031639047 -0.015457352 0.0121669015 -0.012547483 0.024910033 0.007961464
0.0007995405 -0.019574346 -0.03880213 0.0455092 0.023514898 -0.037299342 0.0105876 0.017805433
3.8900453e-05 0.009842 0.0028551163 0.004163493 0.012237026 0.008549062 -0.0006590982 0.0034100905
0.01054564 0.013768898 0.0033234663 0.0053356 0.005987124 -0.042306177 0.0073350617 0.0059536006
0.0013254227 0.022138324 -0.023659179 -0.020435613 0.0022592016 -0.012751123 0.024617666 0.008203877
0.005408761 -0.019155357 -0.032310113 0.033502437 0.020773444 -0.031035693 -0.002463513 0.023806693
0.0059556062 0.0031479825 0.0038988648 0.0005476467 0.0006331318 0.009258585 0.00284649 0.00820158
0.0024936798 0.016186127 0.008884029 0.0035747243 0.004650449 -0.045092683 0.000530124 0.008948565
0.0042534308 0.013078754 -0.026415039 -0.021575786 0.008861264 -0.016851932 0.02459782 0.008078419
0.0068044034 -0.01835065 -0.035365254 0.045923784 0.01953272 -0.02589236 0.003551336 0.01995694

hidden_layers.4.fc.1.weight f4 [32]
00000000: 8942 8e3d ceb3 9b3d f366 a83d 7b82 6d3d
00000010: 0816 863d e8e9 a93d 265c 9b3d f573 a43d
00000020: 8e67 953d f831 ba3d 199d 923d 14c6 aa3d
00000030: b4d8 993d 57c4 973d 3712 893d f6ae 953d
00000040: d45c b63d 6810 943d aa53 ad3d eacf 5b3d
00000050: 472a a33d 7634 7a3d 7573 a53d b62d 9f3d
00000060: c906 853d afc7 853d 2f15 8c3d e6df ac3d
00000070: 11dc a13d b23d a33d caeb 903d 3c46 933d
0.06946284 0.076026544 0.08222761 0.057985764 0.06547171 0.08296567 0.07585935 0.080299295
0.07295142 0.09091562 0.0715887 0.08338562 0.07512036 0.07410496 0.06692927 0.07308762
0.08904424 0.07229692 0.08463223 0.05366508 0.07967048 0.061085187 0.08078662 0.077723905
0.06495435 0.06532227 0.06839978 0.08441143 0.079033025 0.07970752 0.07076223 0.071911305

hidden_layers.4.fc.1.bias f4 [32]
00000000: a2b6 a73c 6599 0a3d fbcf 123d e376 cb3c
00000010: 434c e33c ac70 0d3d 186d 163d 5d06 ce3c
00000020: ff09 d83c 7896 503c a7b1 e93c eb19 e23c
00000030: 4e5b ca3c e5a7 3a3c 9734 083d 325e e63c
00000040: a3b3 fc3c f73d b13c 2c8f 6d3c 1a35 cf3c
00000050: 50ee ac3c 663f c43c dbf8 b63c 8e8e eb3c
00000060: 5f3f f33c ac0a b73c 7ab1 673c d2d5 803c
00000070: 190a ae3c 0630 123c 566e bf3c 3818 913c
0.020472828 0.033837695 0.035842877 0.024836963 0.027746325 0.03453128 0.036725134 0.025149519
0.026371954 0.012731187 0.028527094 0.02760025 0.02470174 0.011392568 0.03325328 0.028121088
0.030847376 0.021635992 0.014499467 0.025293875 0.02110973 0.023956012 0.02233546 0.028754499
0.029693304 0.022343956 0.014141435 0.015726957 0.02124505 0.0089225825 0.023368042 0.017711744

hidden_layers.4.fc.1.running_mean f4 [32]
00000000: cb5b 363b 8a49 a13b 6c2a 933b caee 913b
00000010: d7d7 103c 4956 b83b 0ddc 7a3b 04aa 6c3b
00000020: 4056 4eba 2384 2c39 0318 3cba 2107 853b
00000030: 3580 9c3b 171d 293c 0f7c c33b 5f6d ab3a
00000040: 50b0 013b 314e 4b3a d827 3d3c 5b97 abba
00000050: 5435 f03a 4b71 36bb 6142 513a 9dda 883b
00000060: 969a 743b 1506 1e3c df5f 1f3c bee8 b9b9
00000070: 20ab 2a3b a19a 203c 9b51 6a3b 9008 093b
0.002782571 0.0049220966 0.004491141 0.0044535147 0.008840523 0.0056255204 0.0038278133 0.003611208
-0.00078711286 0.00016452423 -0.0007175209 0.0040596877 0.0047760257 0.010321877 0.0059657167 0.001307886
0.0019788928 0.0007755487 0.011545144 -0.0013091372 0.001832644 -0.0027838524 0.00079826085 0.0041764514
0.0037323586 0.009645005 0.009727447 -0.00035459356 0.002604194 0.009802491 0.0035754207 0.0020909645

hidden_layers.4.fc.1.running_var f4 [32]
00000000: 5bfa 9037 e9a7 e137 1267 c537 c42d 8b37
00000010: ef36 ce37 3d58 fd37 de8b b637 9b08 b737
00000020: ec91 9d37 422e bd37 b1b3 bb37 5e2a d337
00000030: 854e bb37 b506 0038 7013 a937 98c1 a937
00000040: 39b7 ad37 107b b337 36e3 fb37 bd65 9437
00000050: 4441 cd37 4899 f237 66d6 c637 f426 c837
00000060: e6e2 7437 9c47 0838 e7bc 0f38 d95b df37
00000070: c82b cb37 5f17 0438 ca56 8137 571f 9f37
1.7282719e-05 2.690028e-05 2.3532226e-05 1.6591403e-05 2.4582694e-05 3.020104e-05 2.1761221e-05 2.1819307e-05
1.8783809e-05 2.2552096e-05 2.2375812e-05 2.5172889e-05 2.23287e-05 3.0523825e-05 2.0155421e-05 2.0236519e-05
2.0708527e-05 2.1395768e-05 3.0027335e-05 1.769035e-05 2.4468296e-05 2.8920025e-05 2.3703276e-05 2.3859997e-05
1.4596362e-05 3.249162e-05 3.4269786e-05 2.6626441e-05 2.4219873e-05 3.149302e-05 1.5418413e-05 1.896887e-05

hidden_layers.5.fc.0.weight f4 [32, 32]
00000000: c184 82bc bd65 aebc 4d13 bebc 683d bbbc
00000010: e1d8 f43b 90ca e4bc 284e 77bc 0a50 90bc
00000020: be5b 2dbc 7a86 763c 09ae b8bc 8f1f b8bc
00000030: 1cce 89bc 87d1 be3b 4ed2 2f3c 95e5 65bc
00000040: 38ee a5bc 8cc4 96bc 3108 853c 7c8c 8d3c
00000050: 755b d53a ac55 733c ca96 d13b 2af7 a2bc
00000060: b1b3 883a 9dea 8fbb 7a90 7f3c 17d8 823b
00000070: dd67 63bc b2d0 4d3b e62b c3bc 6147 69bc
00000080: 365c 57bc 2001 a3bc 8a29 86bc f19e b6bc
00000090: 70bf 823c 84ab a9bc 3f89 85bc 7c14 90bc
000000a0: 9f66 45bc b1bc c83b d7d0 98bc 8a87 c4bc
000000b0: dfb0 1cbc de81 67bb cd9e 493c 9f81 8fbc
000000c0: 4940 64bc b310 89bc ee01 9a3c 31d5 d83c
000000d0: 048b 083b 8396 7b3c 26ba 413a 3db9 92bc
000000e0: a190 103a b45d 92bb 3c7b 843c e374 953c
000000f0: 8c47 44bc e688 b43b 224d b7bc 46c3 67bc
00000100: f657 c4bb 73f2 48bc 74e1 cfbb 244d 41bc
00000110: b75d 923b eebc 9fbc 99f3 e8bb 6be8 1dbc
00000120: 5006 f5bb cf94 6f3c c7c1 09bc 6505 57bc
00000130: 4df6 81bc c478 9a3b 2652 193c 1be4 cebb
00000140: b234 18bc 1c24 a2bb 1145 cd3c dc90 b33c
00000150: 61a5 8c3a b5a2 e43c 8972 c638 ab88 78bc
00000160: dc90 0d3c 846d 803b 848b 8d3c 76b1 423b
00000170: f3fb 5abc 813e bd3b 2227 2dbc 9d3b 90bc
00000180: dd63 eabc 19ff 77bc 8f03 9abc 6e09 9ebc
00000190: c854 293c 604f a9bc d024 80bc 5420 64bc
000001a0: b1d7 78bc a7a7 2d3c a094 8bbc ff49 b2bc
000001b0: c7a0 63bc 3fd4 01bc bfea 183c 8e13 3ebc
000001c0: 792b 57bc 5038 85bc 5e63 913c 96c4 7d3c
000001d0: 8001 283c 85ba 973c db0c 49ba e639 98bc
000001e0: 2576 cd3b a24f 22bc bb70 ba3c 202b 853c
000001f0: 686e 9dbc e409 023c f38b f4bc 4d9d 9abc
00000200: df4a b5bb 7615 6abc 564d 93bb d500 54bc
00000210: dcb5 7b3b 4956 62bb 8578 6ebc b301 dbbc
00000220: 8e52 973a 911b 403c 5289 45bc 7183 a3bb
00000230: f8c1 8c3a 7889 d93b df82 5b3a 552f fbbb
00000240: 623a c1bb e4c8 203c cf13 6a3c bbd2 083b
00000250: 437f 8b3b 2950 8f3b fe75 803c 8160 80bb
00000260: 524c 5c3a fff8 89bd d019 39bc 8b4d 073c
00000270: 7de0 e33b 862d 19bb 387f 2abc a9fd 213c
00000280: 5f3d 33bc 71e9 cfbc 9b70 acbc 2019 b1bc
00000290: 63fc 303c 50f6 f2bc bd50 e7bc ccd8 9dbc
000002a0: f456 83bb 60d5 8e3c de51 adbc ce45 c3bc
000002b0: 02ec 31bc 4d57 8bbb f046 2fba 82bf c1bc
000002c0: 603b d5bc 5749 95bc 5130 633c d225 4a3c
000002d0: 0ca1 a73b 5bde ae3c 3df6 f63b 3022 dcbc
000002e0: 55fd 2f39 bb89 47bc becb 633a 0fbd 873c
000002f0: 4f77 86bc b31a 19bb d499 d7bc 3fba 7cbc
00000300: 442a 88bc 9845 27bc e509 20bc 6736 4dbc
00000310: a193 193c ea16 71bc f58f b6bb 6331 1ebc
00000320: 49a9 71bc 751d 383c 4e29 62bc f74d 6bbc
00000330: c949 3cbc 13ea 81bb 848d 143c 49c9 c1bb
00000340: 0ada 2fbc 01bf 84bc 4fcc 333c 5c7e 953c
00000350: d031 9d3b d930 b23c 0382 9fbb 3513 81bc
00000360: 9aec 5d3b 3981 8d3a 2ef4 a13c 8247 1c3c
00000370: 0061 d6bc d8c3 1f3b c272 80bc 7799 a4bc
00000380: 39ca bebc 4e9c 4bbc 0117 85bc cdf4 adbc
00000390: 5c4a 913c 0f18 b1bc f833 9abc 339a 08bc
000003a0: ed52 2bbc 38e1 a63c 1931 4fbc d76a b9bc
000003b0: 4a82 debb 5f7e 803b b456 7f3c f977 5bbc
000003c0: 149a 7abc 7ae2 b6bc e97d b43c 6615 9b3c
000003d0: 6180 553c 0cce 7f3c 4180 893a 08d5 78bc
000003e0: bfd5 183c 64c6 07bc 8109 db3c 9983 b63c
000003f0: 41ac 46bc f0d1 273c 7426 dfbc abea 5dbc
-0.015932443 -0.021288747 -0.023202563 -0.02285643 0.007472143 -0.02792862 -0.0150943175 -0.01761629
-0.010580955 0.01504671 -0.022543924 -0.022475986 -0.016821913 0.0058233174 0.010731293 -0.014031787
-0.020255193 -0.018404268 0.016239258 0.017278902 0.0016277867 0.014851969 0.0063961493 -0.019893248
0.0010429529 -0.0043919818 0.015598411 0.003993045 -0.013879743 0.003140491 -0.023824643 -0.014238209
-0.013144543 -0.019897997 -0.01637723 -0.022292586 0.015960425 -0.020711668 -0.016300796 -0.017587893
-0.012048393 0.0061260094 -0.01865427 -0.023990411 -0.009563654 -0.003532521 0.012305927 -0.017517863
-0.013931342 -0.016731596 0.018799748 0.026468845 0.0020834813 0.015355709 0.0007390104 -0.017910594
0.00055147154 -0.0044667367 0.016172044 0.018244212 -0.011979949 0.0055094836 -0.022375647 -0.014145678
-0.005991931 -0.012264836 -0.006344015 -0.011798177 0.004466738 -0.019499268 -0.007109117 -0.009637932
-0.007477559 0.014622881 -0.0084080165 -0.013123845 -0.015864516 0.0047141034 0.009357965 -0.0063138134
-0.009289907 -0.004948152 0.025057347 0.02191966 0.0010730439 0.027909616 9.4627096e-05 -0.015169303
0.008640494 0.0039193053 0.01727844 0.0029707826 -0.013365733 0.0057752733 -0.010568412 -0.01760655
-0.028612072 -0.015136504 -0.018800525 -0.019291606 0.010335155 -0.020667732 -0.015642554 -0.013923723
-0.015188144 0.010599053 -0.017038643 -0.0217638 -0.013893313 -0.007924139 0.009333312 -0.011601342
-0.013132923 -0.016262203 0.017747577 0.015488764 0.010254264 0.018521557 -0.0007669457 -0.018582296
0.0062701874 -0.009906681 0.022758832 0.016255915 -0.019217685 0.007936928 -0.02985189 -0.018873835
-0.005532607 -0.014287343 -0.004495303 -0.0129396515 0.0038407957 -0.0034536293 -0.014555101 -0.026734209
0.0011544989 0.011725322 -0.0120566655 -0.0049900343 0.001073896 0.006638702 0.00083736883 -0.0076655545
-0.0058968524 0.009813521 0.014286949 0.0020877558 0.004257114 0.0043735695 0.015681263 -0.003917754
0.00084037066 -0.06736945 -0.011297658 0.008258234 0.0069542513 -0.0023373081 -0.010406308 0.009887137
-0.010939925 -0.025379868 -0.021049788 -0.021618426 0.010802361 -0.029658467 -0.028236741 -0.019268416
-0.0040081684 0.01743573 -0.021157201 -0.023836996 -0.010859491 -0.0042523504 -0.0006686291 -0.023650888
-0.026029289 -0.018223448 0.0138665 0.012338119 0.005115634 0.021346262 0.007536678 -0.02687177
0.00016783674 -0.012178834 0.0008689723 0.016569642 -0.016414313 -0.0023361861 -0.026318468 -0.015425264
-0.016621716 -0.010209464 -0.009767984 -0.012525178 0.009373576 -0.014714936 -0.0055713602 -0.009655329
-0.014749833 0.011237492 -0.013803793 -0.01436185 -0.011492201 -0.0039646714 0.009066943 -0.0059138876
-0.010733137 -0.016204359 0.010974004 0.01824873 0.004797198 0.021751808 -0.0048677935 -0.015756229
0.003386295 0.0010795958 0.019769754 0.009538533 -0.0261693 0.0024378207 -0.01567972 -0.020092709
-0.023289787 -0.012427403 -0.01624632 -0.021234894 0.017735653 -0.021617917 -0.018823609 -0.008337545
-0.010456783 0.020371065 -0.012645983 -0.022633953 -0.006790434 0.0039213146 0.0155846365 -0.013395303
-0.015295524 -0.02232479 0.022032695 0.018931102 0.013031096 0.01561309 0.0010490493 -0.015187509
0.009328305 -0.008287046 0.02673793 0.022279548 -0.0121260295 0.010242924 -0.027240016 -0.013544719

hidden_layers.5.fc.1.weight f4 [32]
00000000: 28be 6d3d d7e4 7e3d 8ded a33d 1d16 713d
00000010: a6dd 6d3d d3ac 753d 9765 973d cd4f 8e3d
00000020: 7c99 7d3d c276 4d3d 360f 7b3d 5870 583d
00000030: ddb5 3b3d 21d1 743d da82 493d e705 ae3d
00000040: c037 7e3d 0987 563d 4596 5d3d e6f6 723d
00000050: d656 5b3d 4563 733d 5361 4f3d 6a4e 853d
00000060: 95a0 693d 5e58 a53d 9b46 3a3d d1a2 883d
00000070: 8ef4 813d 0037 753d 3284 6b3d 07b7 5e3d
0.058042675 0.062229957 0.080042936 0.05885898 0.05807271 0.05997927 0.073924236 0.069488145
0.061913952 0.050162084 0.061293803 0.052841514 0.045827735 0.059769753 0.049197055 0.084972195
0.062064886 0.052374873 0.054098386 0.059317492 0.05354961 0.059420843 0.050629925 0.06509097
0.05703791 0.08073495 0.04547749 0.0667168 0.06345473 0.059866905 0.05749912 0.054373767

hidden_layers.5.fc.1.bias f4 [32]
00000000: 4988 a03c b1cd ac3c cdbe d33c 7588 903c
00000010: bbac 143d 8e6e 8e3c 8a6e c63c bba0 bd3c
00000020: 4693 b53c 50f5 663c d5cb bd3c 7e16 633c
00000030: 02ef 013d 5880 703c 5b67 f03c 0bd1 da3c
00000040: 28f4 943c 41c6 763c 09d4 263d 9b36 323d
00000050: 3d51 0c3d 3242 e93c ddad 023d 09f5 9c3c
00000060: 515e dd3c 1c0a 543d 0990 8f3c 017b 133d
00000070: 6b6a a13c bbec f43c f1a8 8b3c b586 3a3c
0.019596236 0.021094175 0.025847817 0.017643193 0.03629754 0.017386701 0.024222631 0.023147931
0.022164952 0.014096573 0.023168484 0.013860343 0.031722076 0.014679037 0.029346159 0.026711008
0.018182829 0.015061916 0.040729556 0.043509107 0.034257162 0.028473947 0.03190409 0.01915981
0.027022513 0.051767454 0.017524736 0.036005978 0.019704064 0.029898038 0.017048331 0.011384656

hidden_layers.5.fc.1.running_mean f4 [32]
00000000: 46a7 75bc 7cae 40bc d0a1 88bb 31c3 5abc
00000010: 661a 0dbc a87f 94bc 8c8b 0ebc b198 fdbb
00000020: 36f6 abbc 8a9e d53b 3fdf d3bc 2c38 09bc
00000030: 3733 e13b 13dd bc3a 6260 32bb b5b4 25bc
00000040: 320b 31bc 6ac0 95bc 8ae2 8cbb dd7e 9aba
00000050: 1860 cf3b 117f 3ebb a2db af39 5f4d 39bc
00000060: 25b9 0c3c 6102 3dba 3ad3 393c 9422 3a3b
00000070: 2f1f 94bc 48d8 873c b426 7fbc a0d9 83bc
-0.014993494 -0.01176035 -0.00416968 -0.013352201 -0.008612251 -0.018127277 -0.008700263 -0.0077391495
-0.020991426 0.0065191435 -0.025863288 -0.008375209 0.0068725604 0.0014409147 -0.0027218093 -0.010113885
-0.010805892 -0.018280227 -0.0042994665 -0.0011787076 0.006328594 -0.0029067437 0.0003354224 -0.011309951
0.008589064 -0.00072101323 0.011341864 0.0028401958 -0.018081276 0.016582623 -0.015573192 -0.016094983

hidden_layers.5.fc.1.running_var f4 [32]
00000000: 75c9 4d39 de9d 2439 3493 9c38 2d09 3a39
00000010: e7a6 6a38 c096 7e39 4229 cc38 5cc3 1e39
00000020: b927 9a39 f2b9 6838 306c cb39 e109 e238
00000030: 19df 7e38 ce78 7438 353d 3338 56a4 1d39
00000040: 05db 3339 7c09 7539 6c61 f037 49b4 e137
00000050: a1c1 5c38 60bc 6b38 c7c6 2b38 f471 2b39
00000060: b69e 8a38 5411 4238 786b ae38 06de 7338
00000070: 4a1b 8739 60fd 0139 3d6b 5e39 6503 7139
0.00019625372 0.00015699069 7.4660784e-05 0.0001774176 5.5945387e-05 0.00024279486 9.735163e-05 0.00015140831
0.00029402765 5.5486285e-05 0.00038799783 0.0001077836 6.0766095e-05 5.828664e-05 4.273393e-05 0.00015033907
0.00017152361 0.00023368554 2.8655595e-05 2.6906042e-05 5.263242e-05 5.6203804e-05 4.0954703e-05 0.00016350282
6.609915e-05 4.6269342e-05 8.316984e-05 5.814249e-05 0.00025769538 0.00012396788 0.00021211519 0.00022984816

hidden_layers.6.fc.0.weight f4 [32, 32]
00000000: e152 393b d98f ab3c fee6 da3b 0ffd 6c3c
00000010: babf 443c 39b0 983c 9862 be3c eec7 c03c
00000020: f39d 7c3c a02e 8e3c be27 813c db18 183c
00000030: a320 a83c 3241 563c 263f 4f3c 1416 413b
00000040: 7994 2e3c 210e 903b b3ba 6b3c 1980 983b
00000050: 9041 8e3c 1f79 9ebc 2f89 023c 4746 853c
00000060: 5877 b43b c8d3 e7bc 71fc b8bc 924c 633c
00000070: 1894 633b 6088 343c ac49 553c e294 4d3c
00000080: 2e6c 563c 7852 743b 4449 1abb 8ebf 083c
00000090: 27c5 263c b95d 663c adc9 803c 6780 2d3c
000000a0: d919 c03c bdb7 983c dc0c 173c dd69 3c3c
000000b0: 5c94 543c 7973 663c ef21 2a38 e568 00bc
000000c0: 09ff c53a 9074 1c3c 4bc3 623c aae5 173c
000000d0: a61e 8d3c d84d c4bc b82f 8e3c e05a 183b
000000e0: 9674 c5ba a0ef a8bc d931 f2bc 9260 19bb
000000f0: a173 393c 2f2e 193c d9f3 3b3c 8677 9d3c
00000100: ab74 31bc 70ae 293c d38f b8bc 31ae 993c
00000110: cd49 9c3a 3e20 ba3b a0ab fa3b 2ecb ed39
00000120: 6196 e53b 0ae7 983c 0df5 3f3b b26e 8638
00000130: e5f3 213c 89f3 073d 37d1 153c 8653 aabc
00000140: ecf3 30bc 42f6 7d3b 4159 913c 5f0f fa3c
00000150: a1cd 783c 4b95 a2bb 8558 333c 56d7 a73b
00000160: 8c11 9d3b e6e2 013c f3c2 a3bc 6658 8dbc
00000170: 8683 323c 9c94 c33c 23f9 fd3a 31d0 6a3c
00000180: cede ec3b 15fb 6c3c d003 daba de33 583c
00000190: c10c 523a d9ab 5a3c d6ba 493c 915f 553c
000001a0: 9ddd a23c f8bb 903c 6438 ae3c 8816 223c
000001b0: d270 5c3c 3eb8 fb3b f29e aa3c 63b2 643b
000001c0: dc62 9c3b 0dab 363c 3b66 a23c 6c01 af3b
000001d0: 108c 533c 6688 b4bc 348a 4e3c 39ff 063c
000001e0: 4f8f 2cba 8f1a b8bc 9e24 fdbc aa04 bd3a
000001f0: 0e42 373c 7b41 c23b e0e1 ca3b a10e 803c
00000200: 78d6 ee3b e548 413c 54d2 31bb 5332 8b3c
00000210: f788 d63b 1356 593c 2b21 753c 2905 9e3c
00000220: 6148 683c d2d0 df3b e042 6a3c 262b a73c
00000230: 501e 6d3c f414 5b3c fd6b 933c a64b cdbb
00000240: 51ae 213c 70cd 803c 773e 183c 1d20 6a3c
00000250: 3a9b b03c be96 b1bc 2994 0d3c 3f12 273c
00000260: 64ac 9d3b 8192 8bbc cf4e e6bc 755c a73b
00000270: 517e 163c 7cea 0b3c fca4 003c 36fe de3b
00000280: 3e0f d53b 4254 9d3c 5d1f 03bc e263 453c
00000290: ff8d 423c e0cb 913c ea19 2b3c 1ebd 413c
000002a0: daa9 9a3c aa8b 483c 51b3 a73c a276 1c3b
000002b0: f17d 7f3c 3e24 563c 094d 0a3c 87e5 c2bb
000002c0: 4bd7 bab9 11cf 593c 029b 713c e282 363b
000002d0: b059 663c a001 03bd 5f1e d23b a2b3 0a3c
000002e0: 62e0 a6bb 29a3 02bd 91f2 fbbc f6a2 ebbb
000002f0: d607 893c a537 bb3a d4f1 ef3b 01cc 853c
00000300: 732c 2f3c 4386 963c 08f6 32bb 0bed 9e3c
00000310: a04d ae3b 0d62 3d3c 0b1e ac3c 3d16 333c
00000320: dd26 ea3c 8f5e 353c 7e08 873c 09b2 943c
00000330: d392 583c 3809 063c fc83 2f3c f37b b2bb
00000340: 0853 a43b be89 4c3c 2c5e 693c fbdb ef3b
00000350: 9e77 213c 3cc4 6ebc 3ba8 d8b7 b199 973c
00000360: ab21 193c 464f a5bc d452 b6bc abe2 aabb
00000370: 7f93 b83a 3a5c 4d3c 6025 643c bef7 133c
00000380: 3e8b ec3b 7cf8 6dbb eb7a 30bc d130 383c
00000390: 99e8 893b 3eb9 8b3c 5c61 113c ab49 4b3c
000003a0: 88f3 9c3c a1e9 f83b d339 1f3c 9b2a 333c
000003b0: 0925 b13b dfef 033c de6e 223c aff3 1bbb
000003c0: 9eaa 433a e9f3 6f3c a87c 2e3c dd92 c03b
000003d0: fec0 d83b 350e f4bc c52f d63b 65cd f63b
000003e0: a393 fabb af6d ebbc 6188 28bd 15de 2f3a
000003f0: 69c3 cd3b c0b6 bab9 6466 053c 5386 f23b
0.002827816 0.020942615 0.0066803684 0.014464631 0.012008602 0.018638717 0.023240373 0.023532834
0.015418517 0.017356217 0.01576602 0.00928327 0.020523375 0.013077067 0.012649333 0.0029462622
0.010655516 0.0043962155 0.014387774 0.0046539423 0.017365247 -0.019344864 0.007967277 0.016268862
0.005507391 -0.028299227 -0.022581311 0.013873236 0.0034725722 0.011018842 0.013018053 0.012547703
0.0130873155 0.00372806 -0.0023542205 0.008346451 0.010178841 0.014060431 0.015721167 0.010589696
0.023449825 0.0186423 0.0092193745 0.011499849 0.012974825 0.014065617 4.056276e-05 -0.007837509
0.0015105914 0.009549275 0.013840507 0.009271065 0.017226528 -0.0239629 0.017356738 0.0023247525
-0.0015064653 -0.020622075 -0.029564785 -0.0023403508 0.011319072 0.00934939 0.011471712 0.019222032
-0.0108310385 0.010356531 -0.022529518 0.018759819 0.001192385 0.005680113 0.007649854 0.00045355543
0.007006452 0.018664856 0.0029290349 6.4102365e-05 0.009884809 0.033191238 0.009144119 -0.02079178
-0.010800343 0.0038751517 0.017742755 0.030524908 0.0151857445 -0.0049616448 0.010946398 0.0051221056
0.0047933515 0.007927632 -0.01999042 -0.017254066 0.010895615 0.023874573 0.0019376617 0.014331863
0.007228709 0.0144641595 -0.0016633216 0.01319596 0.0008012765 0.013346636 0.012312612 0.013023273
0.019881064 0.017667755 0.021267124 0.009893067 0.013454633 0.0076818755 0.020827744 0.0034896366
0.004772527 0.01114918 0.019824138 0.0053407457 0.0129118115 -0.022037696 0.012606192 0.008239561
-0.0006582634 -0.022473602 -0.03090125 0.0014420946 0.011185182 0.005928216 0.006191477 0.015631976
0.0072887503 0.011797165 -0.0027133422 0.01699177 0.006547089 0.013265151 0.014961521 0.01928957
0.014177413 0.0068303132 0.014298171 0.020406317 0.014472559 0.013371695 0.017995829 -0.0062651215
0.00986822 0.01572296 0.0092922365 0.014289883 0.021558393 -0.021678325 0.008641281 0.010197221
0.0048118103 -0.017037632 -0.02811375 0.0051074573 0.00918539 0.008539792 0.007851835 0.0068052066
0.006502061 0.019205216 -0.008003083 0.01204774 0.011874675 0.01779741 0.01044319 0.011824874
0.01887982 0.01224033 0.020471247 0.0023874422 0.015593992 0.013070164 0.008441218 -0.005947772
-0.0003563709 0.013293997 0.014746429 0.0027849008 0.014059469 -0.03198397 0.006412312 0.008465679
-0.0050926665 -0.031893883 -0.030755313 -0.0071910573 0.01672737 0.0014283551 0.0073225293 0.016332628
0.01069175 0.018374568 -0.002730729 0.01940014 0.005319312 0.011559022 0.02101042 0.010930595
0.028582985 0.011069908 0.016483542 0.0181513 0.013218599 0.008180909 0.01071262 -0.005446905
0.005014781 0.012484012 0.014243644 0.007319925 0.009855179 -0.014573153 -2.5827545e-05 0.018505903
0.009346406 -0.020179402 -0.022256292 -0.005215009 0.0014082043 0.012534196 0.0139249265 0.009031234
0.0072187474 -0.0036311438 -0.010771493 0.0112421075 0.004208636 0.017056104 0.00887331 0.0124077005
0.019159093 0.00759621 0.009718376 0.010935451 0.0054060263 0.008052795 0.009914128 -0.002379637
0.00074640836 0.014645555 0.010649838 0.0058768825 0.0066148033 -0.02979193 0.0065364563 0.007531809
-0.007646994 -0.028738825 -0.041145686 0.0006708813 0.006279398 -0.00035612844 0.008142088 0.0074012666

hidden_layers.6.fc.1.weight f4 [32]
00000000: 0daa 8a3d 9224 963d 17be 9b3d 0197 8e3d
00000010: abfc 7d3d 7ba6 913d 420c 923d e5b0 7f3d
00000020: c2b0 893d 3652 8f3d c3e0 903d 3f35 813d
00000030: b44e 9d3d 0b73 933d bbaf 823d a617 963d
00000040: f1f8 8c3d c735 933d 322f 983d db51 833d
00000050: cf51 8b3d 7a63 8d3d 2b1f 973d c682 8f3d
00000060: 7c79 873d eb76 963d 9f77 793d 909d 9b3d
00000070: 9e08 923d b320 753d 01f3 8b3d 10af 8f3d
0.06770716 0.07331194 0.07604616 0.069623955 0.06200854 0.07111832 0.07131244 0.06242456
0.06723167 0.06998102 0.0707412 0.06308984 0.07681027 0.07199677 0.06381174 0.07328729
0.06883419 0.071879916 0.07430877 0.06412097 0.06802713 0.06903739 0.07378992 0.07007365
0.06614968 0.073469006 0.060905095 0.07598412 0.0713055 0.059845638 0.06833459 0.070158124

hidden_layers.6.fc.1.bias f4 [32]
00000000: 11d5 163d c4d1 053d 1d68 183d 2f00 0a3d
00000010: 1472 2d3d 79cc 173d 0700 103d c3c5 0f3d
00000020: 6701 2a3d 3682 2b3d 6aee 213d c14b 0f3d
00000030: 5ba8 183d 52e3 2e3d ea05 1a3d 8d5a 2d3d
00000040: 8e17 0d3d 26bb 303d 1dbf 313d 6816 243d
00000050: ebda 3b3d ddd6 1d3d 635f 153d 49e4 0e3d
00000060: bdbc 173d 66bb 2d3d afb2 443d d4dc ac3c
00000070: b5c4 133d 90ba 233d 7243 0b3d 914e 283d
0.03682429 0.03267075 0.037208665 0.03369158 0.04234512 0.037060235 0.035156276 0.03510071
0.041505244 0.041872226 0.03953401 0.034984354 0.03726993 0.04269726 0.037603296 0.042322684
0.03444629 0.04314723 0.04339515 0.04006043 0.045863073 0.038534988 0.03646792 0.03488568
0.03704523 0.042415045 0.04802197 0.021101393 0.036076266 0.03997284 0.033999868 0.04109055

hidden_layers.6.fc.1.running_mean f4 [32]
00000000: e66c c93c 1181 883c a933 5c3c 6eb2 9a3c
00000010: bb4d ab3c 9d1f 5b3c 0f6c ac3c 597b ee3b
00000020: d8ab 2a3b 8f1f 583b f617 0d3c ab24 d93c
00000030: 24ef a73c d304 2939 16dd ad3b 163b 9b3a
00000040: 7909 f83c af26 003c de34 173c dc03 233b
00000050: d4c7 e73b a23f 2f3a a2e2 9b3c a335 8f3c
00000060: edfe dd3c 7acf a43a 4b42 e93b 4449 8e3b
00000070: 72ea a73c 830b 933b 017f ab3c 8cce 2a3c
0.02458806 0.016663106 0.013440051 0.01888391 0.020911088 0.013374236 0.02104762 0.007277888
0.0026042368 0.0032977795 0.00861167 0.026506742 0.020499773 0.00016118893 0.0053058965 0.001184317
0.030277954 0.007821723 0.009228913 0.0024874127 0.007073382 0.0006685202 0.019028965 0.01748163
0.027099097 0.001257404 0.0071184984 0.00434223 0.020497534 0.0044874563 0.020934584 0.010425221

hidden_layers.6.fc.1.running_var f4 [32]
00000000: 264d 393a 54fb d439 eab2 2639 5da9 fd39
00000010: 35cd 0a3a c5cd d539 2ee4 053a 344f 7739
00000020: 4432 6e39 131d 8c39 afb2 8a39 5b55 2a3a
00000030: c05d 043a f6fc 4839 8fbf 4039 d670 8038
00000040: aa24 463a ec15 9739 898d 9639 72a4 9039
00000050: ab7a 6c39 ccce 9438 1bbf f339 c51f d739
00000060: 6783 313a 658d c738 18f7 9f38 fb63 1e38
00000070: 25ab 003a 76bf 6439 8e35 0a3a caf3 a939
0.0007068686 0.00040623045 0.00015897644 0.00048382106 0.00052948605 0.00040779836 0.0005107549 0.00023585261
0.00022716174 0.00026724543 0.0002645454 0.00064977043 0.000504937 0.00019167722 0.00018381908 6.124533e-05
0.0007558564 0.00028817297 0.0002871568 0.00027588342 0.00022552411 7.095709e-05 0.00046490956 0.00041031666
0.00067715946 9.515396e-05 7.6277356e-05 3.776325e-05 0.0004908315 0.00021815099 0.00052722625 0.0003241583

hidden_layers.7.weight f4 [1, 32]
00000000: 3e59 153d 42f6 0f3d f933 053d aae1 033d
00000010: e0b2 023d 31b0 003d d606 fd3c 4770 f83c
00000020: ed9a 143d 2084 013d bb4c 023d d1cc ff3c
00000030: 0fc2 183d 9a89 b73c 0831 023d 7453 d83c
00000040: c182 0a3d 9832 1f3d f8e1 c23c 93bb de3c
00000050: af51 0d3d 4d48 b53c 7e4e 293d 4057 0d3d
00000060: 24e4 003d ad0d 443d 4a33 6e3c 7f5f f93c
00000070: 4365 323d 8b35 c03c b5dd 0c3d c581 233d
0.03646206 0.03514696 0.032520268 0.032197632 0.03190887 0.03141803 0.030887049 0.030326976
0.03628056 0.031620145 0.031811457 0.031225594 0.037294444 0.02240448 0.03178504 0.026406981
0.033816103 0.03886661 0.02378939 0.027189052 0.034501728 0.022129202 0.04133462 0.034507036
0.03146757 0.047864605 0.014538595 0.030441044 0.043553602 0.023463031 0.034391124 0.03991868
