density_functional_approximation_dm21/checkpoints/NN_XALPHA/state_dict_0.99.pth (torch, 31111 bytes, 16 tensors)

hidden_layers.0.weight f4 [32, 7]
0	0xbef545d5	-0.4790484
1	0xbed555df	-0.41667077
2	0xbd089c90	-0.033352435
3	0xbeda5274	-0.42641032
4	0xbec75e25	-0.38939014
5	0x3d75a8a1	0.05997527
6	0xbec8e0de	-0.3923406
7	0x3e668d9b	0.22514956
8	0x3e88fce1	0.2675543
9	0x3d96d5c8	0.07364994
10	0x3c0f1d18	0.008734964
11	0x3dd2cb88	0.10292727
12	0x3e5db7d3	0.21652155
13	0xbc98880b	-0.018619558
14	0xbe8d3fe9	-0.27587822
15	0x3eae2405	0.34011856
16	0x3e80f182	0.25184256
17	0xbd8cf160	-0.06881976
18	0xbe38bdea	-0.18041196
19	0xbe054b6a	-0.1301705
20	0xbe9c369e	-0.3051042
21	0x3e9dbdf3	0.30808982
22	0x3d2d2f8c	0.042281672
23	0x3e9c2587	0.3049738
24	0x3dfe3d17	0.12413996
25	0xbcd2c6e1	-0.025729598
26	0xbd96ff3c	-0.07372901
27	0x3e705ea5	0.23473604
28	0xbe66b1b0	-0.2252872
29	0xbdad29c4	-0.08455232
30	0x3ea6b235	0.32557836
31	0xbd6d5e3a	-0.05795119
32	0x3dc04786	0.09388642
33	0xbd80fac3	-0.06297829
34	0xbd76c8eb	-0.060250204
35	0x3e9b348a	0.30313522
36	0x3e3707cc	0.17874068
37	0xbe4bc26b	-0.19898383
38	0x3eb8dac9	0.3610442
39	0xbe2f4566	-0.17116317
40	0x3e0fa46c	0.14027566
41	0x3e106d7f	0.1410427
42	0xbc4cac84	-0.012492303
43	0xbebeba94	-0.37251723
44	0x3eba5f53	0.36400852
45	0xbccd260b	-0.025042554
46	0x3e6ab58e	0.2292082
47	0xbe8637d1	-0.2621446
48	0xbd8e60df	-0.069520704
49	0x3eb7fd0d	0.3593525
50	0xbea6e48c	-0.32596242
51	0xbcbce281	-0.023057224
52	0xbddd887e	-0.108170494
53	0xbed59cfa	-0.41721326
54	0xbe70f9ff	-0.23532866
55	0xbef244c2	-0.47318083
56	0x3d48d02c	0.049026653
57	0x3db74af8	0.08949846
58	0x3e52fad5	0.20603497
59	0x3daa8a2c	0.083271354
60	0xbcc69ae3	-0.024243778
61	0xbe17a4e6	-0.14808998
62	0xbe26a187	-0.16272555
63	0x3e49f2f0	0.1972158
64	0x3df7a8ab	0.12092718
65	0xbea708d3	-0.3262392
66	0x3e955eb7	0.29173824
67	0x3d74c99e	0.05976259
68	0x3eb17d9f	0.34666154
69	0xbe20a258	-0.15686929
70	0x3eb041ea	0.34425288
71	0x3e1b708d	0.15179653
72	0xbe9834b4	-0.2972771
73	0x3e6bb9ca	0.23020092
74	0xbd25db54	-0.04049237
75	0x3e1e9f98	0.15490568
76	0xbdd8651e	-0.105661616
77	0xbcfadfb3	-0.030624246
78	0x3e7e0192	0.24805287
79	0x3b34baba	0.0027577118
80	0x3c17dadf	0.0092684915
81	0x3e4885c1	0.19582273
82	0x3d00924a	0.031389512
83	0x3cc0f854	0.023555912
84	0x3e1bf3f2	0.15229777
85	0x3e28db80	0.16489983
86	0x3ead0232	0.33790737
87	0xbe330b36	-0.17484745
88	0x3dc9355f	0.09824633
89	0x3dacaa6e	0.084309444
90	0xbd3bcd6c	-0.045850202
91	0x3e402c58	0.18766916
92	0xbd4b9fe1	-0.04971302
93	0xbea7d595	-0.32780138
94	0x3e91c2db	0.28468975
95	0xbe090109	-0.13379301
96	0x3e0c5cce	0.13707277
97	0xbe9e31e4	-0.3089744
98	0x3e28835a	0.16456357
99	0xbe9fb4a7	-0.31192514
100	0xbd1b9a00	-0.037988663
101	0x3eb6e8cd	0.35724488
102	0x3d65b813	0.05608375
103	0x3e6754c7	0.22590934
104	0xbe78efdb	-0.24310248
105	0xbef7f41b	-0.48428425
106	0xbee81fef	-0.45336863
107	0xbe413fa7	-0.18871938
108	0xbe3780e1	-0.17920257
109	0xbd2f3700	-0.04277706
110	0x3eb3d73a	0.35125142
111	0x3f01ab5c	0.506521
112	0xbf483508	-0.7820592
113	0xbf05b9ed	-0.52236825
114	0x3e76f9cd	0.24118729
115	0xbd954267	-0.07288056
116	0xbe69ee3d	-0.22844787
117	0xbeb9cb02	-0.36287695
118	0xbdc78873	-0.097428225
119	0xbe8d7640	-0.2762928
120	0x3ec6307a	0.3870886
121	0xbd469c26	-0.04848876
122	0xbd909da4	-0.070613176
123	0x3e32a6ca	0.17446437
124	0x3e355b35	0.17710574
125	0x3ea40f1b	0.32042775
126	0x3b865808	0.0040998496
127	0xbe5e946f	-0.2173631
128	0x3eb6f91b	0.35736927
129	0xbddbff9b	-0.10742112
130	0x3e2cc3cb	0.16871564
131	0xbe85f3ce	-0.2616257
132	0xbe5201ad	-0.20508452
133	0xbd1aa098	-0.03775081
134	0xbe2aeec9	-0.16692652
135	0x3de33c6c	0.11095509
136	0x3e928f5f	0.28625008
137	0x3dd73eaf	0.10510003
138	0xbcdb1d9d	-0.02674752
139	0x3dbf3e62	0.093380705
140	0x3e922550	0.28544092
141	0x3eae7a34	0.3407761
142	0x3ec94c69	0.3931611
143	0x3e924de6	0.28575057
144	0x3e8d4bde	0.27596945
145	0x3eeb1571	0.45914796
146	0xbea4fd89	-0.32224682
147	0xbee60f1b	-0.449334
148	0x3e03d7f7	0.12875353
149	0x3e976da1	0.29575828
150	0xbe8adee4	-0.27123177
151	0x3e012ec6	0.12615499
152	0xbe57f4aa	-0.21089426
153	0xbdc2f566	-0.09519462
154	0x3ed84749	0.42241886
155	0xbe16c35e	-0.14722964
156	0x3e2d301f	0.16912888
157	0x3e9012fa	0.28139478
158	0x3e332175	0.17493232
159	0xbe6f6afa	-0.23380652
160	0x3e004699	0.12526931
161	0xbe959705	-0.2921678
162	0xbe8250aa	-0.25452167
163	0xbdf30bc5	-0.11867479
164	0x3ecf8997	0.4053466
165	0x3e4cf7fe	0.20016477
166	0x3e95c72a	0.29253513
167	0x3e3ab802	0.18234256
168	0xbd69cdf8	-0.057081193
169	0x3ed8f351	0.42373136
170	0xbe8c99f5	-0.2746121
171	0xbd041815	-0.03224953
172	0xbb1d410c	-0.002399507
173	0xbc930d19	-0.017950581
174	0xbe75188f	-0.2393515
175	0xbe9ebd40	-0.3100376
176	0x3ea338ac	0.31879175
177	0x3e94a51e	0.29032224
178	0x3e61ab5b	0.22038023
179	0x3e63bb83	0.22239499
180	0xbd447d1e	-0.047970884
181	0xbd47a4ee	-0.048741274
182	0xbeae9d69	-0.3410447
183	0x3b4ca7bf	0.0031227914
184	0x3e9183c9	0.28420857
185	0x3e8ccbc4	0.2749921
186	0x3ec55d84	0.3854791
187	0xbe3a977f	-0.18221854
188	0xbe665958	-0.2249502
189	0x3e13516b	0.14386527
190	0x3eab8f90	0.33507967
191	0xbe008050	-0.12548947
192	0x3d1efd39	0.03881571
193	0x3debdcca	0.115167215
194	0x3e28a739	0.1647004
195	0xbc4482d6	-0.011994084
196	0xbe577677	-0.21041285
197	0x3d2f273f	0.042762037
198	0x3ec02d4b	0.37534556
199	0x3e6a2908	0.22867215
200	0xbda72020	-0.08160424
201	0xbe9abb5c	-0.3022107
202	0xbe7ee7ef	-0.24893163
203	0x3e8d227f	0.2756538
204	0x3d70c5f1	0.05878252
205	0x3e7590bf	0.23980998
206	0xbc09cbaf	-0.008410378
207	0x3e66ebc9	0.22550882
208	0xbd6e0365	-0.058108706
209	0x3e238c97	0.159716
210	0x3e9ff617	0.3124244
211	0xbeac66a7	-0.33672068
212	0xbe27889e	-0.16360709
213	0xbe06680b	-0.13125627
214	0x3d8b5c6c	0.068047374
215	0xbdfbf8b8	-0.12303299
216	0xbea818df	-0.32831475
217	0x3cda14ab	0.026621183
218	0x3e85ab88	0.2610743
219	0xbe8a949b	-0.27066502
220	0x3e027c28	0.12742674
221	0xbe721701	-0.23641588
222	0x3e15d8e2	0.14633515
223	0xbdc0e0db	-0.09417888

hidden_layers.1.weight f4 [32]
0	0x3f801b18	1.0008268
1	0x3f723826	0.94616926
2	0x3f6bcfc1	0.9211388
3	0x3f5b4b02	0.8566133
4	0x3f8457e4	1.0339322
5	0x3f864220	1.048893
6	0x3f7a5acc	0.97794795
7	0x3f73ee63	0.95285624
8	0x3f5e4cd6	0.8683599
9	0x3f909029	1.1293994
10	0x3f62eb7a	0.8864056
11	0x3f5aff3f	0.85545725
12	0x3f84d23b	1.0376657
13	0x3f6da3e6	0.92828214
14	0x3f873dfc	1.0565791
15	0x3f6d5fc2	0.9272424
16	0x3f8d9c20	1.106327
17	0x3f6bda1f	0.921297
18	0x3f72de5e	0.94870555
19	0x3f80fe3a	1.0077584
20	0x3f6d41bd	0.92678434
21	0x3f74bce0	0.956007
22	0x3f6d8486	0.9278034
23	0x3f78ccf6	0.97187746
24	0x3f7a5fb6	0.97802293
25	0x3f779891	0.9671717
26	0x3f76b981	0.96376806
27	0x3f6de0f4	0.92921376
28	0x3f755f6a	0.95848715
29	0x3f613334	0.87968755
30	0x3f673d63	0.90328044
31	0x3f751e2a	0.9574915

hidden_layers.1.bias f4 [32]
0	0xbd6d28ab	-0.057900112
1	0xbd78c847	-0.060737874
2	0xbd2cb5e1	-0.04216564
3	0xbda22c14	-0.079185635
4	0xbdae6425	-0.08515195
5	0xbd5a4062	-0.053284056
6	0xbd6079de	-0.05480372
7	0x3ceb47fb	0.028720846
8	0xbd892315	-0.066961445
9	0xbceca754	-0.028888382
10	0xbc326311	-0.010887877
11	0xbe36f04c	-0.17865103
12	0xbb5c2106	-0.003358902
13	0xbda92ee9	-0.082609005
14	0xbd117454	-0.03551133
15	0xbd74a85b	-0.05973087
16	0xbcad2e3c	-0.02114021
17	0x3c7f0407	0.015564925
18	0xbc0171a7	-0.007900632
19	0xbab762bd	-0.0013991218
20	0xbdb8bd39	-0.09020466
21	0xbdcc78d7	-0.09983986
22	0xbd91f9c8	-0.0712772
23	0x3cf4c9c9	0.029881375
24	0x3d77a67c	0.060461506
25	0xbcdc3160	-0.026879013
26	0x3cb009c3	0.02148903
27	0xbd75026d	-0.059816767
28	0x3ddc0aae	0.107442245
29	0xbdcfbdab	-0.10143598
30	0xbcf81dda	-0.030287672
31	0x3c8df26d	0.017327512

hidden_layers.3.fc.0.weight f4 [32, 32]
0	0x3e338336	0.17530522
1	0x3dc59e13	0.09649291
2	0xbdef32e7	-0.11679631
3	0x3e3e50b9	0.18585481
4	0xbe1b9a8a	-0.1519567
5	0x3dd43641	0.103619106
6	0x3da44bda	0.0802228
7	0x3d657cd0	0.056027234
8	0xbd9a392a	-0.075304344
9	0xbd8a9928	-0.067674935
10	0xbcba047d	-0.022707218
11	0xbcbbfd00	-0.022947788
12	0xbe2ec812	-0.17068508
13	0x3c137773	0.009000647
14	0x3c057be4	0.008147214
15	0xbd9d6168	-0.076845944
16	0x3c91ed33	0.0178133
17	0xbd335a2b	-0.043787163
18	0xbe0949c1	-0.13407041
19	0xbb5c6c8f	-0.0033634042
20	0x3d842edb	0.064542495
21	0xbe4a919b	-0.19782107
22	0xbdfddf71	-0.12396134
23	0xbd650519	-0.055913065
24	0xbd0740b3	-0.033020686
25	0x3dcde792	0.10053934
26	0x3cebdba3	0.028791254
27	0xbdd7e5b1	-0.10541857
28	0x3d37d379	0.04487941
29	0xbc3d2ced	-0.011546356
30	0xbe3c1487	-0.18367206
31	0x3e043dea	0.12914243
32	0x3d9fed21	0.078089006
33	0xbca574a7	-0.020197226
34	0x3d387fb5	0.045043666
35	0xbd01f07d	-0.031723488
36	0x3c36728f	0.011135711
37	0xbe0e2d6f	-0.13884519
38	0x3d6464b4	0.0557601
39	0xbeb77cf9	-0.35837534
40	0x3dc8e800	0.098098755
41	0xbe1a3dd0	-0.15062642
42	0xbe6f0531	-0.23341824
43	0x3de66971	0.1125058
44	0x3da38dd1	0.07986034
45	0xbd19a3dc	-0.037509784
46	0x3e52daa4	0.20591217
47	0x3d4fe500	0.0507555
48	0x3e637632	0.22213057
49	0x3c7c7480	0.015408635
50	0x3c86b37a	0.016443003
51	0x3dc4a398	0.096015155
52	0xbd12ddae	-0.03585594
53	0x3d8a504f	0.06753599
54	0xbd4b614f	-0.049653348
55	0xbcb52372	-0.022111628
56	0xbe6e86a8	-0.23293555
57	0xbc98588c	-0.01859691
58	0x3e53ffc7	0.2070304
59	0x3e4cfe91	0.20018984
60	0xbe2cbdba	-0.1686925
61	0x3e6c1e4e	0.23058435
62	0xbe7dcc48	-0.24784958
63	0xbdd6a664	-0.10480955
64	0xbd9cbebe	-0.07653569
65	0xbd540c22	-0.051769383
66	0x3d77cfdf	0.060500976
67	0x3d872b6a	0.066000775
68	0x3d3d5992	0.046228
69	0xbe269128	-0.1626631
70	0x3d454b84	0.04816772
71	0x3e095039	0.13409509
72	0xbd04cbbe	-0.032420866
73	0x3e1ff856	0.15622076
74	0xbb9adde4	-0.0047261585
75	0x3d56d142	0.052445658
76	0x3dab8dad	0.08376632
77	0xbdabde22	-0.08391978
78	0xbe04b622	-0.12960103
79	0x3dc78fa8	0.09744197
80	0xbe9f545d	-0.31119052
81	0x3dd3fa16	0.103504345
82	0xbe377a6f	-0.17917798
83	0x3c0ccd7c	0.008593913
84	0xbe077331	-0.13227536
85	0xbe0a5e9a	-0.1351265
86	0xbda746f0	-0.08167827
87	0x3e7ee703	0.24892811
88	0x3d9a8ae1	0.0754602
89	0xbdda583e	-0.10661362
90	0x3e26e774	0.1629923
91	0xbdf2ad24	-0.1184943
92	0xbe066a90	-0.13126588
93	0x3d205380	0.03914213
94	0xbe054d1d	-0.13017698
95	0x3d818b4e	0.063253984
96	0x3dd3e868	0.10347062
97	0x3e79bca8	0.24388373
98	0xbe3f39e6	-0.1867443
99	0x3e184872	0.14871386
100	0xbc9d43f9	-0.019197451
101	0x3d915272	0.07095803
102	0x3de2dca8	0.11077243
103	0x3da6c5ea	0.08143218
104	0x3dfc95c1	0.12333251
105	0x3e6889cc	0.22708815
106	0xbde5c1e7	-0.112186246
107	0xbd3c380d	-0.04595189
108	0x3dcc5cdc	0.09978649
109	0xbd31b4f6	-0.04338547
110	0xbdfc1412	-0.123085156
111	0xbe0d7c0e	-0.13816854
112	0xbe1d9f77	-0.15392862
113	0x3e399861	0.18124534
114	0xbcf2073b	-0.029544463
115	0xbdaaa41b	-0.08332082
116	0x3d37e783	0.04489852
117	0xbe8654db	-0.26236615
118	0xbdb040f2	-0.08606137
119	0xbd5f8454	-0.054569557
120	0x3e167378	0.14692485
121	0x3d1303d7	0.035892334
122	0x3e2450bb	0.16046421
123	0xbca4edf9	-0.020133005
124	0x3cc4983a	0.023998369
125	0xbd2d3265	-0.042284388
126	0xbe5df27f	-0.21674536
127	0xbdfb2ae3	-0.12264039
128	0x3decb16d	0.11557279
129	0x3c9b8d3a	0.01898824
130	0xbd22a3f9	-0.039707158
131	0x3d333341	0.04375005
132	0x3e0d6487	0.1380788
133	0xbea29841	-0.31756786
134	0x3e2d38a4	0.16916138
135	0xbe24f44b	-0.16108815
136	0x3d37c40b	0.044864696
137	0xbda644c5	-0.081185855
138	0xbd779c83	-0.060451996
139	0x3c421bd3	0.011847454
140	0xbdcbcf9f	-0.0995171
141	0xbdaa4638	-0.083141744
142	0xbe624ed8	-0.22100389
143	0x3db0bd51	0.08629859
144	0xbdfec69e	-0.12440227
145	0xbcf45f0e	-0.029830482
146	0xbde3298f	-0.11091911
147	0xbdc6fcbf	-0.09716176
148	0x3db0e66a	0.08637698
149	0x3df0c062	0.11755444
150	0xbd4cfda4	-0.050046578
151	0xbe3b18ca	-0.18271175
152	0xbe2af303	-0.16694264
153	0x3e450ae4	0.19242436
154	0x3d2e5e8a	0.04257063
155	0xbd8abaea	-0.06773932
156	0xbd7fe717	-0.062476244
157	0xbe03d257	-0.12873207
158	0xbe3243b6	-0.17408642
159	0x3dc966e6	0.098340794
160	0xbe0209da	-0.1269907
161	0xbe109a90	-0.14121461
162	0x3df7b5bc	0.1209521
163	0xbe4fa01f	-0.20275925
164	0x3e3ea1e1	0.1861644
165	0xbe3ea591	-0.18617846
166	0x3db293d8	0.08719605
167	0xbd0f866d	-0.035040308
168	0x3dcb8dee	0.0993918
169	0x3e474b2e	0.19462273
170	0xbc5ab1a3	-0.013348016
171	0xbe05e611	-0.13076045
172	0x3de7929e	0.11307262
173	0x3e58b3a3	0.21162276
174	0x3dea8853	0.11451783
175	0xbe22f797	-0.1591476
176	0xbc6d2866	-0.014474964
177	0x3dc41c08	0.09575659
178	0xbc16abee	-0.009196265
179	0xbd226115	-0.039643366
180	0xbcdbf1a8	-0.02684863
181	0xbd2773bf	-0.04088187
182	0xbce0820d	-0.027405763
183	0x3e1bba20	0.1520772
184	0x3d603a7f	0.054743286
185	0x3de4e8b2	0.111771956
186	0xbc0e015b	-0.008667315
187	0xbe24ff2a	-0.16112962
188	0x3e82f3a9	0.25576523
189	0xbb8851bb	-0.0041601337
190	0x3e46cafd	0.19413371
191	0x3cc2e5a5	0.023791144
192	0xbe37519d	-0.17902227
193	0xbd15f49a	-0.036610223
194	0xbd94a342	-0.072577015
195	0xbe503bda	-0.20335332
196	0x3dfb1119	0.122591205
197	0xbe145015	-0.14483674
198	0xbe07eb33	-0.13273315
199	0xbd148a77	-0.036264863
200	0xbdf6b7a6	-0.12046747
201	0x3dca7cd9	0.09887094
202	0x3dba6ffd	0.09103391
203	0xbe73177e	-0.2373943
204	0x3df77dcd	0.120845415
205	0x3dc63ad6	0.09679191
206	0xbbd523d8	-0.006504517
207	0x3db7d0bc	0.0897536
208	0xbe1e24d0	-0.1544373
209	0xbe689e8a	-0.22716728
210	0xbcbc5418	-0.022989318
211	0xbbf453f1	-0.0074562957
212	0x3db8b452	0.09018768
213	0xbce2f020	-0.027702391
214	0xbde2ba79	-0.11070723
215	0x3e23fc17	0.16014133
216	0x3e65176a	0.22372213
217	0xbdedd142	-0.116121784
218	0xbd202651	-0.03909904
219	0xbc17bea8	-0.009261765
220	0xbd74a13b	-0.059724074
221	0xbdcfd6c0	-0.10148382
222	0x3b94cbaa	0.00454088
223	0x3e2af603	0.16695409
224	0xbde554b4	-0.111977965
225	0x3c52ca34	0.012865592
226	0xbd86a741	-0.0657487
227	0xbd16b7b2	-0.03679628
228	0x3d74673b	0.05966876
229	0xbc9c5497	-0.019083304
230	0xbdd29a3a	-0.10283323
231	0xbd86a830	-0.06575048
232	0xbdf990bf	-0.12185811
233	0x3e3fd6f0	0.18734336
234	0x3cb183f7	0.021669371
235	0xbe36565c	-0.17806381
236	0xbe50aa54	-0.20377475
237	0x3dd32164	0.10309103
238	0x3e3896cf	0.18026279
239	0x3e04404a	0.1291515
240	0x3db13e35	0.08654443
241	0x3d1d9638	0.038473338
242	0x3dd2718c	0.102755636
243	0xbe240dcb	-0.16020887
244	0x3dd32ca2	0.103112474
245	0x3e35094b	0.17679326
246	0xbd3c76d0	-0.046011746
247	0x3d86c78e	0.06581031
248	0x3c9c8e44	0.019110806
249	0xbcd05e54	-0.025435604
250	0xbddc32fe	-0.107519135
251	0x3d85333e	0.06503914
252	0xbdfb33ef	-0.12265765
253	0x3c00a70b	0.007852326
254	0x3d7821af	0.060579
255	0x3e679895	0.22616799

hidden_layers.3.fc.1.weight f4 [32]
0	0x3f873de7	1.0565766
1	0x3f843a5c	1.033031
2	0x3f989215	1.1919581
3	0x3f7d4684	0.98935723
4	0x3f8b4c30	1.0882626
5	0x3f7541be	0.9580344
6	0x3fad8f17	1.3559293
7	0x3f8bb307	1.091401
8	0x3f8e61c5	1.1123587
9	0x3f77f672	0.9686042
10	0x3f836d64	1.0267758
11	0x3f7c3079	0.98511463
12	0x3f9270b8	1.1440649
13	0x3f8c5601	1.0963746
14	0x3f6d47e9	0.9268785
15	0x3f84f3a5	1.0386854
16	0x3f7fa7ab	0.99865216
17	0x3f878b92	1.0589468
18	0x3f98e1fc	1.1943965
19	0x3f8519ed	1.0398537
20	0x3f8f4708	1.1193552
21	0x3f8c6343	1.0967792
22	0x3f812acf	1.0091189
23	0x3f85e721	1.046116
24	0x3f872d20	1.0560646
25	0x3f88c36f	1.0684642
26	0x3f8dd760	1.1081352
27	0x3f8aa807	1.0832528
28	0x3f68acc3	0.90888613
29	0x3f87871e	1.058811
30	0x3f7f98b8	0.99842405
31	0x3f7fbf61	0.99901396

hidden_layers.3.fc.1.bias f4 [32]
0	0xbdb638fc	-0.08897588
1	0x3d70d8e7	0.058800604
2	0xbe05e51a	-0.13075677
3	0x3d065645	0.032797117
4	0xbd2d005a	-0.042236663
5	0xbd1dc18c	-0.03851466
6	0xbe09eef4	-0.1347006
7	0xbdca0f12	-0.09866156
8	0xbdf471e9	-0.11935789
9	0x3d24c8d6	0.040230595
10	0xbc261a6c	-0.010138135
11	0xbce7d1db	-0.02829831
12	0xbdcc17a1	-0.09965444
13	0xbb1bb32a	-0.0023757913
14	0xbdad28af	-0.084550254
15	0x3d899410	0.06717694
16	0xbd1d96cf	-0.0384739
17	0xbdc0b0f0	-0.09408748
18	0xbdf2c4d2	-0.11853947
19	0xbd2b2ad9	-0.04178891
20	0xbdd73bbe	-0.10509442
21	0x3cc4c93b	0.024021735
22	0x3cb5461d	0.02212816
23	0x3d93d46e	0.07218252
24	0x3d4c246d	0.049839426
25	0x3d0bdc77	0.0341458
26	0xbd980174	-0.07422152
27	0x3caf7cf1	0.021421881
28	0xbb6e4fd6	-0.0036363504
29	0xbd7958c0	-0.060875654
30	0x3d2a9cd7	0.04165348
31	0xbd2bb4f5	-0.04192062

hidden_layers.3.fc.3.weight f4 [32, 32]
0	0xbc24707c	-0.010036584
1	0xbded67c8	-0.1159206
2	0xbcdbd1b9	-0.026833402
3	0x3ddd8a49	0.108173914
4	0xbd6226fd	-0.055212963
5	0xbe28ff70	-0.16503692
6	0xbe102676	-0.14077172
7	0x3e823ad0	0.25435495
8	0x3e2bbf31	0.16772152
9	0x3d8f1088	0.06985575
10	0x3e0d42a7	0.13794957
11	0x3c188db0	0.009311125
12	0xbc859a7a	-0.016309012
13	0xbd5c4a63	-0.05378188
14	0xbdbb9679	-0.0915956
15	0x3e30ed98	0.17278135
16	0x3d5699f4	0.052392915
17	0x3c6224e2	0.013802739
18	0xbe28b136	-0.1647385
19	0xbda1789e	-0.07884334
20	0x3dbb172e	0.091352805
21	0x3c6968f9	0.014246219
22	0x3d9f7235	0.07785455
23	0xbdc9c009	-0.09851081
24	0x3d9f38a4	0.07774475
25	0xbdaca17c	-0.08429238
26	0xbe8ed564	-0.2789718
27	0x3de8915c	0.1135585
28	0xbdf7ee3a	-0.12105985
29	0x3e02f881	0.12790109
30	0x3df908d9	0.12159891
31	0x3e11f06a	0.14251867
32	0x3d4bb7ee	0.049735956
33	0xbdd5c64b	-0.10438212
34	0xbd322085	-0.043488044
35	0xbda83c15	-0.08214585
36	0x3c346f06	0.011012798
37	0x3d9b6eef	0.07589518
38	0xbd99f92e	-0.075182304
39	0x3dc405ba	0.09571405
40	0x3c1c55be	0.009541927
41	0x3dcf19e2	0.10112359
42	0xbdebf400	-0.11521149
43	0x3e2c1d73	0.16808109
44	0x3d0de0b1	0.03463811
45	0x3d958ad4	0.0730187
46	0xbe126a4a	-0.14298359
47	0xbd92d5a7	-0.07169657
48	0x3dff25c9	0.12458379
49	0x3d8a5847	0.06755119
50	0xbcb7f0eb	-0.022453746
51	0xbd9f2eac	-0.07772574
52	0xbe4d9140	-0.2007494
53	0xbe38f7f0	-0.1806333
54	0xbdae1be5	-0.08501414
55	0x3d42ab2c	0.047526523
56	0xbe07c03c	-0.13256925
57	0x3dd1adbb	0.102382146
58	0xbc8e9276	-0.017403822
59	0x3d896084	0.06707862
60	0x3dc16d8c	0.094447225
61	0xbe082137	-0.1329392
62	0x3ddba6ac	0.107251495
63	0x3c2779fe	0.010221956
64	0xbdbdf083	-0.092743896
65	0xbc754f36	-0.014972499
66	0x3dce9db6	0.10088675
67	0xbd2a21c2	-0.0415361
68	0xbd7d279d	-0.061805356
69	0x3dd15340	0.10220957
70	0xbdb74a91	-0.08949769
71	0x3e362fcd	0.17791672
72	0xbeae63cc	-0.34060514
73	0xbd835a0f	-0.06413662
74	0xbdfb9fb4	-0.1228632
75	0x3db9d6b5	0.09074155
76	0x3e2dbb7f	0.16966055
77	0x3e6b7d75	0.22997077
78	0x3dadbd67	0.08483391
79	0x3d7962d0	0.06088525
80	0x3c66b568	0.014081337
81	0x3e77f73a	0.24215403
82	0xbc74ad35	-0.014933874
83	0x3e90a844	0.28253376
84	0x3d2363fa	0.039890267
85	0x3cafc62d	0.021456802
86	0xbe1613ef	-0.14656042
87	0x3d06039e	0.032718293
88	0x3c05d233	0.008167791
89	0x3c81e230	0.015854925
90	0xbd668ec7	-0.056288507
91	0xbe1c55ea	-0.15267149
92	0x3bd42a0e	0.00647474
93	0x3dc76b04	0.097372085
94	0x3c370461	0.011170478
95	0xbbd40c1f	-0.0064711715
96	0xbd186650	-0.037206948
97	0x3cf208b6	0.02954517
98	0xbeacd2fb	-0.33754715
99	0x3d9302be	0.071782574
100	0x3e309aee	0.17246601
101	0xbd9c9fe6	-0.07647686
102	0x3da7ab12	0.08186926
103	0x3a89a54e	0.0010501535
104	0xbd641875	-0.055687387
105	0x3e6e74d9	0.23286761
106	0x3dc813e8	0.09769422
107	0xbdfa6dba	-0.1222796
108	0xbe9a5a50	-0.30147028
109	0x3c5af0d6	0.013363084
110	0x3e04ecf1	0.12981011
111	0x3d9bdeaf	0.07610833
112	0xbd89dfca	-0.067321375
113	0xbe2af8c0	-0.16696453
114	0xbdc90aa8	-0.09816486
115	0xbe57aff1	-0.2106321
116	0xbc7eed64	-0.015559528
117	0x3e766187	0.24060641
118	0x3e1486da	0.14504567
119	0x3deecd08	0.116602
120	0x3d829ad9	0.06377191
121	0xbe40e952	-0.18839005
122	0x3e1e3d09	0.1545297
123	0x3e46f23b	0.19428341
124	0xbc75558e	-0.014974011
125	0x3e8a3ecd	0.27001038
126	0x3dcc5cf6	0.099786684
127	0x3d823ac1	0.06358863
128	0xbdb18971	-0.08668793
129	0x3e6219d0	0.22080159
130	0xbe4ad7f5	-0.19808944
131	0x3e841012	0.2579351
132	0xbd1c402b	-0.038147133
133	0xbe06f2c7	-0.1317855
134	0x3d905391	0.07047189
135	0xbe318158	-0.17334497
136	0xbdc5f9d1	-0.09666789
137	0x3ceef11a	0.0291677
138	0xbda39f78	-0.079894006
139	0xbdfb0bde	-0.12258123
140	0xbc5f73b7	-0.013638428
141	0xbd691ae3	-0.056910407
142	0xbe1574db	-0.14595358
143	0xbde30cdf	-0.11086439
144	0xbd8fbf93	-0.07018962
145	0x3e2f609d	0.17126699
146	0x3e2f883c	0.17141813
147	0x3da0e160	0.07855487
148	0xbe004988	-0.1252805
149	0xbdb330bc	-0.0874953
150	0x3df0bb9f	0.11754536
151	0x3dd2e804	0.1029816
152	0xbe00a1ae	-0.12561676
153	0xbd94f4f6	-0.07273285
154	0xbd2b1d31	-0.041775886
155	0x3c96119b	0.018318942
156	0x3c0d457d	0.008622524
157	0xbdbeafaf	-0.09310853
158	0xbd5089e7	-0.050912764
159	0x3e3c16b4	0.18368036
160	0xba9f57e7	-0.0012156934
161	0x3d8d21ff	0.0689125
162	0xbcdc8442	-0.026918534
163	0xbe40009c	-0.18750232
164	0x3cb154dd	0.021646911
165	0x3e2d8e70	0.16948867
166	0xbdb51fb9	-0.08843941
167	0x3d7dcada	0.061961032
168	0xbda24289	-0.07922847
169	0x3de2d24c	0.11075267
170	0xbd808e24	-0.06277111
171	0x3c6c4a5f	0.014422028
172	0xbcdcc144	-0.026947625
173	0x3d8af4e9	0.06784994
174	0x3e006e3a	0.12542048
175	0x3d489d82	0.048978336
176	0x3e3f602d	0.18689032
177	0xbd675a71	-0.056482736
178	0x3b47cbee	0.0030486542
179	0xbc67615b	-0.014122332
180	0x3d58fd0b	0.052975696
181	0x3d86eed1	0.06588519
182	0x3d827de2	0.063716665
183	0x3e08698d	0.13321514
184	0xbcb1551f	-0.021647034
185	0x3e29f0c8	0.16595757
186	0x3dd4e637	0.103954725
187	0xbcf2fed8	-0.029662535
188	0x3d7c9f9b	0.06167565
189	0xbdcd5433	-0.10025825
190	0x3de2adc5	0.110683
191	0x3d5d3b4d	0.05401163
192	0x3cd33654	0.025782742
193	0x3d6607cc	0.05615978
194	0x3db62064	0.08892897
195	0x3c7fb5a2	0.0156072695
196	0xbde7e122	-0.113222376
197	0xbe33f0d9	-0.17572345
198	0x3dde84e1	0.108651884
199	0xbd309d78	-0.043118924
200	0x3d834416	0.06409471
201	0x3d45c99c	0.048287973
202	0x3d00cc95	0.031445105
203	0x3c9d0ed7	0.019172115
204	0xbceab0ab	-0.028648695
205	0xbcc2c7b4	-0.023776866
206	0x3d90afc7	0.07064777
207	0x3e03f932	0.12888029
208	0x3dca594a	0.09880312
209	0xbd39bd66	-0.04534664
210	0x3dcbce0b	0.09951409
211	0x3bd6d6b6	0.0065563573
212	0x3ccd1c89	0.02503802
213	0xbe7abdfe	-0.24486539
214	0x3dd4897b	0.10377785
215	0x3da1ff92	0.07910074
216	0xbd319fa4	-0.043365136
217	0xbd128f32	-0.035781093
218	0x3e62a447	0.2213298
219	0xbe476afc	-0.19474405
220	0xbd56985d	-0.0523914
221	0xbd348b95	-0.04407843
222	0xbcad8ceb	-0.021185359
223	0x3d848baa	0.06471951
224	0xbe35e708	-0.17763913
225	0x3c1d6ae0	0.0096080005
226	0xbe12b00a	-0.14324966
227	0x3d65fa70	0.05614704
228	0x3e488a61	0.19584037
229	0xbe7b9e71	-0.2457216
230	0xbdf1b925	-0.11802892
231	0x3de5fa18	0.11229342
232	0xbd8ad56b	-0.067789875
233	0xbd499c2d	-0.049221206
234	0xbd6c6bf6	-0.057720147
235	0x3e2389fc	0.15970606
236	0x3e236b76	0.15958962
237	0xbdc74ad0	-0.09731066
238	0xbe04dca5	-0.12974794
239	0xbcb4dd53	-0.022078192
240	0xbdcbd51d	-0.099527575
241	0x3e4d8dec	0.2007367
242	0x3d24d287	0.040239837
243	0x3e3b3237	0.18280874
244	0x3d95b663	0.07310178
245	0x3ea9d34f	0.33169028
246	0x3e5fc490	0.21852326
247	0x3d545052	0.051834412
248	0x3cbceb59	0.023061441
249	0xbe58ff77	-0.21191202
250	0xbe5c93f7	-0.21540819
251	0xbddd2248	-0.10797554
252	0xbd8892b7	-0.06668609
253	0xbe0dc4a7	-0.13844548
254	0x3d207579	0.03917453
255	0x3ceec5d5	0.029147068

hidden_layers.3.fc.4.weight f4 [32]
0	0x3f4f3d87	0.8095326
1	0x3f829555	1.0201823
2	0x3f7bd7a1	0.983759
3	0x3f67b10b	0.9050452
4	0x3f757d92	0.9589473
5	0x3f71e2c4	0.9448664
6	0x3fb1adbe	1.3881147
7	0x3f433ff9	0.7626949
8	0x3f8f6bcc	1.1204772
9	0x3f961c31	1.1727353
10	0x3f6767ca	0.90392745
11	0x3f5ed52e	0.87044036
12	0x3f62381f	0.88366884
13	0x3f6bc827	0.92102283
14	0x3f6b276c	0.9185703
15	0x3f94f940	1.1638565
16	0x3f6b7433	0.9197418
17	0x3f761bcc	0.96136165
18	0x3f71bfd2	0.9443332
19	0x3f4cedf0	0.80050564
20	0x3fa55346	1.2916038
21	0x3f6c9d33	0.92427367
22	0x3f88cfbb	1.0688394
23	0x3f937e6b	1.1522955
24	0x3f710136	0.9414247
25	0x3f836ca8	1.0267534
26	0x3f3ad406	0.7297977
27	0x3f753fee	0.95800674
28	0x3f7a2f05	0.97727996
29	0x3f8fb543	1.1227192
30	0x3f713d2a	0.94233954
31	0x3f7d5b5e	0.9896754

hidden_layers.3.fc.4.bias f4 [32]
0	0xbe1b8e68	-0.15191042
1	0xbcfb9196	-0.03070907
2	0xbccfe3dc	-0.025377207
3	0xbd2f0c3e	-0.042736284
4	0x39fc840d	0.0004816357
5	0xbd5e5eea	-0.054289736
6	0xbe0dcf39	-0.1384858
7	0xbdd6f7b2	-0.10496463
8	0xbda9b666	-0.08286743
9	0xbd9b3cd3	-0.07579961
10	0xbda58a89	-0.08083064
11	0xbe0eb509	-0.13936247
12	0xbe2ed394	-0.17072898
13	0xbe3681fd	-0.17823024
14	0xbdd3fe81	-0.10351277
15	0xbda4609e	-0.08026241
16	0xbe480ca2	-0.19536069
17	0xbe28cc9c	-0.16484302
18	0xbdaeca51	-0.085346825
19	0xbe1ad46b	-0.15120094
20	0xbe383fc5	-0.17993076
21	0xbdbfdacf	-0.09367906
22	0xbd8b0d8b	-0.067896925
23	0xbd50de79	-0.050993416
24	0xbd5dff3b	-0.054198485
25	0xbd92dfd1	-0.07171596
26	0xbb1cc7f9	-0.0023922904
27	0xbd466aee	-0.04844182
28	0x3df2292b	0.118242584
29	0xbe048484	-0.12941176
30	0xbd5951c1	-0.053056482
31	0xbd51edfb	-0.051252346

hidden_layers.4.fc.0.weight f4 [32, 32]
0	0x3e4cdb6d	0.2000558
1	0xbdcba070	-0.099427104
2	0xbbf69283	-0.00752479
3	0xbbea5ead	-0.0071523995
4	0x3dd9e7f8	0.10639948
5	0x3e039799	0.12850799
6	0xbe0be584	-0.13661772
7	0x3dc067a6	0.09394769
8	0xbe10eb09	-0.14152159
9	0xbe533675	-0.20626242
10	0x3dd44b0c	0.103658766
11	0x3dda9850	0.106735826
12	0x3e70681a	0.23477212
13	0x3d9f9638	0.07792324
14	0xbde1c56d	-0.11023984
15	0xbd09aada	-0.033610202
16	0xbdaa8c89	-0.08327586
17	0xbe1d15e0	-0.15340376
18	0xbcb766ed	-0.022387946
19	0xbdacb031	-0.08432043
20	0xbdde95b2	-0.10868396
21	0x3d912b59	0.07088346
22	0x3e6207e6	0.22073326
23	0x3c080a05	0.00830317
24	0x3e2ba310	0.16761422
25	0x3e9cde79	0.30638483
26	0x3e3775e8	0.17916071
27	0x3e846e33	0.25865325
28	0xbe172246	-0.14759168
29	0x3e3d8b9e	0.18510291
30	0xbd9dad64	-0.07699087
31	0x3d0751b5	0.033036906
32	0x3dc2b95a	0.09508009
33	0xbe244903	-0.16043477
34	0xbe257793	-0.16158895
35	0xbdaa5ddb	-0.08318683
36	0xbd861601	-0.06547166
37	0xbdd9f38d	-0.10642157
38	0xbe183518	-0.14864004
39	0xbe2ac6d4	-0.1667741
40	0x3e731754	0.23739368
41	0xbc06024f	-0.008179261
42	0x3d85dc73	0.06536188
43	0xbd11e39c	-0.035617456
44	0xbde44225	-0.111454286
45	0x3dd4a086	0.1038218
46	0x3c5b5f87	0.013389475
47	0xbe08c938	-0.13358009
48	0xbdc6563d	-0.096844174
49	0x3e0ebf8d	0.13940258
50	0xbd056a9c	-0.032572374
51	0x3e4612f5	0.19343169
52	0x3e0d5c02	0.1380463
53	0x3d8796a1	0.06620527
54	0xbc7a260b	-0.015267859
55	0xbe4fba82	-0.20285991
56	0xbb15c8cb	-0.0022855278
57	0xbdd2002a	-0.102539375
58	0xbe1fe01e	-0.15612838
59	0xbd9abf56	-0.07556026
60	0xbce739ad	-0.028225744
61	0xbb35f2ca	-0.0027763122
62	0xbd84623c	-0.06464049
63	0xbdcea664	-0.1009033
64	0x3d451f72	0.04812569
65	0x3d2a7f24	0.041625157
66	0xbb06b1e3	-0.0020552806
67	0x3dde4b77	0.108542375
68	0x3cba7f5b	0.022765806
69	0xbe1a3fa9	-0.15063347
70	0xbda6ba99	-0.081410594
71	0x3e01734e	0.12641641
72	0xbe0b5967	-0.13608323
73	0xbe50425b	-0.20337813
74	0x3e8b47dd	0.27203265
75	0xbdfce387	-0.12348085
76	0xbc98cdff	-0.018652914
77	0x3c88c41a	0.016695071
78	0xbcf05274	-0.029336192
79	0xbe1bab11	-0.15201975
80	0xbe5681ba	-0.20947924
81	0xbc678f2c	-0.014133256
82	0xbe0933f2	-0.13398722
83	0xbd09a9c1	-0.033609156
84	0x3d8c4880	0.06849766
85	0x3da05ac5	0.07829813
86	0xbe4ee2eb	-0.2020375
87	0xbcd62d5a	-0.026144672
88	0x3d16e37b	0.036838036
89	0xbde8ebb3	-0.11373081
90	0xbd6aeff8	-0.05735776
91	0xbc96240a	-0.018327732
92	0x3d193523	0.03740419
93	0x3e0e2ffd	0.13885494
94	0xbd8a0b91	-0.06740487
95	0xbd910dd0	-0.07082713
96	0x3dcc5ad2	0.0997826
97	0x3c4d0d20	0.012515336
98	0xbe81a22b	-0.25319037
99	0x3dc6511c	0.09683439
100	0xbe3d6746	-0.18496427
101	0xbd01cacb	-0.03168754
102	0x3be43385	0.0069641494
103	0xba83f418	-0.0010067252
104	0x3e389a99	0.18027724
105	0x3dfa4b44	0.12221387
106	0xbe1d4afd	-0.15360637
107	0x3d8a0977	0.067400865
108	0xba4c1d82	-0.00077863794
109	0x3d4fdeef	0.050749715
110	0x3d8452dc	0.06461117
111	0x3dd189c7	0.10231357
112	0xbd50fb4c	-0.051020905
113	0x3d224d85	0.03962471
114	0xbe6a2411	-0.2286532
115	0xbe936bf9	-0.28793314
116	0x3df3b821	0.11900354
117	0x3e15f6fd	0.14645
118	0xbe6ca6d6	-0.23110518
119	0xbda8c5b0	-0.08240831
120	0x3d7bca76	0.06147238
121	0x3e74dcdc	0.23912376
122	0xbda85856	-0.08219974
123	0x3d63ca27	0.05561271
124	0xbe089f10	-0.13341928
125	0xbe7ab05d	-0.2448134
126	0x3bb2dfec	0.0054588225
127	0x3df6fdf4	0.120601565
128	0xbe967be4	-0.29391396
129	0xbe19582a	-0.14975038
130	0xbe0ba880	-0.13638496
131	0xbe2d43ee	-0.16920444
132	0xbd18a54b	-0.03726701
133	0x3dbba508	0.091623366
134	0xbcd32d26	-0.025778364
135	0xbce73300	-0.02822256
136	0x3b7316c1	0.003709242
137	0x3d1d1223	0.038347375
138	0x3db795bd	0.08964107
139	0xbdb6b923	-0.08922031
140	0xbd9bd30f	-0.076086156
141	0x3d44d6c7	0.04805639
142	0xbe0405b6	-0.12892804
143	0xbe4c9474	-0.19978505
144	0xbd99b89c	-0.075059146
145	0xbda6d60c	-0.08146295
146	0x3d719dd2	0.0589884
147	0xbc9af794	-0.018916883
148	0x3e3d966a	0.1851441
149	0xbd0b81c9	-0.03405932
150	0xbe515cb0	-0.20445514
151	0x3e8b28bc	0.27179515
152	0xbe35bf7b	-0.17748825
153	0xbd9ede61	-0.07757259
154	0x3d6d9dbb	0.05801175
155	0x3c0769ee	0.008265002
156	0x3f17056c	0.5899265
157	0x3e187ab6	0.1489056
158	0xbdc71ab2	-0.097218886
159	0xbdf5f029	-0.120086975
160	0x3c9e9cb5	0.019361833
161	0xbe10e861	-0.14151146
162	0x3d806745	0.06269697
163	0xbdb665c5	-0.0890613
164	0x3cf546d8	0.029941007
165	0x3c62f347	0.013851947
166	0x3e0f7620	0.14009905
167	0x3d87b485	0.06626228
168	0xbe0cd9fb	-0.13755028
169	0x3e27b180	0.16376305
170	0x3cc8ae0f	0.02449706
171	0x3da7d7d5	0.081954636
172	0xbe580dbb	-0.21098988
173	0xbe366902	-0.17813495
174	0xbdcf0f93	-0.101103924
175	0x3d8f7417	0.07004564
176	0xbe063410	-0.13105798
177	0xbda5bf24	-0.08093098
178	0xbdd345a6	-0.10316019
179	0x3b1047df	0.0022015495
180	0x3c7a4585	0.015275364
181	0xbe5f133d	-0.21784683
182	0x3d376203	0.044771206
183	0x3d793c1e	0.060848348
184	0xbaf3d3d5	-0.001860256
185	0xbe18934c	-0.1489994
186	0xbe2da029	-0.16955628
187	0xbdac49d8	-0.08412522
188	0xbcadcb29	-0.021215038
189	0xbc81ebf6	-0.015859585
190	0xbddbcba2	-0.10732199
191	0xbda8f19b	-0.082492076
192	0x3e719223	0.23590903
193	0x3d0100b1	0.0314948
194	0x3ddf3c56	0.1090018
195	0x3e0f40c3	0.13989548
196	0xbe42b156	-0.19012961
197	0xbd9088d3	-0.07057347
198	0xbd630ce4	-0.055432215
199	0x3ca7f5d2	0.020502958
200	0xbe4736ef	-0.19454549
201	0x3e577285	0.2103978
202	0x3dd54472	0.104134455
203	0x3e3c856e	0.18410274
204	0x3e398d17	0.18120228
205	0x3d97b7d0	0.07408106
206	0xbe1f2b91	-0.15543963
207	0x3dfbbaa0	0.12291455
208	0xbdd17957	-0.10228222
209	0x3de1092a	0.10988076
210	0x3de926bc	0.11384341
211	0x3dfda21b	0.12384435
212	0x3e2ccb46	0.16874418
213	0x3d4974e2	0.049183734
214	0x3dc1b530	0.09458387
215	0xbdc78569	-0.09742243
216	0x3e5872bd	0.21137519
217	0x3df43f56	0.11926143
218	0xbd5edcf8	-0.05440995
219	0x3e6151ff	0.22003935
220	0xbe977fd3	-0.2958971
221	0x3e34c1cb	0.17652051
222	0x3e69471f	0.22781037
223	0xbe51e203	-0.20496373
224	0xbeb928e4	-0.3616401
225	0xbe0ea020	-0.1392827
226	0xbb3964cb	-0.0028288837
227	0xbe3583e9	-0.17726101
228	0xbd9f6f99	-0.077849574
229	0xbdd3028f	-0.103032224
230	0xbe3dcf61	-0.1853614
231	0xbea5ad76	-0.32358903
232	0x3e9cde46	0.3063833
233	0x3dfa84d3	0.122323655
234	0x3d0d40c1	0.034485582
235	0xbe0005ac	-0.12502164
236	0xbe5af371	-0.21381928
237	0x3d9f2ebc	0.07772586
238	0xbe29a559	-0.16566981
239	0x3e0cf060	0.13763571
240	0xbe5ec67f	-0.21755408
241	0x3d93929b	0.07205697
242	0xbcc45f38	-0.023971185
243	0xbd022c29	-0.031780396
244	0xbc8caad5	-0.017171303
245	0x3b5f76b8	0.0034097861
246	0xbe21a232	-0.15784529
247	0x3e2c4719	0.16823997
248	0xbd9f52f1	-0.07779492
249	0x3d9b80ab	0.07592901
250	0x3c2db684	0.010602597
251	0xbe253bdc	-0.16136116
252	0x3f180c61	0.5939389
253	0xbec2a8d3	-0.38019428
254	0xbd4fc728	-0.05072704
255	0xbc108392	-0.008820431

hidden_layers.4.fc.1.weight f4 [32]
0	0x3f8745f6	1.0568225
1	0x3f824320	1.0176735
2	0x3f82f5a1	1.023121
3	0x3f763ae6	0.9618362
4	0x3f94a4ab	1.1612753
5	0x3f786759	0.97032696
6	0x3f847b13	1.0350059
7	0x3f7c51ad	0.9856213
8	0x3f8c51af	1.0962428
9	0x3f808586	1.0040748
10	0x3f794149	0.9736524
11	0x3f857872	1.0427382
12	0x3f8a2b61	1.0794488
13	0x3f7766da	0.96641314
14	0x3f85c6a9	1.0451251
15	0x3f8f7bfa	1.120971
16	0x3f66999c	0.9007814
17	0x3f7da094	0.9907315
18	0x3f8a11ed	1.078672
19	0x3f88bfc8	1.0683527
20	0x3f5acda2	0.8547002
21	0x3f864f3d	1.0492932
22	0x3f8dcf54	1.1078897
23	0x3f8389ff	1.0276488
24	0x3f8f72b3	1.1206878
25	0x3f8902b0	1.0703945
26	0x3f650a96	0.8946928
27	0x3f7ee073	0.9956123
28	0x3f937d64	1.1522641
29	0x3f71cd86	0.9445423
30	0x3f799219	0.9748855
31	0x3f83a92b	1.0286001

hidden_layers.4.fc.1.bias f4 [32]
0	0x3d98f0d7	0.074678116
1	0xbd41f077	-0.047348466
2	0xbcdf6511	-0.027269872
3	0xbcb7a9fb	-0.02241992
4	0xbdc476b6	-0.09592955
5	0xbc86254e	-0.01637521
6	0x3d6f7ab9	0.058466647
7	0xbe277b13	-0.16355543
8	0x3c9052bf	0.017617581
9	0xbdfebe73	-0.12438669
10	0xbae3ef53	-0.001739005
11	0x3d5355c1	0.051595453
12	0xbd11fcfa	-0.035641648
13	0xbbe196ef	-0.0068844478
14	0x3d94a894	0.07258716
15	0xbcf2b140	-0.029625535
16	0x3d9a04fc	0.07520482
17	0xbc2a2c95	-0.010386606
18	0xbe36b825	-0.17843683
19	0xbcdb546f	-0.02677366
20	0x3b9d7f3e	0.004806428
21	0xbcde91ad	-0.027169073
22	0xbcd890e5	-0.026436279
23	0x3ca2e525	0.019884655
24	0xbbe9fbcf	-0.0071406136
25	0xbdc9aea1	-0.09847761
26	0xbd2b5629	-0.041830216
27	0xbd8cbd0d	-0.06871996
28	0x3d78866c	0.06067507
29	0x3a14474b	0.00056563754
30	0x3c9b9fc3	0.018997079
31	0x3d9c55fb	0.07633587

hidden_layers.4.fc.3.weight f4 [32, 32]
0	0x3e318d60	0.17339087
1	0xbe82d206	-0.2555086
2	0x3e914a94	0.2837721
3	0x3d34d713	0.044150423
4	0x3ddf7071	0.10910118
5	0xbb516d8c	-0.0031956164
6	0xbd023446	-0.031788133
7	0xbdc4ab02	-0.0960293
8	0xbde21ae6	-0.11040287
9	0xbe4588b7	-0.19290434
10	0xbd184db6	-0.037183486
11	0xbbe67a86	-0.007033649
12	0x3e1ba564	0.1519981
13	0xbe5e5c11	-0.21714808
14	0x3e1f5091	0.15558077
15	0xbd49388f	-0.049126204
16	0x3e450a7e	0.19242284
17	0xbe512341	-0.20423605
18	0x3e1692c3	0.14704423
19	0x3e97c17b	0.296398
20	0xbd57de3d	-0.052702177
21	0xbe0eb18d	-0.13934918
22	0x38fe9bd0	0.00012140686
23	0x3e890bca	0.26766807
24	0x3d04dacc	0.032435223
25	0xbdc2ee5b	-0.09518119
26	0x3e1088b9	0.14114656
27	0xbdce0838	-0.10060161
28	0x3b01cbd4	0.001980533
29	0xbdce382b	-0.10069307
30	0x3d80ba39	0.06285519
31	0xbdab4798	-0.08363265
32	0x3d9f7a1d	0.07786963
33	0x3c989ce3	0.018629497
34	0x3e562fc4	0.20916659
35	0x3d870300	0.06592369
36	0x3e3186b2	0.17336538
37	0x3e145d51	0.14488722
38	0x3cd3d3bf	0.025857804
39	0xbe094524	-0.13405281
40	0xbda54f0a	-0.08071716
41	0xbc726cbf	-0.014796435
42	0x3d6347b8	0.05548832
43	0x3e2c885e	0.16848895
44	0x3dc2f2cb	0.09518965
45	0xbe4dd16e	-0.20099422
46	0xbc77a202	-0.015114309
47	0xbd16f3fd	-0.03685378
48	0xbdc09288	-0.094029486
49	0xbc2c359a	-0.0105108265
50	0x3e614f1c	0.22002834
51	0x3d8f2dc3	0.0699115
52	0x3e21e95e	0.15811679
53	0xbc263480	-0.010144353
54	0xbd3a6990	-0.04551083
55	0xbd86592b	-0.06559976
56	0xbcbec4dc	-0.02328723
57	0x3ce5cf58	0.02805297
58	0x3e818855	0.25299326
59	0xbd60e907	-0.054909732
60	0xbdc0a972	-0.09407319
61	0x3df5feb1	0.12011469
62	0x3d402bf3	0.046916913
63	0x3e249d19	0.16075553
64	0xbcdb6332	-0.026780698
65	0xbe0f4300	-0.13990402
66	0x3c7ccf19	0.015430235
67	0xbd0ae177	-0.033906426
68	0xbca282e9	-0.019837813
69	0x3dd9c528	0.10633308
70	0xbe556885	-0.20840652
71	0x3b9fa82b	0.004872342
72	0xbec93025	-0.39294544
73	0x3d6d0ec8	0.057875425
74	0xbdd45b88	-0.10369021
75	0xbdc6856f	-0.09693419
76	0x3e653697	0.22384106
77	0xbe1296fb	-0.14315407
78	0xbd8547f4	-0.065078646
79	0x3e53a229	0.20667328
80	0x3d8eb600	0.069683075
81	0xbd85e51c	-0.0653784
82	0xbe1e136a	-0.15437093
83	0x3b5a5d21	0.003331967
84	0xbe12e382	-0.143446
85	0x3d5b7a4a	0.05358342
86	0x3d4630bf	0.04838633
87	0x3e65415e	0.22388217
88	0xbe2a5bc7	-0.16636573
89	0xbca440d7	-0.02005045
90	0x3df29562	0.11844899
91	0x3caa7849	0.02080931
92	0xbe8a7e1a	-0.27049333
93	0x3dc472fa	0.095922425
94	0x3daf99ba	0.08574243
95	0xbe38f1fc	-0.1806106
96	0xbe2d95e4	-0.1695171
97	0x3e2f0baa	0.17094293
98	0x3e644045	0.22290142
99	0xbe2ce722	-0.16885045
100	0x3e2635ec	0.16231507
101	0xbc0fce6b	-0.008777241
102	0xbdfd3097	-0.123627834
103	0x3d44f26d	0.048082758
104	0xbd0dcb51	-0.034617726
105	0xbe1b7867	-0.15182649
106	0xbcb20be9	-0.021734195
107	0xbdfeffac	-0.12451109
108	0x3daaa680	0.083325386
109	0xbd78d632	-0.060751148
110	0x3df29e17	0.118465595
111	0xbdd11bd9	-0.1021039
112	0xbe82ff71	-0.2558551
113	0xbe287d0d	-0.16453953
114	0xbe051983	-0.12998013
115	0x3e309eb1	0.17248036
116	0x3c287f2a	0.0102842245
117	0x3db928a3	0.09040954
118	0x3e68b3d1	0.22724845
119	0x3e3c0ba0	0.1836381
120	0xbe9f28bd	-0.31085768
121	0xbe42c0ab	-0.1901881
122	0x3d733085	0.059372444
123	0xbda2bd7e	-0.07946299
124	0xbe8f366d	-0.2797121
125	0xbdaab26e	-0.08334814
126	0x3cdb324f	0.026757387
127	0xbe462e5d	-0.19353624
128	0x3cbddb82	0.023175959
129	0x3d8b60a1	0.0680554
130	0x3e3df187	0.18549167
131	0x3d13e209	0.036104236
132	0x3d959b91	0.073050626
133	0x3de75b5f	0.112967245
134	0xbd9a9b9a	-0.0754921
135	0xbb596a1a	-0.0033174814
136	0xbd4356b0	-0.047690094
137	0x3d579a1f	0.052637216
138	0xbe019817	-0.12655674
139	0x3e31bf87	0.17358218
140	0x3e738ba3	0.23783736
141	0x3d4c2d68	0.04984799
142	0x3d9b534d	0.07584248
143	0x3ccb2d42	0.024801854
144	0xbdc5b01c	-0.09652731
145	0xbd331299	-0.043718908
146	0x3e4b96a8	0.1988169
147	0xbc392721	-0.011300833
148	0xbde0624a	-0.10956247
149	0xbd9ffe93	-0.07812228
150	0xbca3c3df	-0.01999086
151	0x3e26c586	0.16286287
152	0x3d685fbe	0.056731932
153	0xbd9d99fb	-0.07695385
154	0xbcf91cb1	-0.030409189
155	0x3d36e899	0.044655416
156	0xbe7e5b60	-0.24839544
157	0xbd4a3ea0	-0.04937613
158	0xbd961dac	-0.07329878
159	0x3e2ae15e	0.16687533
160	0xbe12dc68	-0.14341891
161	0x3d70b47f	0.058765884
162	0xbe049b8f	-0.12949966
163	0xbd61db99	-0.055141065
164	0x3dc2b909	0.09507949
165	0xbd99a086	-0.075013205
166	0xbd8684c9	-0.065682955
167	0xbcb48e0a	-0.022040386
168	0x3d76b7ec	0.060233995
169	0xbe3b3040	-0.18280125
170	0x3e1faf72	0.15594271
171	0x3d6d8612	0.057989188
172	0xbe449b70	-0.1919992
173	0x3d596145	0.05307128
174	0x3db18699	0.086682506
175	0xbe3513b5	-0.17683299
176	0x3dbab241	0.091160305
177	0x3e1c3dec	0.15257996
178	0x3d26b836	0.04070302
179	0xbe139ad3	-0.1441453
180	0xbe041810	-0.12899804
181	0xbd2f32e2	-0.042773135
182	0x3b2c83b1	0.0026323611
183	0xbd0cf4c0	-0.0344131
184	0x3ca48e7b	0.020087471
185	0x3cec9cda	0.028883386
186	0xbc88250f	-0.016619233
187	0x3e86bde3	0.26316747
188	0x3d5076ef	0.050894674
189	0x3e01c13f	0.12671374
190	0xbd635930	-0.055504978
191	0x3e1f9ee2	0.15587953
192	0x3d81a8a7	0.06330996
193	0x3b5248f5	0.0032086943
194	0xbe55a203	-0.20862584
195	0x3de32b23	0.11092212
196	0x3e04ca96	0.12967905
197	0xbcda45f3	-0.026644683
198	0xbcc426c8	-0.023944274
199	0xbc240e89	-0.010013231
200	0x3d9e64be	0.07734059
201	0x3d39e30c	0.045382544
202	0x3e19995d	0.1499991
203	0x3db335a3	0.08750465
204	0xbe846869	-0.2586091
205	0x3e3da9cc	0.18521804
206	0xbd8afdc2	-0.06786682
207	0xbd8e2de8	-0.0694235
208	0x3d584cfc	0.052807793
209	0xbca8bc12	-0.020597491
210	0x3d87f1b2	0.066378966
211	0xbdc9ff76	-0.098631784
212	0xbe01b24a	-0.12665668
213	0xbe02bfbd	-0.12768455
214	0xbe3c38fc	-0.18381113
215	0xbd91201a	-0.07086201
216	0xb9a71299	-0.00031866579
217	0xbe312289	-0.1729833
218	0x3c867598	0.016413495
219	0x3dbc32df	0.091893904
220	0x3e62b833	0.22140579
221	0xbd74c82c	-0.05976121
222	0xbd897735	-0.0671219
223	0xbd9776fe	-0.07395743
224	0x3e5bf642	0.21480659
225	0xbe3454d7	-0.17610489
226	0x3da1f014	0.079071194
227	0x3e46e786	0.19424257
228	0xbe2db7c5	-0.16964634
229	0xbdef8c82	-0.116967216
230	0x3e483bea	0.19554105
231	0x3df58dd3	0.119899414
232	0x3d850733	0.06495514
233	0x3dcb168f	0.09916412
234	0xbd6d899f	-0.057992574
235	0x3e08ecd2	0.1337159
236	0xbd3d5667	-0.046224978
237	0x3d9bcf23	0.076078676
238	0xbad5f5bf	-0.0016323848
239	0xbd54e747	-0.051978376
240	0x3d1802f3	0.037112188
241	0x3d686998	0.056741327
242	0x3d6d8155	0.05798467
243	0xbd845e03	-0.06463244
244	0xbdf277c4	-0.1183925
245	0x3e03ab2d	0.12858267
246	0x3d54826f	0.051882204
247	0x3e40b319	0.1881832
248	0x3dad57b0	0.08463991
249	0x3e0bfb19	0.13670005
250	0xbe71f9c1	-0.2363043
251	0xbe0949a0	-0.13406992
252	0xbe3738dc	-0.17892784
253	0xbccce658	-0.02501218
254	0xbe4cc4c5	-0.19996937
255	0xbbf30705	-0.0074166083

hidden_layers.4.fc.4.weight f4 [32]
0	0x3f981662	1.1881831
1	0x3f6f34f3	0.9344017
2	0x3f7ee82a	0.99573004
3	0x3f92432f	1.1426753
4	0x3f71bffb	0.94433564
5	0x3f6fc628	0.9366174
6	0x3f6cef7d	0.9255293
7	0x3f749c99	0.9555145
8	0x3f86c7cf	1.0529727
9	0x3f666e1e	0.90011775
10	0x3f6887ab	0.9083201
11	0x3f736c2f	0.9508695
12	0x3f35406c	0.70801425
13	0x3f829688	1.0202188
14	0x3f81b0e5	1.0132109
15	0x3f66562a	0.89975226
16	0x3f53fabd	0.8280447
17	0x3f7e7ef3	0.9941246
18	0x3f709119	0.939714
19	0x3f6af3d8	0.91778326
20	0x3f7adbf7	0.9799189
21	0x3f769d50	0.9633379
22	0x3f6a005b	0.9140679
23	0x3f7a08e3	0.9766981
24	0x3f8aa0c6	1.0830314
25	0x3f690e2e	0.9103726
26	0x3f8a1ef7	1.07907
27	0x3f794772	0.9737464
28	0x3f800788	1.0002298
29	0x3f69debc	0.9135549
30	0x3f80eca4	1.0072217
31	0x3f906682	1.1281283

hidden_layers.4.fc.4.bias f4 [32]
0	0xbcd0919b	-0.025460055
1	0xbd493276	-0.04912039
2	0x3c8618b4	0.016369201
3	0xbdd37b78	-0.10326284
4	0xbcdc23a6	-0.026872467
5	0xbd2389d6	-0.039926372
6	0xbd91cd84	-0.07119277
7	0xbd48dece	-0.049040608
8	0xbd8bd43e	-0.06827591
9	0x3b9a1b18	0.004702937
10	0xbd4d3bca	-0.050105847
11	0xbd1e683c	-0.038673624
12	0xbd20ffa7	-0.03930631
13	0xbcf23df9	-0.029570566
14	0xbca8317e	-0.020531412
15	0xbd891f7f	-0.066954605
16	0xbd8bd661	-0.06827999
17	0xbcbd1317	-0.023080392
18	0xbd9c5f91	-0.07635415
19	0xbda8532d	-0.082189895
20	0x3ce96096	0.028488439
21	0xbdf8acf7	-0.121423654
22	0xbd55d6dc	-0.05220686
23	0x3bef7e8e	0.0073087877
24	0xbda4a1a7	-0.08038645
25	0xbdca78e7	-0.098863415
26	0x3b51cfed	0.0032014803
27	0xbdb64cf3	-0.08901396
28	0x3d8f089f	0.06984066
29	0xbd492112	-0.049103804
30	0xbdb5a352	-0.088690415
31	0xbdd5dbfc	-0.10442349

hidden_layers.5.weight f4 [1, 32]
0	0xbc67a4ca	-0.01413841
1	0xbd8d3361	-0.068945654
2	0x3e05f4f6	0.13081726
3	0x3e2631c8	0.16229928
4	0xbd88d456	-0.06681125
5	0x3df333be	0.118751034
6	0x3e05b303	0.13056569
7	0xbbe1803c	-0.006881742
8	0x3e0dcd64	0.13847882
9	0x3e0bf113	0.13666181
10	0xbd5913c0	-0.05299735
11	0xbb777113	-0.0037756606
12	0xbb925c5f	-0.004466578
13	0x3e08f2e9	0.13373913
14	0xbc44495b	-0.01198038
15	0x3e07c1b8	0.13257492
16	0x3e0b2180	0.13586998
17	0xbd36e716	-0.044653974
18	0xbccb44aa	-0.024813015
19	0xbbe802d5	-0.0070804157
20	0x3c533679	0.012891405
21	0x3e044fab	0.12921016
22	0xbbbabc85	-0.005698743
23	0x3e2af7f2	0.16696146
24	0xbdcf0742	-0.10108806
25	0xbd02033d	-0.03174137
26	0x3cea0acb	0.0285696
27	0x3e02a95d	0.1275992
28	0x3e03f5e9	0.12886776
29	0xbbef911e	-0.0073110005
30	0x3de74de6	0.11294155
31	0x3e15d68c	0.14632624
