DFT/checkpoints/NN_XALPHA/state_dict_0.067.pth (torch, 284057 bytes, 16 tensors)

hidden_layers.0.weight f4 [128, 7]
00000000: f145 e7bd a8b1 0fbe fae2 973e dd6f 35be
00000010: ee12 09be 5f42 623e 0019 d3be 3ac9 fe3d
00000020: ad39 303e 3be4 243e d62c 053e 6023 4f3e
00000030: 964e c13e 4c36 0b3e 4d50 35be 8148 e13e
00000040: b32a be3e 6aa4 743d d71a 04be 70e5 49be
00000050: 67f3 d0be 3fb1 613e 162a 86bd 45b1 6c3e
00000060: 2ac5 e63d 1f65 d1bd ea94 5bbe 2ae6 303e
00000070: 01aa 42be d002 c73c 264c 3f3e 677c 7ebe
00000080: f9f3 41bd 9d6d 25be 84e0 68bd 2b3e e03e
00000090: 00e3 963e f8b0 79bd bda9 d43e b5fd 24bd
000000a0: de89 613e ef6f 5b3e 1324 0d3d 20df 95be
000000b0: 2ee5 b63e 4039 95bd b6cf 8b3e 3bea 63be
000000c0: b54c ac3b 641f b43e 49ad 98be 7b11 f23c
000000d0: eefe ab3a 1f2d 9dbe 2579 9fbd e7d1 bebe
000000e0: 67cc 753c d852 a13c 3be6 2d3e ca2d 9ebd
000000f0: e458 45be 2d93 15bd 48f1 aebc e03f cd3e
00000100: 3daf 673e abf8 52be 9f1c 6a3e ce86 de3d
00000110: 2646 9c3e 10cf f9bd 2806 c03e c945 273e
00000120: a6e6 98be d4ee 893d 6ec5 95bd aec0 383e
00000130: e23e b9be e216 32bd 6196 703e ed4b d33d
00000140: d496 183e de0e 963e f376 1f3e f037 ed3d
00000150: 4729 113e 3552 b53d 8bcd c33e 67a7 0bbd
00000160: 8aba d53d de0e ac3c 4f18 e0bd 4d88 b83e
00000170: 18cd c53d c52a 8bbe 880e 8e3e 8ce3 abbd
00000180: 40f5 cdbc e042 cabe e56b 073e 1c98 93be
00000190: 13c6 98bd 008a 953e 8787 133d 9c4e 993e
000001a0: f26c 74be f0cb d6be 48cd bcbe 8691 13be
000001b0: 86d2 e4bd 3765 00bd 4752 123e fdd8 873e
000001c0: cb66 b5be 1e22 52be a1e1 bc3e 4692 d0bb
000001d0: f9d4 88bd 70ed d5be 2019 90bd 5cb7 9fbe
000001e0: 7440 b63e dc78 26be e000 c3bd a641 b33d
000001f0: b70c 1b3e db62 873e dc44 cdbd faaf a2be
00000200: 1a87 b53e 0764 a4bd e608 203e 0660 57be
00000210: 58fe 0bbe 978d a3bc e21c f4bd 7c5b a3bc
00000220: 579a c83d fda5 27ba b051 a6bd f77a da3d
00000230: 6986 a43e c5df b63e ddb6 a03e 3384 783e
00000240: e3bf 533e 0f2b bb3e da31 d7be 1c08 d5be
00000250: 29cf 243e 165b 9d3e 2c7d acbe 4fb3 ce3d
00000260: 0895 9cbd c7de c03d cb72 a43e 7c26 85be
00000270: 26bf 193e 80e3 7e3e 5f97 1c3e 4a1e 7fbe
00000280: f94a 3d3e 86b6 eebe b49d a3be 9978 8bbe
00000290: 4fe6 4f3e f329 a63c d115 7a3e cf16 163e
000002a0: f23e 88bd 4c35 cd3e e8a8 4abe 40a3 b2bd
000002b0: 0f04 8cbd e768 293e 5f1a 2cbe 7139 8abe
000002c0: 13b5 833e 3bde 8d3e 7cf4 453e 9762 2f3e
000002d0: 029f 1fbe 86eb 33be a7cd 9ebe 19fc fa3c
000002e0: 41aa a83e 52de 963e 3523 d23e 4f0c 80be
000002f0: 92a0 94be 0043 373e 79e9 b83e 2d9d bebd
00000300: 7b60 c03d 3c3f 033e 456f 8b3e f4dd 1c3e
00000310: 5922 cbbe 8d2f 0cbe 05d4 073e 6a4a 9ebd
00000320: df09 a4be 3977 03be 174c 42bc 35c4 7b3e
00000330: c896 c53c eb6c 7a3e 6b8a 243a b879 483e
00000340: 3f6d ac3d 13be 9b3e 25a1 a33e 3d1c a0be
00000350: 3fec a8be e89b 53be 8200 6ebd f72d 13be
00000360: 313f adbe 1211 9eba e5e9 743e 4863 92be
00000370: 59cd f13d 5b8c 4abe 450c 033e 508d 88bd
00000380: b526 b33e 267e 8d3e 6f4b 54be f0e8 b93e
00000390: 63d7 86be aa17 bdbd 1deb 1e3e 12f0 923e
000003a0: 84ce cabd bd29 853d 050a b8bd 8006 2f3d
000003b0: b1a7 fabe e804 583d 5649 8b3e bfae 0c3e
000003c0: 1086 d63d f68f 83be fefe 75be 23cb 783c
000003d0: c935 033e 77c9 51be eba9 abbe e3a5 6a3c
000003e0: 22aa 6fbd 1ceb 3a3e d728 9c3d ea41 92be
000003f0: aa0c f4bd e51c aebd e351 c8be 223f 3d3e
-0.11292637 -0.14032614 0.29665357 -0.17718454 -0.13386127 0.22095631 -0.4123001 0.12440725
0.17209502 0.16102688 0.13005385 0.20228338 0.3775527 0.13594931 -0.17706414 0.4400063
0.37141952 0.05972711 -0.12900864 -0.1971643 -0.408107 0.2204027 -0.06550996 0.23114498
0.11268075 -0.102243654 -0.21443525 0.172753 -0.19010164 0.024293333 0.18681392 -0.24852143
-0.04735181 -0.16155095 -0.05685474 0.4379743 0.29470062 -0.060959786 0.4153575 -0.040281016
0.22025248 0.21429418 0.03445823 -0.29271793 0.35721725 -0.0728631 0.27306908 -0.2225732
0.0052581676 0.351802 -0.29819706 0.029549351 0.001312224 -0.30698487 -0.07786778 -0.37269518
0.015002347 0.019692823 0.16982357 -0.07723577 -0.1927219 -0.03651731 -0.021355286 0.40087795
0.22625442 -0.20602672 0.2286248 0.10865556 0.3052227 -0.12197697 0.37504697 0.16335215
-0.2986347 0.06735006 -0.07313047 0.18042251 -0.36180788 -0.043478854 0.23494865 0.10317216
0.14901286 0.29308218 0.1557272 0.11582935 0.14175902 0.0885357 0.38242754 -0.034095194
0.1043597 0.021003183 -0.109421365 0.3604149 0.09658259 -0.27181068 0.2774546 -0.083930105
-0.025141358 -0.39504147 0.13224752 -0.28826988 -0.07459655 0.29206848 0.03601792 0.29942787
-0.23869684 -0.41952467 -0.36875367 -0.14410982 -0.11172967 -0.031346526 0.14289199 0.26532736
-0.35429987 -0.20520827 0.3689089 -0.0063650934 -0.06681246 -0.41782713 -0.07036042 -0.3119458
0.3559605 -0.16257042 -0.09521651 0.08752756 0.15141569 0.26442608 -0.100228995 -0.31774884
0.35454637 -0.08026891 0.15628394 -0.21032724 -0.13671243 -0.019964976 -0.119195715 -0.019941084
0.09795063 -0.00063952786 -0.081210494 0.10667985 0.32133797 0.35717598 0.31389514 0.2426918
0.20678668 0.3655629 -0.4203022 -0.4160775 0.1609465 0.30733556 -0.3368925 0.10092794
-0.07645613 0.094174914 0.3211883 -0.26005924 0.15014324 0.24891472 0.15292118 -0.24913898
0.18485631 -0.4662363 -0.31956255 -0.27240446 0.203027 0.020283675 0.24422385 0.14657138
-0.06652631 0.40079725 -0.19790995 -0.08722544 -0.068367116 0.16543923 -0.16806935 -0.2699695
0.25724086 0.2770861 0.19331545 0.17127453 -0.15588 -0.17570314 -0.31016275 0.030637788
0.32942393 0.29466492 0.41042486 -0.2500939 -0.29028755 0.17896652 0.36115626 -0.09307323
0.09393402 0.12817091 0.2723333 0.15319043 -0.39674643 -0.13690014 0.13264473 -0.07729037
-0.3203878 -0.12838449 -0.011858962 0.24586566 0.02411975 0.24455611 0.00062767294 0.19577682
0.084192745 0.30418453 0.3195888 -0.31271544 -0.3299274 -0.20664942 -0.058105953 -0.14373003
-0.33837274 -0.0012059531 0.23917349 -0.2859137 0.11806745 -0.19780104 0.12797649 -0.06667578
0.3499047 0.27635306 -0.207319 0.3631053 -0.26336202 -0.09233029 0.15519376 0.28698784
-0.09902671 0.065021016 -0.08986286 0.04273081 -0.48956063 0.052739054 0.27204388 0.13738535
0.10474789 -0.2569577 -0.24023053 0.01518515 0.12813486 -0.20487009 -0.33528075 0.014321777
-0.05851186 0.1825375 0.07624977 -0.28565913 -0.11916478 -0.08501605 -0.39124975 0.18481115

hidden_layers.1.weight f4 [128]
00000000: 0919 873f 02c3 823f fa28 803f eb32 733f
00000010: c011 8a3f 0d65 7c3f 8998 643f 510a 853f
00000020: f7cb 7a3f 7453 8f3f 2149 843f 356b 713f
00000030: d541 7c3f e7cd 843f f043 703f 6271 7b3f
00000040: 2e2e 873f 9d6f 6b3f d487 6c3f 17e5 743f
00000050: fe13 793f d68d 7c3f b0d8 783f 1f8e 673f
00000060: c3ce 833f be87 6e3f edff 803f 9afb 7e3f
00000070: 1235 653f 433a 743f 84c9 843f 742b 683f
00000080: a90b 863f c92f 813f 4e52 703f f7c1 8d3f
00000090: 3ec0 823f 3e9b 683f a0ea 5b3f 2d2d 723f
000000a0: a81f 703f 891c 823f a1e4 663f 7d48 843f
000000b0: e280 683f 9705 673f 5a0f 833f a138 823f
000000c0: fba1 843f eab4 823f 7cf4 793f 1178 7e3f
000000d0: 12be 8d3f 6b31 793f c56e 803f 2890 823f
000000e0: 6ca3 633f 14eb 893f ad4d 763f f872 7a3f
000000f0: 9490 8d3f 0faa 5f3f 97bb 6c3f 1f1d 753f
00000100: 801c 873f 5100 7c3f e267 733f 152e 6a3f
00000110: 3ad1 6f3f 5150 7c3f ee15 643f 209d 803f
00000120: 5878 6e3f d1ba 7f3f c88f 6a3f 2226 593f
00000130: 3df2 753f c881 893f a554 8a3f 4040 793f
00000140: 4c1a 893f ba02 873f 2518 6e3f babf 6e3f
00000150: ea4e 853f 3519 823f 8f6d 733f f62e 673f
00000160: 278e 823f effe 623f ff41 6e3f c516 753f
00000170: b977 793f f3d3 853f 0e7b 8f3f 2e6d 783f
00000180: 27a1 653f 29b2 753f bc05 663f 10e8 7e3f
00000190: ed25 743f 4cbb 673f 237e 773f 3ad6 803f
000001a0: 4830 803f 8a64 823f bc79 6f3f f0be 7d3f
000001b0: 3adf 6f3f c219 673f 7b2a 783f d77c 763f
000001c0: 673d 553f a9f5 7b3f 9c69 813f 606c 803f
000001d0: 04bb 7f3f 45c0 863f 702b 6e3f 9144 773f
000001e0: fe3e 733f 7736 7a3f 515c 863f 7e27 773f
000001f0: 98df 663f 510c 7f3f d31c 703f 7cbc 833f
1.0554515 1.0215762 1.0012505 0.9499957 1.0786667 0.9859169 0.8929525 1.0393773
0.97967476 1.1197343 1.0334817 0.9430421 0.9853795 1.0375336 0.93853664 0.98219883
1.0560968 0.91967183 0.9239476 0.95662063 0.9729613 0.98653924 0.9720564 0.90451235
1.0297474 0.93175876 1.0078102 0.99602664 0.89534104 0.954014 1.0373998 0.90691304
1.0472308 1.0092708 0.93875587 1.1074818 1.0214918 0.9086188 0.85904884 0.9460018
0.93798304 1.0164958 0.9019261 1.0334622 0.9082166 0.90242904 1.023906 1.0173532
1.0361933 1.021146 0.9763868 0.99401957 1.107363 0.9734103 1.0033804 1.0200243
0.88921237 1.0774865 0.96212274 0.9783168 1.1059747 0.87368864 0.9247374 0.9574756
1.0555573 0.9843798 0.9508039 0.91476566 0.9367863 0.98560053 0.8909596 1.0047951
0.9315238 0.99894434 0.9162564 0.8482381 0.9607275 1.0742731 1.0807081 0.9736366
1.071115 1.0547707 0.9300559 0.932613 1.0414708 1.0163943 0.9508905 0.9030603
1.0199631 0.8867025 0.9306945 0.9573787 0.9744831 1.0455307 1.1209428 0.97041595
0.89699024 0.95974976 0.898525 0.9957285 0.9537037 0.9052017 0.96676844 1.0065377
1.0014734 1.0186932 0.93545127 0.9911947 0.9369999 0.9027368 0.9693982 0.9628424
0.8329682 0.9842172 1.0110354 1.0033073 0.9989474 1.0527426 0.9303503 0.96589
0.95017993 0.97739357 1.0496923 0.96544635 0.90184927 0.9962817 0.9379398 1.0291896

hidden_layers.1.bias f4 [128]
00000000: 70d7 123d d612 abbd 1bfa a63c 139f 53bd
00000010: 9f5f 04bd 12e3 083d 7382 bcbd 06dd a13c
00000020: c936 98bd fff3 0c3d 9053 853c d1bd 60bd
00000030: 1fba 053c 78c9 123d b5ec c6bd c673 6cbd
00000040: fcf3 ae3c b1f1 cdbd acfc bebd 9c0d afbd
00000050: be1d 5bbd b4f4 aebd 889a 3dbd 79c4 cfbd
00000060: 4c4a a63c 5acd 86bd 23bd 553c 6ee2 b2bc
00000070: 2c4e c5bd 0a79 75bd 25a2 bdbc 6f1e b4bd
00000080: 7a2a ed3c 98d6 1cbd 8399 66bd 620a 203d
00000090: 5fef b8bc 53ad ae3d 05d0 10be f90e bdbd
000000a0: 90a3 2dbd 4114 58bd c21b 8cbd f7e3 ec3c
000000b0: 4593 b5bd dba0 8dbd 06c1 213d eec2 87bc
000000c0: 4141 973c f8fd dfbc 1310 50bd a9f7 7abd
000000d0: 3221 98bc 46b4 6bbd 1db7 cc3d 102b 1cbd
000000e0: 2e19 bcbd de8c 8f3d 4481 25bc 11e8 8abc
000000f0: 0a36 d8bd f608 c7bd 1abe 94bd 0c12 6e3c
00000100: 75d1 a43a 858b 433d 5300 0fbd c4d5 cabd
00000110: 38cd a0bd 8e9f 04bd e842 8dbd 886a b23b
00000120: b96d 98bd 214c 50bd ff89 12be 20d7 80bd
00000130: 8af6 f2bc e707 e6bd 82ed 6c3d 4e03 c0bd
00000140: de67 033c 699c 173d d276 b2bd 7db0 89bd
00000150: b1e6 46ba fe21 9d3b 2b33 4ebd 1450 82bd
00000160: d690 933b 4eac b8bd 297c bf3a 4f8f 98bd
00000170: f1b0 91bd ec09 4ebc 313c 85bd 1176 67bc
00000180: e005 d2bd aa55 26bd 9548 90bd ca69 94bd
00000190: 67e1 34bd eacb 9dbd 04b8 7cbd 2108 943b
000001a0: 27c0 d23c bd72 13bc e7e2 b5bd 8ad3 08bd
000001b0: d2e0 9cbd 45d0 d4bd 5ae9 093c 9c36 23bd
000001c0: a4b9 05be a838 80bd b3b6 de3c 3cf9 b2bc
000001d0: 021c 283d e6b8 243d 8bad 21bc 7514 9fbc
000001e0: d524 89bc e352 84bc d47d 563d 4ed7 dcbc
000001f0: d68e febd 40dc 213c 8490 80bd 0202 423d
0.03584999 -0.08353202 0.020382931 -0.051665377 -0.032317754 0.033419676 -0.09204569 0.019758713
-0.074323244 0.03441238 0.016275197 -0.054868523 0.0081620505 0.035836667 -0.09713117 -0.057727598
0.021356575 -0.100558646 -0.09325537 -0.08547518 -0.05349516 -0.08542767 -0.04628995 -0.10144896
0.0202991 -0.065821365 0.013045582 -0.021836486 -0.09634051 -0.059929885 -0.023148606 -0.08794867
0.028950918 -0.03829059 -0.056298744 0.0390724 -0.022575079 0.08529153 -0.14141853 -0.092313714
-0.042392313 -0.05275369 -0.06841232 0.028917296 -0.0886598 -0.06915446 0.039490722 -0.016572442
0.018463733 -0.027342781 -0.05079658 -0.061271343 -0.018570516 -0.05754497 0.099958636 -0.038127005
-0.0918449 0.0700929 -0.01010162 -0.016956361 -0.10557182 -0.09718506 -0.072628215 0.01453067
0.001257463 0.047740478 -0.03491242 -0.09904054 -0.07851642 -0.032378726 -0.06897527 0.0054448284
-0.07442803 -0.050853852 -0.14310454 -0.06291032 -0.029658575 -0.11231976 0.057843693 -0.0937563
0.008020369 0.0370144 -0.087140694 -0.067231156 -0.0007587476 0.004795312 -0.050341766 -0.0636293
0.00450335 -0.090172395 0.0014609146 -0.07449209 -0.07113827 -0.012575608 -0.06505621 -0.01412727
-0.10255027 -0.04060904 -0.07045094 -0.0724674 -0.044160273 -0.07704909 -0.06169893 0.0045175706
0.025726391 -0.008999524 -0.08881169 -0.033404864 -0.076600686 -0.10391287 0.008417452 -0.039847
-0.13059098 -0.06260806 0.027186727 -0.02184736 0.041042335 0.040215395 -0.009868036 -0.019418934
-0.016741196 -0.016152805 0.052366093 -0.026958134 -0.124295875 0.009879172 -0.06277564 0.047365196

hidden_layers.3.fc.0.weight f4 [128, 128]
00000000: 210e 0d3e 071e a33c 639e 56bd 3b0c 37bd
00000010: eed0 d53d 8120 f7bd dff1 0b3d b6e6 133e
00000020: da19 0cbe 5fba 643d 2c98 203d 0da5 d9bc
00000030: c748 9fbd 6997 443d eee2 a33b e3ef 10bc
00000040: 770a 85bd d7fd 07bd e742 743c 535c 00bd
00000050: b9ee e83a 5526 b3bc f46e 7dbd 6dee 8abc
00000060: 3b1f ff3b a430 67bd a622 f7bd d5d0 85bd
00000070: 0bdb f13c a801 06bd b35f 083e a294 9b3c
00000080: 0f49 a1bc f228 723d e15c a13d 04b2 1039
00000090: c5d3 04be d009 bf3c 0454 33bd 537f 59bd
000000a0: bac5 ddbd 6e2c 52bd 5f3e 0fbe 2293 c03d
000000b0: 8116 083c 724d 8bbc 4822 133b 5a91 adbd
000000c0: f903 cdbd b873 8c3d 89af 85bd 11c8 08be
000000d0: da71 813c 6166 663d c450 30bc db83 7e3d
000000e0: f8e9 8fbc 5e2f 78bd e784 db3d d60c aabd
000000f0: 3b71 7a3d 8b08 a33c b640 c8bd eca1 c73d
00000100: 71b3 953d e737 abbd 6d40 55bc 0e30 2abb
00000110: b3fd a03c 6718 80bd be0c b73c 9acd e43c
00000120: e4c5 a23d cb0c 89bd 55fd 68bc 9c84 853d
00000130: 250c 3abd 8c82 283d 4103 7c3c 6465 fd3b
00000140: e672 123e 9efa 923d 03a7 82bd f54a d33d
00000150: 64c5 963c 7c46 003d 42a3 193d b468 973b
00000160: 63e7 c33c 90d7 81bd 23c2 b73d 59fa fcbd
00000170: f849 7ebd c446 833d d6f4 c53d 2719 f4bd
00000180: b957 e9bd cf89 e0bc 0d0c 0a3e 9c8e 8a3d
00000190: aac3 f3bd 4795 4ebd 599f 7cbd 546c dcbc
000001a0: 27ac 2c3c ee09 173e 0731 e8bd cdd0 0b3b
000001b0: fde2 263e 2023 ccbd bc7e 55bd 2956 21bd
000001c0: 7a02 e5bc 9b46 38bc 1ab4 09bd baef ef3c
000001d0: af39 c03d b709 d13d 9502 0e3d 3c4d 56bc
000001e0: a3b3 dc3d b862 e63c 3c2c 253e e162 6bbd
000001f0: 0124 b3bd 1e1a f63d 0360 f4bd c662 2ebd
00000200: 6fa2 0c3c 14e0 05be b8b5 0fbe 7be9 a4bd
00000210: 6274 b73d e320 81bd bc78 dabd 6300 f53d
00000220: 59c7 60bd 14fc 0a3e 3158 ce3d c0d2 b93c
00000230: 27de 38bd 6782 b2bb ebf7 81bd 380d 963c
00000240: 64b3 96bd acc1 333d 2c91 42bd f899 81bd
00000250: 6903 6cbd 6f8a 65bd d9e2 4ebd 4746 e2bd
00000260: 1006 c93d eb5a 9ebc 38fe f1bc 8b9b f8bd
00000270: 382b 8f3c 97b0 eabb a435 0a3e f48c ac3b
00000280: 48fd 213e 08ef ecbc 3a38 173e d3b9 2ebd
00000290: f8fe a7bd 85fb b83d ca10 1dbc e2c6 48bd
000002a0: 405c 48bd c16c 01be 0e06 633d 5756 bd3d
000002b0: 2405 30bd 40d3 463d 9475 483d aa8f cabd
000002c0: e3cb 09bd 154c b6bd 1a40 f83c 6111 bcbd
000002d0: ddf8 bdbd 4b5b 24be d2df 013d 7389 a03d
000002e0: 6d79 5cbd 37d5 323c 3484 e83c f7d4 96bd
000002f0: ed09 0c3d 9050 13be cd4c 273e 1f16 d23d
00000300: 38cb 0bbe 048a 06be 0a1a 383c e2b7 21bd
00000310: ed9d babc 7019 08be e7e9 213d 6eff 3b3d
00000320: d184 f23d ce00 49bd ad0f c83d 3d2b 1cbd
00000330: 6b45 033c 605b b93d 6fa1 14be 5dd1 ad3d
00000340: 7c1a a8bd 8f75 8f3d cf34 73bd 952c a93c
00000350: 1dec adbb 2531 5b3d aa51 99bd 39ef 0cbe
00000360: 91dc 41bd dfd7 003d 80d2 ac3d b4d4 02be
00000370: 0285 bfbd b19e 883c e351 ca3d 2139 e03d
00000380: f045 0fbd 4adc d1bc 3cbb 2d3e 361a 0d3e
00000390: 9da2 663c 72e1 27be 46f8 6cbd 082d a4bd
000003a0: 9a49 a2bb 69fc 863d df91 71bd f8ff 17be
000003b0: 0d99 23bc 0389 30bd efeb 80bd e302 bbbd
000003c0: c3e8 f23c 1231 963c 7d4d 413d 0f8e 0ebe
000003d0: 988a 6a3d 9395 35bd 801c 9f3d 3b4b 0e3e
000003e0: 3b59 bf3d 7601 d9bd 12f4 03bb c7b0 c0bc
000003f0: 225a 06be cec7 e7bc 9d61 a0bd fd8a 06bc
0.13774921 0.01991178 -0.052397143 -0.0446894 0.10440241 -0.120667465 0.034166213 0.14443478
-0.13681737 0.0558418 0.039207622 -0.02656796 -0.07777553 0.04799596 0.0050014174 -0.008846256
-0.06496137 -0.033201065 0.014908529 -0.031338047 0.001777134 -0.021868864 -0.06187339 -0.016959393
0.0077857054 -0.05644287 -0.120671555 -0.06533972 0.029523393 -0.032716423 0.13317756 0.018991772
-0.019688157 0.05912108 0.07879043 0.00013799226 -0.12971409 0.023320109 -0.043781295 -0.05309994
-0.10828729 -0.051311903 -0.13988636 0.09403063 0.008306147 -0.017004702 0.0022450853 -0.08474989
-0.10010523 0.06858009 -0.06527621 -0.1335757 0.015801359 0.05624998 -0.0107614435 0.062137466
-0.01756762 -0.060592048 0.107187085 -0.083032295 0.06114314 0.019901535 -0.09777968 0.09747681
0.07309616 -0.08360272 -0.013015849 -0.0025968584 0.019652223 -0.062546544 0.022344943 0.02793007
0.07947901 -0.06691893 -0.014220555 0.06519434 -0.04542174 0.041140124 0.015381635 0.007733034
0.14301643 0.07176708 -0.06379511 0.10317031 0.01840467 0.03131722 0.03750921 0.004620636
0.023914045 -0.063399434 0.089725755 -0.123524375 -0.06208226 0.06409982 0.096658394 -0.1191886
-0.11393685 -0.027409462 0.1348116 0.06765482 -0.11902554 -0.05043533 -0.061675403 -0.026907124
0.010539091 0.14749882 -0.11337476 0.0021334172 0.16297527 -0.09967637 -0.052122816 -0.03938881
-0.027955282 -0.011247302 -0.033619024 0.029289115 0.09386002 0.10206931 0.03467043 -0.013079938
0.107764505 0.028123245 0.16130155 -0.057467345 -0.087471016 0.120167 -0.11932375 -0.042574666
0.008583649 -0.1307376 -0.14034164 -0.08052345 0.08957745 -0.06305101 -0.106675595 0.119629644
-0.054877613 0.13572723 0.10075415 0.022683501 -0.045133736 -0.005447674 -0.06346115 0.01831685
-0.07358435 0.04388587 -0.047501728 -0.06328195 -0.05762044 -0.056040224 -0.050509308 -0.110485606
0.098156095 -0.019330462 -0.029540166 -0.121390425 0.017476663 -0.0071621644 0.13497025 0.0052658264
0.15819275 -0.028922573 0.14767542 -0.042657685 -0.08202928 0.090323485 -0.009586522 -0.049017794
-0.0489161 -0.12639143 0.055425696 0.09244984 -0.042973652 0.048541307 0.048940256 -0.09890683
-0.033641707 -0.0890123 0.030304004 -0.09183002 -0.092759825 -0.1605045 0.031707592 0.07838716
-0.05382674 0.010915092 0.028383352 -0.073648386 0.034189153 -0.14386201 0.16337891 0.102581255
-0.1365174 -0.13138586 0.011236677 -0.039482005 -0.022780383 -0.13290954 0.039529707 0.045897894
0.11841739 -0.049073033 0.09768615 -0.038127173 0.008012156 0.090506315 -0.14514707 0.084871985
-0.082081765 0.070048444 -0.059376534 0.020651141 -0.005307688 0.053513665 -0.07486279 -0.13763131
-0.04732949 0.03145587 0.08438587 -0.12776452 -0.09351541 0.016677232 0.098789 0.109483965
-0.034978807 -0.025617737 0.16965955 0.1377953 0.014076856 -0.16394594 -0.05785396 -0.080164015
-0.0049526216 0.06591112 -0.058977004 -0.14843738 -0.009985221 -0.043099415 -0.06295001 -0.0913141
0.029652005 0.018333945 0.04719304 -0.13921379 0.05726108 -0.0443321 0.07769108 0.13895886
0.09343191 -0.10595982 -0.002013449 -0.023521794 -0.1312032 -0.028293516 -0.07831118 -0.008211848

hidden_layers.3.fc.1.weight f4 [128]
00000000: 928f 743f 85a8 7b3f 3f6b 6e3f e34c 8e3f
00000010: 4fab 813f 68bd 7e3f 7f37 863f 33da 8c3f
00000020: 73a1 903f 0421 723f e95c 6b3f 49a1 833f
00000030: e1a5 8b3f 52dc 733f 676d 893f 701e 803f
00000040: 1139 7c3f e017 9e3f 1f02 8c3f 3d5a 803f
00000050: 7732 733f 64e3 843f 7bf7 8c3f 17e8 743f
00000060: 0194 8a3f bfb9 723f 5683 733f a0b5 843f
00000070: 73a8 8d3f 35aa 753f 9622 7d3f 1640 823f
00000080: eff4 853f 341e 763f 192b 733f eb67 723f
00000090: 657e 843f ff9b 8d3f de8a 773f 769c 793f
000000a0: 723f 733f 2d37 8a3f 4bbb 803f bf68 903f
000000b0: 53c5 773f 1f73 6c3f 736f 813f 1056 803f
000000c0: 0e80 893f f76c 703f 4ac4 873f eb39 763f
000000d0: 7832 843f 09cd 853f ee03 7a3f 882e 7d3f
000000e0: 9943 813f 8ee8 7c3f 3383 783f b10c 8d3f
000000f0: 178f 813f a771 863f 6cd3 763f 76e6 883f
00000100: 526f 723f 32a1 8b3f 08f4 873f 2a77 763f
00000110: a3c2 783f a397 6f3f 4097 883f 69ec 663f
00000120: f92c 803f 3b6e 753f e1f7 7f3f c803 833f
00000130: c1e7 703f a585 6c3f a529 793f 924a 813f
00000140: 1f53 8b3f 32ca 833f 6381 6d3f 63a1 6c3f
00000150: 0adb 753f c616 7d3f 0f98 883f cdac 843f
00000160: 1846 853f 07c5 7c3f da34 833f cd7f 833f
00000170: 175a 773f b8f0 7d3f e356 803f fb8f 623f
00000180: 87e4 7b3f b3bc 893f 3562 7e3f 07c0 6f3f
00000190: c80a 803f cea1 6f3f 7209 8c3f cefc 693f
000001a0: cb5b 793f ffe4 883f 7e41 823f 8f9c 733f
000001b0: 0bfe 863f bd5a 723f 836f 813f 7238 773f
000001c0: 3c4d 733f 011c 6b3f c39c 833f c582 853f
000001d0: 7466 863f 556d 893f b321 863f d6dc 813f
000001e0: 0b24 6f3f a9eb 703f a122 853f 8a2b 853f
000001f0: 9002 8f3f b2ff 883f d91c 883f b243 803f
0.9553157 0.98304015 0.93132395 1.1117214 1.0130404 0.9950776 1.0485686 1.1004089
1.129927 0.9458163 0.91938645 1.0283595 1.0909997 0.9525806 1.0736512 1.0009289
0.98524576 1.2351036 1.0938147 1.0027539 0.9499888 1.0381894 1.1013025 0.9566664
1.0826417 0.94814676 0.9512228 1.0367928 1.1067032 0.9596284 0.988809 1.0175807
1.0465373 0.96139836 0.94987637 0.94689816 1.0351073 1.1063231 0.9669627 0.97504365
0.95018685 1.0798088 1.0057157 1.1281966 0.9678547 0.9236316 1.0112137 1.0026264
1.0742204 0.9391627 1.0606778 0.96182126 1.0327902 1.0453197 0.97662246 0.98899126
1.0098754 0.9879235 0.97075194 1.1019498 1.0121793 1.0503434 0.96416354 1.0695331
0.9470111 1.0908568 1.0621347 0.9627558 0.9717199 0.93590754 1.0671158 0.90204483
1.0013725 0.95871323 0.9998761 1.0235529 0.9410363 0.92391425 0.9732917 1.0100882
1.0884742 1.029608 0.92775553 0.92433757 0.9603735 0.98862875 1.0671405 1.0365235
1.0412016 0.9873814 1.0250504 1.0273377 0.9662184 0.9919543 1.0026516 0.88500947
0.9839558 1.0760711 0.993686 0.93652385 1.000329 0.9360627 1.0940382 0.91401374
0.9740569 1.0694884 1.0176237 0.95160764 1.0546278 0.94669706 1.0112156 0.96570504
0.95039725 0.91839606 1.0282215 1.0430533 1.0500016 1.073649 1.0479034 1.0145519
0.9341437 0.9410959 1.0401193 1.0403912 1.1172657 1.0703032 1.0633804 1.0020659

hidden_layers.3.fc.1.bias f4 [128]
00000000: 8b95 9dbd cfba b4bd 58c0 acbd 0023 c4bd
00000010: 7d38 a1bd 39f6 18bd 57fa 7c3d cc3a 79bd
00000020: 2030 3f3d ccd3 aebd 3d00 08bd d1c0 483d
00000030: 6459 d13c 3af1 8cbd 9406 f6bc 3f4c 1abd
00000040: 9f69 9fbc cd55 2d3e fab8 bc3d 6e59 013b
00000050: 1c6e d1bd d184 923d 0d25 bc3d 3c93 123d
00000060: 8387 ad3d bea3 14bd 3ac6 7cbc 40db 443d
00000070: 8311 ca3d 49e0 03bd 8386 e8bc e054 813c
00000080: 03ad 803d a49d dfbc dc58 a4bd 63fb 03bd
00000090: c3c3 2abc a4b6 a2bb c5bd 61bc d676 163d
000000a0: 9679 9ebd 9e7d 5ebc c247 b43b 6738 663d
000000b0: e8ba e9bc b691 48bb 8f09 543d 4f21 023c
000000c0: 251e 9a3d da85 453e 37f8 873d a90a 19bd
000000d0: 3111 903d 23d4 4c3a ce21 99bd 8af5 bebc
000000e0: 0b46 23bc ad28 823b e2a3 8dbd aee4 873d
000000f0: 8d56 513c 9e3f 953c 4c9a 2dbd 56c5 8a3d
00000100: be14 e1bc b4e9 e63c 4b2a d2bd b452 8abc
00000110: 8844 8cbd 2a20 fc3b cb20 08bd c5a9 32bd
00000120: 7701 b83b 9e77 11bc 232a 98bc c81e 703d
00000130: 4178 4abd e114 96bd b903 39bd ded9 a4bd
00000140: f068 71bd 833b 833d 19f5 0ebd 02da f5bc
00000150: 4527 5fbd 1f4f ddbd eff2 73bd 7c76 513d
00000160: 47c7 323d dc0c 93bd e976 46bd 1a62 4e3d
00000170: 5da1 9abc e124 e03c 3924 973c 2d86 e0bc
00000180: 1dc4 b9bc fe5e a23d 9b38 7bbd 81ba d7bd
00000190: 80a4 0bbd 69db 78bd da62 a13d a51b 97bc
000001a0: b210 843c 78b3 ee3c a1ab 853c 020d d7bd
000001b0: c647 4b3d a1e0 7abc 4468 d03c c66f 72bd
000001c0: 7cde 57bd 8c25 b5bd 9860 473d fdc4 903d
000001d0: 99f3 c73c d3b8 af3d bc8e 303d 5790 c83c
000001e0: 6598 d1bc ac1a b6bd a6df 7a3c 1ccc 43bc
000001f0: e3de 303d 317b d03c c9b0 8b3d ec15 ba3c
-0.07694539 -0.088246934 -0.08435124 -0.09576988 -0.078721024 -0.03734419 0.06176218 -0.06084709
0.046676755 -0.08536491 -0.033203352 0.04901201 0.02555532 -0.06881948 -0.030032434 -0.03767037
-0.019459544 0.16927262 0.09214969 0.0019737142 -0.1022608 0.07154239 0.091867544 0.035784945
0.084731124 -0.03628897 -0.01542812 0.048060656 0.09866621 -0.032196317 -0.028384453 0.015787542
0.06282999 -0.027296849 -0.08024761 -0.032222163 -0.01042265 -0.00496562 -0.013778155 0.036734425
-0.077380344 -0.013579754 0.0055017183 0.056206133 -0.028531507 -0.0030604429 0.05176693 0.007942512
0.07525281 0.19289342 0.0663914 -0.037363682 0.07034529 0.0007813593 -0.07477151 -0.023310442
-0.00996543 0.003972134 -0.06916024 0.06635414 0.012776983 0.018218812 -0.042383477 0.0677592
-0.027475711 0.02818761 -0.10261973 -0.016885139 -0.06849009 0.007694264 -0.0332344 -0.043618936
0.005615409 -0.008878617 -0.01857478 0.058623105 -0.04943109 -0.07328201 -0.045169566 -0.08049367
-0.058937967 0.06407835 -0.034901712 -0.03001118 -0.05448081 -0.10806107 -0.05955785 0.051138386
0.043647077 -0.07180187 -0.048453245 0.050386526 -0.018875772 0.027361335 0.01844989 -0.02740773
-0.022676522 0.079282746 -0.06133328 -0.1053362 -0.034092426 -0.06075612 0.078801826 -0.0184458
0.016121242 0.029138312 0.01631719 -0.10500528 0.049628995 -0.015312345 0.025440343 -0.059188627
-0.052702412 -0.08845052 0.048676103 0.070688225 0.024408149 0.08580174 0.043104872 0.02448289
-0.025585363 -0.08891806 0.015312111 -0.011950519 0.04318131 0.025449367 0.068208285 0.022715531

hidden_layers.3.fc.3.weight f4 [128, 128]
00000000: 9b84 083e 99e9 d8bd 4347 073d 3c71 1dbe
00000010: 34ce 6d3c f3be 0abc cb51 403d c97d 2abe
00000020: 872c 25be d542 82bc 866d 40bb ad67 c83d
00000030: 0648 863d 3de0 5fbd 39da 84bd 8c8f d4bc
00000040: 203c dcbd 46ae 443d 6bd7 da3c 2b70 ec3c
00000050: 0b07 febc 0d68 073e 8740 393e fe65 80ba
00000060: 98e9 b53b 4d09 883c 59fb 3f3e 04a5 883d
00000070: 2f7d 203e 204c 1f3d a228 5e3c 5ff4 993c
00000080: 6bd3 d63c 63e2 9a3d 295e a5bc 3619 e1b9
00000090: 7836 4a3d 8bf7 38be d241 e03b f005 13bd
000000a0: 208a 813d d46f 14be 4107 dd3b 6824 64bd
000000b0: e63f d13d afcf 603c d824 a73c 1f16 7b3d
000000c0: 2476 153e 758a 33be 7234 ff3c 14b6 75bd
000000d0: 40ce c53c 2c82 48bd 31ee 21be 539b 33bd
000000e0: 81ce 0dbe f380 093d ac88 acbd e13c 85bc
000000f0: a189 903d 6e1f 283e 6295 b7bd 6289 253e
00000100: ed8c 973c de0e 3ebb 1837 24bd c4c2 9d3d
00000110: 77d1 733c 5a8b d3bd f3f1 dcbd e190 e13d
00000120: 665d abbc 007b ee3c 6574 333d e20f 4c3d
00000130: 9ab5 333b f6b5 ba3c 09bf f5bd 83c5 a13d
00000140: ba6c 883b 3848 bf3d 2896 12be 3854 babd
00000150: 79ff 37bc c3d2 c03a 2c16 093d 4dc3 093e
00000160: df28 fb3d 406c 253d 0c29 ca3d 24a7 e93d
00000170: be0e 163e 2737 79bd 354e 18be a0da 9d3d
00000180: 6f1b 763d 465e 263e eb03 013e 9612 0f3e
00000190: 9372 0fbe 720c 68bd 68d4 de38 aaed 4fbd
000001a0: c5ee 593d a52d 2bbe 8fdf 063e 0681 993d
000001b0: 5024 eebd cd67 883c 4c75 df3d b788 90bd
000001c0: b724 a73d a54a 9f3d c17d 1d3e 224e a63d
000001d0: 4f9f 573d fd23 2a3e 2dae 113c da12 b23c
000001e0: de8c 63bd 6ea9 3b3d 781a bd3b 5ecc 083e
000001f0: aef7 39bc 7f7a 583d a170 5a3d 2d41 e03d
00000200: 46a8 883d 4c4f 15be 973a 84bc 2db9 2ebd
00000210: 5e6f a83d 36a7 3cbd 4376 de3c e5ae aabd
00000220: eb35 eabb 71bd e8bd bcd3 803c 7007 86bd
00000230: 909a 993d 504a d2bd 749a 1ebe 6235 9ebd
00000240: f4f0 15be d081 02bd e6fb f03b b4f3 a03d
00000250: 907e 15be 955a 923d 5c9a df3d 851b a9bd
00000260: b57f d53b a645 bc3d 9d2c 85bc 4534 95ba
00000270: e4f0 873d b7e2 07be 9462 363c a0bf 913d
00000280: e295 b53c c4d0 a03b a047 98bd 6af1 8abd
00000290: 3f46 8b3d ac3b 16bd 38ac e83d 4893 34be
000002a0: d6d3 02bd cab6 1abe fcad 2d3e a707 22bd
000002b0: bae7 af3c 62d4 773d 6da5 683c 61f8 5b3d
000002c0: 39b9 e63d 2112 de3c 7c46 ed3c 3e3d e5bc
000002d0: 154b 813d 854b e4bd 4b1c 2ebc 8d38 27bd
000002e0: 3e39 2bbe 1884 de3c 6b30 bdbc 2638 b4bb
000002f0: d359 1f3e 2fa0 fb3c 6c82 10be ca22 153d
00000300: 5437 413c a6fd 9fbc b5a3 f2bd 63a2 8fbc
00000310: a666 ac3b c6f5 39be c1b5 1e3d 5c25 9f3d
00000320: 287d f63c d534 033b d49b 1a3e 510e f73c
00000330: 7322 8f3d b8a9 333b 6e6c 14be 813c 22be
00000340: 5c84 af3c e323 9b3d ce05 f7bd 6b93 52bd
00000350: 3ea2 f0bd 4c9f c3bd 327e 81bd f089 04bb
00000360: 95ce 8d3d b604 9cbc 66ab 483d e432 9e3c
00000370: d6af 293e c587 663d e635 a6bc 9f81 b63d
00000380: e2ee 2ebd 972f f43d db2f bd3b 2373 aa3c
00000390: b944 bfbd d3a4 09bd 0fae f7bd b53f a7bd
000003a0: 634f 133d 2bdd 7fb9 6658 17bd aab4 07be
000003b0: 2a48 4bbd 2f66 133e ab67 8abd 8e04 b4bd
000003c0: 4816 b53c 650d 7fbd 95a4 d23b bdfa e5bc
000003d0: 753b 873c 5f23 883d 502e 1f3d 1a28 af3c
000003e0: 99c2 643b c205 983d 8b8f 0b3d 4781 113e
000003f0: 00e0 37bd 4b26 753d 37e1 943d 0d23 a23d
0.13331835 -0.1059143 0.033026945 -0.15375227 0.014514495 -0.008468377 0.046953004 -0.16649546
-0.16130267 -0.015901009 -0.0029362156 0.097853996 0.06556706 -0.05465721 -0.06486935 -0.025947355
-0.107536554 0.048017763 0.026714047 0.02886208 -0.031009218 0.13223286 0.18091021 -0.0009796021
0.005551528 0.016605997 0.18748225 0.06672099 0.15672754 0.038890958 0.013559492 0.018793283
0.026223859 0.07562711 -0.0201865 -0.00042934128 0.04936835 -0.1806318 0.006843784 -0.035894334
0.063251734 -0.14495784 0.0067452495 -0.055698782 0.10217266 0.013721391 0.02040331 0.061300393
0.14595848 -0.17533286 0.031152938 -0.059988096 0.0241462 -0.048952267 -0.15813519 -0.0438493
-0.13848306 0.03357024 -0.084245056 -0.01626438 0.07057501 0.1641824 -0.089640394 0.16165689
0.018499816 -0.002900056 -0.040091604 0.07703164 0.014881483 -0.103293136 -0.10788336 0.110139616
-0.02091856 0.029111385 0.043812174 0.049819835 0.0027421475 0.022791844 -0.11999328 0.078990005
0.004163352 0.093399465 -0.14315093 -0.09098095 -0.011230343 0.0014711249 0.03346841 0.13453408
0.12263655 0.04038644 0.0987111 0.11408833 0.14654061 -0.060843613 -0.14873584 0.07707715
0.060084756 0.162469 0.12599151 0.13971934 -0.1400855 -0.056652494 0.00010625349 -0.050763763
0.053206224 -0.16716631 0.13171218 0.074953124 -0.1162802 0.016651059 0.109110445 -0.07057326
0.081613 0.07777909 0.15380003 0.081203714 0.052642163 0.16615291 0.008891624 0.021737505
-0.055554263 0.045815878 0.0057709776 0.1335921 -0.011350555 0.052851196 0.053330068 0.10949931
0.066727206 -0.1458103 -0.016141219 -0.042657066 0.082243666 -0.046057902 0.027156001 -0.0833414
-0.007147541 -0.11364258 0.015725963 -0.06544387 0.075001836 -0.1026808 -0.15488607 -0.07725026
-0.14642698 -0.03186208 0.0073542474 0.07858983 -0.14599061 0.071461834 0.109181136 -0.08257202
0.006515468 0.09192972 -0.016256625 -0.0011383375 0.06637743 -0.13270079 0.011131901 0.07116628
0.022166196 0.0049076993 -0.074355364 -0.06784327 0.06800508 -0.036678 0.11360973 -0.17634308
-0.031940304 -0.15108791 0.16960901 -0.03955808 0.0214728 0.06050528 0.014199597 0.05370367
0.11265797 0.027108254 0.028964274 -0.027983304 0.06313149 -0.11147217 -0.010626863 -0.040825415
-0.16721055 0.027162597 -0.023094377 -0.0054998575 0.15561609 0.03071603 -0.14112252 0.03641013
0.011792976 -0.019530129 -0.11847631 -0.017533487 0.00526126 -0.18160161 0.038747553 0.077707976
0.030088976 0.0020020504 0.15098506 0.030158194 0.069889925 0.0027414393 -0.14494488 -0.15843393
0.021425419 0.07575204 -0.12061654 -0.05141012 -0.11749695 -0.09551868 -0.06322898 -0.0020223819
0.06924168 -0.019045215 0.048991583 0.019311376 0.16570982 0.056281824 -0.020289373 0.08911442
-0.042708285 0.119231395 0.005773527 0.020806855 -0.0933928 -0.033604454 -0.12093746 -0.08166448
0.03596438 -0.00024401087 -0.036949538 -0.13252512 -0.049629368 0.14394449 -0.06758054 -0.08789931
0.022105351 -0.062268633 0.006428311 -0.028073663 0.016507844 0.066473715 0.038862526 0.021381427
0.0034906028 0.07422973 0.03407244 0.14209472 -0.044891357 0.059850972 0.07269519 0.07916842

hidden_layers.3.fc.4.weight f4 [128]
00000000: b25e 4e3f 2cec 6b3f 5299 693f ab3f 803f
00000010: 37c9 683f 8d9b 663f 88c4 743f 64eb 7a3f
00000020: 75ff 8a3f aa70 823f 863c 713f 71b9 853f
00000030: de06 643f aaf4 703f dfaa 673f ef29 823f
00000040: 53d8 783f 3def 7d3f b640 793f a667 203f
00000050: fa74 753f c07e 733f 036b 6e3f dcb8 853f
00000060: d869 5f3f fd34 7a3f b31f 773f c1fd 703f
00000070: 5677 713f 74c1 623f 4c85 6d3f 415f 6a3f
00000080: 8c8f 683f 4564 753f e405 593f a01d 6c3f
00000090: 8691 773f b22d 7b3f 80f4 3e3f 0da4 6b3f
000000a0: f2e8 773f ed37 713f bb51 813f c27d 643f
000000b0: 5b94 833f 9d53 753f 03f4 743f 05ac 743f
000000c0: b10a 7c3f c902 693f ac22 763f 88ce 813f
000000d0: 3a00 793f 3252 773f a0a9 763f 212a 733f
000000e0: fc3b 793f c2ad 703f 3978 4d3f 3eda 733f
000000f0: fa51 6f3f 90ff 823f 4be8 6f3f d3d8 453f
00000100: 1805 793f 6f68 633f 1104 793f f7e8 6e3f
00000110: 7ad2 6d3f 6c11 703f c7e3 883f 02c4 6e3f
00000120: da59 6f3f ba39 7b3f 51cc 6d3f 6a96 763f
00000130: 912d 7f3f 92d9 743f cea2 7c3f 83e2 803f
00000140: 252a 5e3f 5dd9 6f3f 2ad3 753f 3f5d 6f3f
00000150: ab99 703f 62ee 803f 0e72 603f 3902 783f
00000160: 4841 373f 9aa7 8d3f bcb7 723f 3e87 6f3f
00000170: edab 6d3f 5f39 6c3f 3a9b 793f 60dc 6f3f
00000180: 8f63 8b3f e547 723f 6953 703f b338 753f
00000190: bcc3 713f 2d45 7c3f 7569 6f3f 383c 6b3f
000001a0: f216 723f 9fe7 773f 8a3a 693f 008c 833f
000001b0: 6435 563f f687 913f 480d 873f f52e 6b3f
000001c0: 2119 473f cfb7 673f 42c2 7f3f 8a6e 7e3f
000001d0: 9742 653f a779 703f 5847 6b3f 7314 803f
000001e0: 3ac6 803f 9497 713f ba9f 0b3f 8179 783f
000001f0: 060d 7f3f 8d80 763f fbd3 783f 4ab1 663f
0.80613244 0.92157245 0.91249573 1.001943 0.9093203 0.900811 0.9561238 0.9801543
1.0859209 1.0190632 0.94232976 1.0447217 0.8907298 0.9412333 0.90495104 1.0169047
0.97205085 0.99193174 0.97364366 0.62658155 0.9588162 0.9511528 0.93132037 1.044704
0.8727088 0.97737104 0.96532744 0.941372 0.9432272 0.88576436 0.9278152 0.91551596
0.90844035 0.95856124 0.84774613 0.92232704 0.96706426 0.981166 0.7459183 0.92047197
0.9683982 0.9422596 1.0103067 0.8925439 1.027965 0.9583071 0.9568483 0.9557498
0.98453814 0.91019875 0.96146655 1.0141153 0.9726597 0.96609795 0.9635258 0.9498616
0.97357154 0.94015133 0.8026157 0.95254886 0.9348446 1.0234241 0.93713826 0.7728397
0.972734 0.8883123 0.9727183 0.93324226 0.92899287 0.93776584 1.0694512 0.93267834
0.9349648 0.9813496 0.9288989 0.96323264 0.99678904 0.95644486 0.9868592 1.0069126
0.8678306 0.93691045 0.96025336 0.9350166 0.9398448 1.0072749 0.87674034 0.9687839
0.71583986 1.1066773 0.94811606 0.9356574 0.9284046 0.9227504 0.9750248 0.9369564
1.0889758 0.9464095 0.93877274 0.9578964 0.9443929 0.98543054 0.9352029 0.9188876
0.9456626 0.968378 0.9110495 1.02771 0.8367522 1.1369617 1.0550928 0.91868526
0.7777272 0.90514845 0.9990579 0.9938742 0.89554733 0.93935627 0.91905737 1.0006241
1.0060494 0.94371915 0.545406 0.970604 0.9962925 0.962899 0.97198457 0.9011427

hidden_layers.3.fc.4.bias f4 [128]
00000000: 0f49 abbd 6fb1 f9bc ab12 65bd bd84 c6bb
00000010: beb7 c3bd 656b d6bd 408e 96bd 7b03 e63a
00000020: c103 69bd b766 2abd d0c9 c3bd 3b3c cbbd
00000030: 5b4a 1dbe d28a 86bd 4d5a a8bd 327f 073d
00000040: 8fc7 87bc 7572 6cbd d16f 3fbb 437c 0fbe
00000050: db49 3bbd 715a 0fbd 7e0c 57bd 69b5 a6bd
00000060: c356 c7bd fe49 a1bd dfd1 85bd f123 98bd
00000070: 447d b5bd 3c63 cfbc fb6a 51bd eeed 89bd
00000080: ba00 9ebd f12b 40bd b235 f9bd f1a2 8bbd
00000090: c78a fdbc 7796 9ebd e4f5 f9bd 2614 92bd
000000a0: e78d 40bd d4e3 35bd c9cd d9bd 7f8d 93bd
000000b0: 7090 3fbd 083e cebc a08b b3bc b432 d5bc
000000c0: 8bf4 3abd dcee afbd 1e3b aebc d91f 1dbd
000000d0: 8bf8 80bd c804 44bd 9562 16bc 6ccf 2fbd
000000e0: f967 3bbd c2ff 25bd f877 c9bd 9ca3 43bc
000000f0: 2b79 81bd d198 70bd c320 69bd ae22 12be
00000100: 7778 ddbb d7b9 03bd 54a6 8fbc de54 52bd
00000110: 67bd adbc 8222 0c3b 38d4 a4bd f65b 83bd
00000120: 50da bcbd 4015 a1bd efa0 b7bd 960c 7abc
00000130: cf0f 0fbd 6df1 923b 0c5b dfbc 7003 dfbc
00000140: 1405 c0bd a37f d0bd 2985 46bd ae8d 2fbd
00000150: 8ca4 a9bc cb1f 203c 4264 93bc 4621 8abd
00000160: 81a2 d1bd f830 92bd 8041 1ebd a601 0fbd
00000170: e5b9 70bd d336 aebd 6021 e1bc b47e fabc
00000180: d2fc b1bd 967f 46bd d5a1 17bd 55a1 d2bc
00000190: 611f 94bc 3dcf 06bc a07a 61bd ca48 68bd
000001a0: b136 9fbd 7860 a53b e80f 59bd b2c2 14bd
000001b0: c33a 07be cf2b d6bd bcd0 3abd 89b8 9bbd
000001c0: b3b0 0cbe 1ce2 7dbd 0f7e 90bd 2cd3 aebd
000001d0: 8241 82bd d65a 86bd 6567 90bd fce6 48bc
000001e0: 40a7 043c 9639 36bd ae0c 33be f233 a6bc
000001f0: 93af e0bc a056 35bd ea06 3ebd 4d08 56bd
-0.08363544 -0.030480115 -0.055926006 -0.006058304 -0.095565304 -0.10469703 -0.07351351 0.0017548645
-0.056888346 -0.041601863 -0.09559977 -0.099235974 -0.15360396 -0.065694466 -0.082203485 0.033080287
-0.01657465 -0.057726342 -0.0029210935 -0.14012246 -0.04572473 -0.03499836 -0.052502148 -0.0814007
-0.09733345 -0.07875441 -0.0653417 -0.0742873 -0.08861783 -0.025315873 -0.051127415 -0.067348346
-0.07714982 -0.046916906 -0.12168445 -0.06818188 -0.030949963 -0.07743543 -0.12205103 -0.07132749
-0.04701033 -0.044406727 -0.106349535 -0.072047226 -0.046768606 -0.025176063 -0.021917164 -0.026025154
-0.04564337 -0.08590481 -0.021268424 -0.03836045 -0.06297406 -0.047856122 -0.009178777 -0.042922422
-0.045753453 -0.040527113 -0.09837335 -0.011940863 -0.06321939 -0.058739487 -0.05691601 -0.14271042
-0.0067587453 -0.032159653 -0.017535366 -0.051350467 -0.021208478 0.0021382873 -0.0804829 -0.064140245
-0.09221327 -0.07865381 -0.089662425 -0.01526179 -0.034927186 0.0044843466 -0.027265094 -0.027223319
-0.093759686 -0.10180595 -0.048466835 -0.042859726 -0.020708345 0.009773205 -0.017992143 -0.06744628
-0.10236073 -0.07138246 -0.038636684 -0.03491368 -0.058771033 -0.08506551 -0.027481735 -0.030577995
-0.086908 -0.04846152 -0.03701957 -0.025711695 -0.018081369 -0.00822812 -0.055048585 -0.056710042
-0.077741034 0.0050469004 -0.052993685 -0.03631849 -0.1320601 -0.104575746 -0.04560922 -0.07603557
-0.1373928 -0.061983213 -0.07055294 -0.085363716 -0.06360151 -0.06560294 -0.07050971 -0.012262102
0.008096516 -0.044488512 -0.17485306 -0.020288441 -0.02742747 -0.044272065 -0.046393313 -0.05225401

hidden_layers.4.fc.0.weight f4 [128, 128]
00000000: 839f babc cb75 b93d b7f3 b0bd 97a4 c7bd
00000010: 4119 32bc 9a44 273d 6879 aabd b94b 89bd
00000020: 00e4 52bd fbfa 9b3b 06ad c73b f570 babd
00000030: 95c6 9c3d e654 bf3b b80a d6bc 31a7 b3bd
00000040: ac23 373d 2194 bf3c d568 8dbd ffd8 8bbc
00000050: 44a1 41bd 788b b03c 7f13 953d e86b d53d
00000060: 954d 503d 4777 1fbe e56d f63c 95cc 503d
00000070: 246f 1d3d d494 39bd 307a f93a 19d4 adbd
00000080: 1f9b febd a64b 0c3e 374d 8e3c efbc 863d
00000090: 66d9 5c3d 2d93 03bb f868 3bbc cb7d 54bd
000000a0: 664b d43c 8882 703c 74d9 3fbd ae41 1dbc
000000b0: 717f ab3c 084f 54bc f80f 00bd b92b 10b9
000000c0: 9e8b 243d f00f 1bbd 6c9b 823b e078 a13c
000000d0: 4d41 963c 4f91 4abd 8608 8e3c 76f4 dd3d
000000e0: 325b 353b b3a7 213e e8ff 49bd ba75 72bd
000000f0: 9896 433b 02fc 13bd 55ff 39bd 3418 233c
00000100: 0479 d2bd 1800 f9bc 1ab2 b03c 44e6 c8bd
00000110: 0576 46bd e17b f5bc a340 68bd 085f 81bb
00000120: 2488 ee3d 9e3d 823d 7b62 803d f0ab 133d
00000130: b6ce 003d 6bab b93d a40f afbc 0139 b63c
00000140: b9d5 8ebd 4e98 8a3c 8f64 babd 18ee e4bd
00000150: 06aa cebd 1fee 89bb 89bc 86bd e18c dd3b
00000160: c103 e6bd 7b84 c4bd eda8 acba 1671 9c3d
00000170: 5f43 fdbd 40c2 393c 4ea6 2fbc c19f 0dbd
00000180: ed3c a13d 1e2b 5e3d 6f28 c9bd 812b 14bd
00000190: 42ae 72bd e4a3 913d 2c47 253d 9b84 9c3d
000001a0: db40 a9bc 4d8a 27bd c3dd 03be 519e fdbd
000001b0: 2810 d5bd 15a1 ecbd fe7e 423d 6451 263d
000001c0: 0ab9 7bbc 9b27 e4bd 7517 debd 122f 93bd
000001d0: 7afe 3cbd 8f92 6cbb bede eebd 3c16 0b3b
000001e0: 6968 183c 2702 1e3e 1b88 0d3c 613b 85bd
000001f0: 384a d0bd 2b3b 6cbc 96ff d1bc 8f87 963d
00000200: d2ca f23c b5a1 843c 3a0e b2bb 73e5 45bc
00000210: 3a6d ee3c 7dc1 8d3d 0da5 173d 84f2 143e
00000220: 7780 8cbc b05d bb3d 6acd a03d 71ce 84bd
00000230: a2ee 3fbc aa6d 253e 2fdd c73b bfcf 143d
00000240: e2b5 3b3d 226d f83d c34b 013e 923c 2dbd
00000250: 5bcd 68bd 6d7b f1bd 963e a53d 3530 dabd
00000260: 254a 9f3d 1943 fb3d 3c5f 203d ada0 72bd
00000270: ffb8 8dbd 51f5 84bc f3dd c43d 8c84 08be
00000280: 7f08 5abd d0d2 09bd 1d1e 393e 7f37 babd
00000290: 9275 02bd a824 8e3d 680c 8abd a9c6 88bd
000002a0: b65c d3bd 760d f43d 1915 26bd 7a67 b93c
000002b0: 6553 463d 22e1 42bc 9484 2e3d 91ea d83d
000002c0: eaa7 2bbe 85e0 d43d f795 1abd 7be5 b23c
000002d0: 177d 33ba fb32 acbd 526f 033e 018a acbd
000002e0: b9df 05be 10d6 d2bd 4fd2 383e 4687 45ba
000002f0: f74a fb3d d9d5 c1bc efa0 39bd d960 efbd
00000300: c251 113e 0a45 2e3c 4be0 2e3d a63c 8fbb
00000310: efa1 7bbc d1c5 dc3c cd25 6e3c 06ac 96bc
00000320: d2ab 323c b6c6 80bd 0648 363a 2032 ac3d
00000330: 459e 11be d1d2 ac3d fe2f ecbb 3b15 e63d
00000340: 501a 38bd 60c6 e43d f380 cc3d 2eb9 d2bc
00000350: 0b59 923d 18f8 60bd 5f62 af3d 5430 febc
00000360: 54ea 8e3d 8818 fa3c fa78 843c 8cea eebc
00000370: e50f 923d fbb1 20be f051 a4bd 1884 debd
00000380: 8959 c8bc 714c a9bc be5f 303d a046 713c
00000390: 17b9 393d 859e 68bd d2bc acbc 3b9e d9bd
000003a0: a774 663d bb6a 413c f94f 013d 089a 103e
000003b0: f3cb b13d fbfd 2e3e c74a 44be 8de3 acbd
000003c0: 7fb5 f3bd a99b 98bd e64f 9dbc 54a0 80bd
000003d0: 057c e23d f13f 8fbd 24ea 963d 7eb0 abbd
000003e0: 87bc 7ebc 8c1b b6bd 5708 a8bd c292 943d
000003f0: efa6 62bc 92c9 80bc 9a20 ddbd 6dd5 e3bc
-0.02278114 0.0905567 -0.08640235 -0.0974819 -0.010870279 0.040836908 -0.08323938 -0.06703896
-0.05148697 0.004760144 0.006093624 -0.09103576 0.07655064 0.005838978 -0.026128158 -0.087721236
0.044711754 0.023386063 -0.06904761 -0.017071245 -0.047272936 0.021550879 0.07279109 0.10420972
0.050855238 -0.15572844 0.030081699 0.050976355 0.03843607 -0.04530795 0.0019033607 -0.0848772
-0.12431931 0.13700733 0.017370803 0.06579005 0.053918265 -0.0020076737 -0.011438601 -0.051877778
0.025914859 0.014679559 -0.04683824 -0.009598179 0.020934792 -0.012958296 -0.03126523 -0.00013749198
0.04017221 -0.037856996 0.003985813 0.019710958 0.018341685 -0.049454983 0.017338049 0.10837643
0.0027672765 0.15786628 -0.049316317 -0.059194304 0.00298444 -0.036129005 -0.04540952 0.009954501
-0.10276988 -0.030395553 0.0215693 -0.09809545 -0.048452396 -0.029966297 -0.056702267 -0.003948096
0.116470605 0.06359409 0.06268784 0.036052644 0.031447135 0.090658985 -0.021369763 0.022243978
-0.06974358 0.016918328 -0.09101211 -0.11178225 -0.10091023 -0.0042092944 -0.06578929 0.006761179
-0.11231185 -0.09595581 -0.0013172902 0.07638757 -0.12366366 0.011337817 -0.0107208025 -0.03457618
0.07872949 0.05424034 -0.09822165 -0.0361743 -0.059248216 0.07111338 0.040351078 0.0764248
-0.020660808 -0.04090338 -0.12877564 -0.12383712 -0.10403472 -0.115541615 0.04748439 0.040604964
-0.015363941 -0.11140367 -0.10844318 -0.07186712 -0.046141125 -0.0036098098 -0.116635785 0.002122297
0.009302237 0.15430509 0.008638407 -0.06505466 -0.10170406 -0.014418404 -0.025634568 0.073500745
0.029637728 0.01619039 -0.005433825 -0.012078631 0.029104818 0.069216706 0.03702264 0.14545637
-0.0171511 0.09148729 0.078516796 -0.06484688 -0.011714609 0.16155115 0.006099365 0.036330935
0.045827754 0.121301904 0.12626557 -0.042294092 -0.056836467 -0.1179112 0.08068578 -0.10653726
0.07777814 0.12268657 0.039153323 -0.059235264 -0.06920051 -0.016230257 0.09612646 -0.13331813
-0.05323076 -0.033648312 0.18077894 -0.09092616 -0.031850405 0.069405854 -0.067406476 -0.066785164
-0.103204176 0.1191663 -0.040547464 0.02263235 0.048419375 -0.011894496 0.042606905 0.10591615
-0.16763273 0.10394386 -0.037740674 0.02183794 -0.0006846948 -0.08408161 0.12835434 -0.0842476
-0.13073625 -0.102947354 0.18048976 -0.0007535111 0.12270158 -0.02366154 -0.045319494 -0.11688394
0.14191344 0.010636577 0.04269437 -0.0043712435 -0.015358432 0.026949795 0.01453538 -0.018392574
0.010905223 -0.06287901 0.00069534814 0.08407998 -0.14220531 0.084386475 -0.0072078696 0.11234518
-0.04494697 0.111706495 0.099855326 -0.025723066 0.0714589 -0.0549241 0.08563685 -0.031028904
0.06978288 0.030529276 0.016170967 -0.029164575 0.07131938 -0.15692894 -0.08023441 -0.10865039
-0.024456756 -0.020666333 0.043060057 0.014726311 0.04534253 -0.0567918 -0.02108613 -0.10625883
0.056263592 0.011805232 0.03157041 0.14121258 0.08681478 0.17089073 -0.1916915 -0.08441839
-0.11899852 -0.07451565 -0.019203138 -0.0628058 0.11058811 -0.06994618 0.073688775 -0.083832726
-0.015547878 -0.08891973 -0.08204716 0.07254554 -0.013833745 -0.015721116 -0.10797234 -0.02781173

hidden_layers.4.fc.1.weight f4 [128]
00000000: 898f 723f e39e 7b3f 3b85 7e3f 4c7e 783f
00000010: 33bf 733f 1bbd 6f3f 319d 733f 0340 853f
00000020: ba9c 883f 94a8 853f 8e6f 823f 3a26 703f
00000030: b256 863f 682e 893f 6b2d 693f 7b01 893f
00000040: ca3c 6d3f f910 753f dcf8 8d3f 0e96 843f
00000050: d32a 7f3f 94a7 833f 158a 853f f055 723f
00000060: 9fda 803f 6f89 743f ad24 6c3f 6f8a 863f
00000070: 4488 823f 2902 7c3f 4191 863f 9530 7a3f
00000080: bffd 6f3f 01d3 6c3f 63ab 753f cc13 753f
00000090: 157c 7a3f 1a13 7a3f 7966 733f 05d7 853f
000000a0: d8fd 753f c58c 793f 3045 7d3f f9c1 843f
000000b0: 95c3 783f 47d5 733f eb5c 863f 5a0e 713f
000000c0: cf05 6f3f 0a89 7a3f eac8 813f 5226 673f
000000d0: 8946 843f 16f6 793f 63ed 8c3f c2de 813f
000000e0: 4625 8a3f 53f8 813f 4b7d 713f 38d7 7c3f
000000f0: 0e93 6f3f 48fb 7e3f 6ba5 6b3f 4864 6d3f
00000100: 52a1 733f d37d 7c3f a482 803f b835 813f
00000110: d33f 863f 881f 743f 8fba 8e3f fb8f 713f
00000120: f7b6 743f 64df 833f e115 843f 917a 663f
00000130: 24b7 7c3f 8568 7c3f 09c7 743f 04ee 8e3f
00000140: db02 783f c694 763f 57fb 873f 0781 723f
00000150: b57f 7e3f 4ca9 6e3f 64f7 7a3f 356c 733f
00000160: 671e 723f 1721 8a3f cf46 733f c6c3 823f
00000170: 7951 833f b0f5 733f c19b 793f 325f 753f
00000180: b8a8 793f 70e9 7c3f 3be2 7a3f afb0 783f
00000190: 0dc0 693f 32a4 823f 430f 703f 7d6c 853f
000001a0: 8afe 833f 1d9b 8a3f d0fa 6d3f 4b06 8c3f
000001b0: bf3b 853f 2ff3 7e3f 4f48 833f 3b18 7c3f
000001c0: ca3f 763f c808 743f 7457 853f 5396 683f
000001d0: 3289 813f 48c8 8f3f ecc9 793f 47f7 6c3f
000001e0: 2070 833f 921f 6b3f 62f7 783f c0fb 873f
000001f0: ba4f 763f 14ca 753f 7a62 7a3f b28d 843f
0.9475027 0.98289317 0.99422044 0.97067714 0.9521362 0.9364793 0.9516173 1.041016
1.0672829 1.0442071 1.0190294 0.9380833 1.0495207 1.0717287 0.9108493 1.0703577
0.9267088 0.95729023 1.1091571 1.0358293 0.9967472 1.0285516 1.0432764 0.9466238
1.0066718 0.9552221 0.9224346 1.0510997 1.0197835 0.98440796 1.0513078 0.9773038
0.9374656 0.92509466 0.9596464 0.9573333 0.97845584 0.97685397 0.95078236 1.0456244
0.9609046 0.9748042 0.98933697 1.0371696 0.97173434 0.9524731 1.0497106 0.94162524
0.9336824 0.97865355 1.0139439 0.9029285 1.0334026 0.9764112 1.1009945 1.0146105
1.0792625 1.0153908 0.94331807 0.987659 0.9358376 0.99602175 0.9204928 0.9273114
0.9516803 0.9862949 1.0039868 1.0094519 1.0488228 0.9536061 1.1150683 0.9436032
0.9559168 1.0302548 1.0319177 0.9003077 0.9871695 0.98596984 0.95616204 1.1166387
0.9687936 0.9632076 1.0623578 0.9472813 0.99413615 0.93227077 0.9803374 0.95086986
0.9457764 1.0791348 0.9502992 1.0215995 1.0259238 0.95296764 0.97503287 0.9584838
0.9752307 0.987937 0.9800145 0.971446 0.9130867 1.0206358 0.9377329 1.0423733
1.0312054 1.0828587 0.92960835 1.093942 1.0408858 0.9958982 1.0256442 0.9847447
0.96191084 0.953259 1.0417314 0.90854377 1.0119994 1.1232996 0.97573733 0.92564815
1.0268593 0.9184505 0.97252476 1.0623703 0.96215403 0.9601147 0.97806513 1.0355742

hidden_layers.4.fc.1.bias f4 [128]
00000000: 556d f8bc 481f d8bb d963 ba3c 38d7 aebc
00000010: 607c 3ebd 760b 48bd c492 9dbd cf76 383d
00000020: f949 d23d fb7b 0c3d 495a b63c b9af 49bc
00000030: 3e2e 203c b648 92bd 3962 72bd a0d7 8c3d
00000040: 445e a43a ae1a 52bc bc13 cc3d ef29 203d
00000050: caab 27bd 261d 873b fe90 a6bd 4ef7 9dbd
00000060: 31f1 1e3c 5a33 c0bc 1eec 7bbd 0a41 253d
00000070: 26d1 963c ac5d 0d3d faab 983d 4af0 aabb
00000080: f695 86bd 28ff 0ebc 0558 bdbb d348 16bd
00000090: 49df a53c d2c8 f5bc f853 9dbc df91 953c
000000a0: ff86 ccbd ce40 3b3d 1455 1cbd 24f3 c5bc
000000b0: 8de2 91bc cf50 8bbd 490c 5d3d 69e6 ebbc
000000c0: edde 173c 0f12 0abd 05c7 c53c b49b 35bd
000000d0: f394 643d ea1f a43b 8b41 da3d 4cea 613c
000000e0: 2935 a13d 7819 42bd 855c 72bd 6721 aabd
000000f0: a1ce 6abd ed41 88bc 8dc9 b5bd 76bf 9bbd
00000100: e530 85bc 5a4e 10bd bb25 b4bc a979 a7bc
00000110: 6223 713d 94bf 20bd 96a6 e23d bb87 c6bb
00000120: e129 1abd da1e f23c 7940 953d f78b 9dbc
00000130: 610c 6b3c 7f7e 46bc 82ee 2dbd 0a01 ed3d
00000140: 8ba7 23bc 61e8 83bd 5d3d a03d 4dcb 96bc
00000150: 0b3f 6cbc fd63 303c 3ed2 89bc 60f1 87bd
00000160: e502 d2bc 8fe3 12ba f66d 21bd 39b3 203d
00000170: 5007 8e3d 9904 6dbd 95f5 6fba 673a 0ebd
00000180: d6ff e6bc 9520 44bb a941 e1bc 0737 a5bc
00000190: 5645 0dbd 9643 523d b3a6 92bd eaea b2bc
000001a0: 6f28 603d fea9 683d dd87 74bd 427c a53d
000001b0: b343 bf3d 7be4 b1bd d18f 823c 2081 97bd
000001c0: 3fd8 04bc 1d06 14bd da36 2f3d 83a0 82bd
000001d0: 7127 64bb 41d1 be3d ad54 b3bd da74 8fbd
000001e0: baad d13c 8fc1 53bd a823 33bd c4dd bebc
000001f0: abd7 ffbc 42ec a4bc 8811 563c 51d9 d43c
-0.030325571 -0.006595526 0.02275269 -0.021342859 -0.046505332 -0.048839055 -0.07694009 0.04503518
0.102680154 0.034297924 0.022259848 -0.012309962 0.00977665 -0.07142775 -0.059175704 0.06877065
0.00125403 -0.012823744 0.099647015 0.03910249 -0.040935315 0.004123348 -0.08133124 -0.07713185
0.009701059 -0.023461986 -0.061504476 0.04034523 0.018410277 0.03451316 0.07454677 -0.005216633
-0.065715715 -0.008727826 -0.005778315 -0.036690544 0.020248072 -0.030002985 -0.019205078 0.018258033
-0.09986686 0.0457161 -0.038167074 -0.02416379 -0.017808223 -0.068025224 0.053966794 -0.028796392
0.009269458 -0.03370863 0.024142751 -0.044337943 0.05580611 0.0050086873 0.106570326 0.013788771
0.078714676 -0.04738757 -0.059170265 -0.08307152 -0.057325963 -0.016632998 -0.088763334 -0.07604878
-0.016258666 -0.035230972 -0.021990648 -0.020443754 0.058871634 -0.039245203 0.1106693 -0.006058661
-0.037637595 0.029555727 0.07287688 -0.01923178 0.014346213 -0.01211512 -0.042463787 0.11572464
-0.009988676 -0.06440807 0.07824204 -0.018407488 -0.0144193275 0.010766027 -0.016823884 -0.066378355
-0.025636146 -0.0005603367 -0.039411508 0.03923342 0.069349885 -0.057865713 -0.0009153721 -0.034723666
-0.028198164 -0.0029926647 -0.02749713 -0.02016784 -0.034489952 0.051333986 -0.071607016 -0.021840531
0.05472606 0.056802742 -0.05969988 0.08080341 0.093390845 -0.08686157 0.015937718 -0.073976755
-0.008108198 -0.036138643 0.04277692 -0.063782714 -0.0034813548 0.09317256 -0.08756385 -0.070047095
0.025595535 -0.051698264 -0.043735176 -0.023299105 -0.031230768 -0.020132188 0.013065703 0.02598253
