density_functional_approximation_dm21/checkpoints/NN_PBE/state_dict_*.pth (torch, 60368 bytes, 34 tensors)

hidden_layers_x.0.weight f4 [32, 2]
0.49183774 0.3525017 -0.48165074 0.45879665 -0.6041649 0.05038335 0.42179665 0.17772296
-0.4904099 0.16181245 -0.29524902 -0.17871779 -0.5079228 0.25628364 0.5666764 0.19268905
0.47950074 -0.56559825 -0.24872586 0.00096248987 0.32989278 -0.50705993 -0.64548177 -0.078288764
-0.15992734 0.26423383 0.13891889 -0.3935869 -0.1315447 -0.14404681 -0.52674705 0.48489574
0.46877843 -0.6388421 0.3474033 -0.38950324 0.15333085 -0.5489653 -0.57334495 -0.6910883
0.2524124 -0.42160222 -0.06265571 0.44922104 -0.20333683 0.66777617 0.33420044 0.33412382
0.27914757 -0.23220478 -0.14525162 0.082281046 -0.4476225 0.5250324 -0.25734434 -0.012056742
-0.31659672 -0.32965067 0.63210225 0.7493184 -0.28038377 0.33144897 0.109512016 -0.1717334
00000000: 28d2 fb3e 1a7b b43e ed9a f6be 65e7 ea3e
00000010: 8daa 1abf c65e 4e3d bbf5 d73e 02fd 353e
00000020: 0217 fbbe 2ab2 253e e12a 97be cc01 37be
00000030: 3b07 02bf 9c37 833e b411 113f 4750 453e
00000040: 1f81 f53e 0ccb 10bf feb1 7ebe 9a4f 7c3a
00000050: b5e7 a83e aece 01bf 4b3e 25bf dc55 a0bd
00000060: fec3 23be a849 873e c140 0e3e 3984 c9be
00000070: a7b3 06be 0281 13be e5d8 06bf 4144 f83e
00000080: ba03 f03e 288b 23bf d8de b13e f86c c7be
00000090: c302 1d3e fd88 0cbf bcc6 12bf 2aeb 30bf
000000a0: 333c 813e 3fdc d7be a351 80bd 4d00 e63e
000000b0: 8837 50be 61f3 2a3f 521c ab3e 4712 ab3e
000000c0: 6eec 8e3e 17c7 6dbe d7bc 14be f782 a83d
000000d0: c72e e5be 8668 063f a3c2 83be a489 45bc
000000e0: f718 a2be f9c7 a8be 74d1 213f 55d3 3f3f
000000f0: 768e 8fbe aeb3 a93e d647 e03d e1da 2fbe

hidden_layers_x.1.weight f4 [32]
0.92390746 0.8382303 0.9916613 0.87113917 1.0845803 0.9848995 1.0108263 0.93397564
1.0901817 1.0514863 1.0503565 0.96677065 1.0733817 0.9166073 0.9121148 0.9043882
0.9988534 0.99488735 1.0079031 1.1397927 0.9255928 1.1166635 1.012492 0.9181619
0.93680036 0.9469973 1.0025574 0.8975408 1.0372887 0.9770573 0.990891 1.0011011
00000000: 3385 6c3f 4396 563f 84dd 7d3f fa02 5f3f
00000010: 87d3 8a3f 6022 7c3f c262 813f 0719 6f3f
00000020: 138b 8b3f 1a97 863f 1572 863f 487e 773f
00000030: 9264 893f c7a6 6a3f 5b80 693f fc85 673f
00000040: dbb4 7f3f f0b0 7e3f f802 813f bae4 913f
00000050: a6f3 6c3f d4ee 8e3f 5699 813f a90c 6b3f
00000060: 26d2 6f3f 6a6e 723f cd53 803f 3cc5 653f
00000070: e0c5 843f 6d20 7a3f 08ab 7d3f 1524 803f

hidden_layers_x.1.bias f4 [32]
-0.071317986 -0.031847563 -0.10343795 -0.036139555 -0.09321899 -0.039757166 0.006856025 -0.06891153
0.016222775 -0.042505212 0.043033876 0.03799949 -0.011157457 -0.08373419 -0.114720516 0.17153925
-0.037706237 -0.010357298 -0.0038077428 0.052960515 -0.0910129 -0.004000313 -0.019334257 -0.06909823
-0.072102375 -0.06683208 -0.040038574 -0.05086197 0.009694397 -0.167074 0.014448445 -0.006327961
00000000: 2a0f 92bd 9772 02bd 47d7 d3bd 1207 14bd
00000010: 99e9 bebd 69d8 22bd 82a8 e03b 7d21 8dbd
00000020: a0e5 843c f219 2ebd 4a44 303d 5aa5 1b3d
00000030: c4cd 36bc d57c abbd 97f2 eabd fca7 2f3e
00000040: db71 1abd a8b1 29bc 538b 79bb 20ed 583d
00000050: f964 babd 0f15 83bb e062 9ebc 5f83 8dbd
00000060: 69aa 93bd 42df 88bd 7dff 23bd a454 50bd
00000070: 40d5 1e3c 7215 2bbe 2cb9 6c3c c95a cfbb

hidden_layers_x.3.fc.0.weight f4 [32, 32]
0.008766423 0.08038312 0.0016090369 0.15038353 -0.07693475 -0.2086309 -0.047121454 0.1871464
-0.12857077 0.012317627 -0.19576757 -0.08629693 0.22032672 -0.2026755 -0.13215642 -0.07645369
-0.26182073 -0.0037760928 -0.2565408 0.024879228 -0.24617429 0.023968985 -0.012561795 0.25170386
0.07088665 -0.046259753 0.2476849 -0.18964723 -0.15237361 0.10935808 -0.085204 -0.088145286
0.1251279 0.15260741 -0.18408869 0.17066889 -0.18857878 0.09411014 0.06559425 0.07517192
0.21816671 0.117120564 -0.0029762231 -0.18093927 0.040925447 0.15328747 -0.007322934 -0.038694907
0.10700065 0.16866703 0.09705966 0.085248545 0.09311939 -0.23443668 -0.13298118 -0.15080677
0.0877343 -0.04471908 0.14429536 -0.09050517 0.0795974 -0.095760345 -0.22260244 -0.080695964
0.09915092 0.22935212 -0.041425385 0.20303659 0.04758328 -0.20303296 0.14244314 -0.020403028
0.024876604 0.18068807 -0.0032213666 0.07696596 0.018715786 -0.10562498 -0.2634801 0.27942652
0.009852821 -0.076936185 -0.23095497 -0.1583051 0.025102982 0.2398662 0.09648498 -0.026390316
-0.18318774 0.18407841 0.13378873 0.058487915 -0.25538525 -0.009345403 -0.033777785 0.028990421
-0.13735393 -0.22465514 0.118083246 -0.13489978 0.07244128 -0.09594672 -0.053282984 -0.02817559
0.15285505 -0.003915053 0.032579426 -0.06042124 0.05101521 0.2057283 0.1927757 -0.003479022
0.026437217 0.24778873 0.031071823 0.012346265 0.10898647 -0.094931535 -0.019107137 0.18746953
0.01887414 -0.051151894 -0.23852047 -0.11509687 0.18415695 0.07585786 0.042310294 0.16894035
-0.045785032 -0.0066825277 -0.11687101 -0.13215101 0.15323669 -0.28899896 -0.12770373 -0.091929875
-0.15092452 0.02131123 0.04483727 -0.15253231 0.14762181 -0.04754341 -0.25557193 0.08161598
-0.09987317 -0.16675548 -0.110220365 -0.13629906 0.020502677 0.13462545 -0.09247253 0.08789126
0.16770867 -0.14889294 -0.10387876 -0.057517126 -0.22152227 -0.019937739 -0.07730841 0.068483055
-0.08081511 0.18294351 -0.09956622 0.11275486 -0.043814123 -0.09455584 -0.116557 0.037966095
-0.17202683 0.15880015 -0.12764312 -0.20775917 0.043552686 -0.077477396 -0.018407589 0.18816306
-0.20044948 -0.06165966 -0.031833958 -0.17305627 0.026783194 0.25550908 0.12926105 0.24644496
-0.04886908 0.08347402 0.021592192 0.021936094 -0.2176829 0.16922753 0.16175827 0.021904403
0.12721382 0.12654486 0.14021114 -0.06367856 0.009502589 0.025106912 0.18546017 0.06028071
0.13395822 -0.0448617 0.058947887 -0.11673968 -0.08582307 0.015165547 0.0731782 0.08082664
0.08977637 -0.1564709 -0.24621277 -0.042589705 -0.16260268 -0.08999795 0.06917841 0.043003798
-0.075905986 0.061539266 -0.20030694 0.010937413 -0.04898849 -0.12223885 0.085163616 0.0036069232
0.023201162 -0.07040213 0.15790683 0.055837248 -0.07666469 -0.09133456 -0.12447498 0.07495095
0.12719971 -0.08067088 0.15659529 0.0077021373 -0.02832035 0.09935855 -0.079237714 -0.18879832
0.025838973 0.07520945 0.25478086 0.24633603 0.16699162 -0.19219358 -0.10505492 -0.05490475
0.2377007 -0.0613148 -0.045726053 -0.1337151 0.11378639 -0.059226297 -0.1674401 0.1665072
00000000: 0ba1 0f3c e89f a43d 52e6 d23a 24fe 193e
00000010: f78f 9dbd 57a3 55be 6d02 41bd 4ea3 3f3e
00000020: 0ea8 03be dfcf 493c 4b77 48be 72bc b0bd
00000030: 549d 613e 2b8a 4fbe 0354 07be c193 9cbd
00000040: 5e0d 86be 5378 77bb 5159 83be 86cf cb3c
00000050: 1d15 7cbe 9b5a c43c fdcf 4dbc 54df 803e
00000060: 052d 913d de7a 3dbd 1ca1 7d3e e232 42be
00000070: d407 1cbe 21f7 df3d 6f7f aebd 8485 b4bd
00000080: 8721 003e 1e45 1c3e bf81 3cbe d3c3 2e3e
00000090: cc1a 41be d1bc c03d 4756 863d bcf3 993d
000000a0: 1867 5f3e e8dc ef3d bd0c 43bb 2548 39be
000000b0: 71a1 273d 64f7 1c3e 39f5 efbb 8d7e 1ebd
000000c0: 2823 db3d 0db7 2c3e 37c7 c63d ca96 ae3d
000000d0: 61b5 be3d 2b10 70be 382c 08be 176d 1abe
000000e0: 0aae b33d 5b2b 37bd 2ac2 133e c65a b9bd
000000f0: f603 a33d 001e c4bd e5f1 63be ed43 a5bd
00000100: a30f cb3d 48db 6a3e aaad 29bd d3e8 4f3e
00000110: afe6 423d dfe7 4fbe 9ddc 113e 4024 a7bc
00000120: 05ca cb3c 4b06 393e 901d 53bb 54a0 9d3d
00000130: d951 993c e951 d8bd dde6 86be fe10 8f3e
00000140: ba6d 213c b890 9dbd 767f 6cbe bb1a 22be
00000150: c5a4 cd3c 7c9f 753e eb99 c53d 8130 d8bc
00000160: 9195 3bbe 0d7f 3c3e eaff 083e 0691 6f3d
00000170: dbc1 82be 761d 19bc 935a 0abd 527d ed3c
00000180: 82a6 0cbe ff0b 66be a1d5 f13d 2b23 0abe
00000190: 185c 943d b77f c4bd 423f 5abd 7fd0 e6bc
000001a0: 0986 1c3e d849 80bb 0172 053d 437c 77bd
000001b0: 53f5 503d 71aa 523e fe66 453e 4e00 64bb
000001c0: dd92 d83c 54bc 7d3e 568a fe3c fd47 4a3c
000001d0: 4c34 df3d 776b c2bd 9286 9cbc 03f8 3f3e
000001e0: f19d 9a3c a684 51bd b63e 74be e8b7 ebbd
000001f0: a493 3c3e 5e5b 9b3d 8f4d 2d3d b3fe 2c3e
00000200: 1689 3bbd 1bf9 dabb 115a efbd 9852 07be
00000210: 14ea 1c3e acf7 93be c4c4 02be bb45 bcbd
00000220: f58b 1abe e394 ae3c 49a7 373d 6e31 1cbe
00000230: 2c2a 173e e1bc 42bd 53da 82be 4726 a73d
00000240: 4e8a ccbd f3c1 2abe 37bb e1bd fb91 0bbe
00000250: 3bf5 a73c 41db 093e 3d62 bdbd 5500 b43d
00000260: d2bb 2b3e 6477 18be 63be d4bd 1497 6bbd
00000270: bcd6 62be 7854 a3bc df53 9ebd d840 8c3d
00000280: 6482 a5bd 8b55 3b3e 60e9 cbbd 05ec e63d
00000290: 7076 33bd 7ea6 c1bd 70b5 eebd 5682 1b3d
000002a0: cd27 30be 829c 223e e1b4 02be d2be 54be
000002b0: 4d64 323d 78ac 9ebd 83cb 96bc d1ad 403e
000002c0: a142 4dbe d78e 7cbd 5364 02bd aa35 31be
000002d0: 6e68 db3c 16d2 823e 025d 043e 115c 7c3e
000002e0: f22a 48bd 6df4 aa3d 1ce2 b03c 53b3 b33c
000002f0: 44e8 5ebe fb49 2d3e f6a3 253e dd70 b33c
00000300: 5744 023e fa94 013e 8293 0f3e e869 82bd
00000310: bfb0 1b3c 03ad cd3c 45e9 3d3e e8e8 763d
00000320: 582c 093e e7c0 37bd 5773 713d 3715 efbd
00000330: 01c4 afbd ea78 783c 74de 953d 7088 a53d
00000340: acdc b73d e839 20be 331f 7cbe 8b72 2ebd
00000350: 5181 26be d850 b8bd 69ad 8d3d c024 303d
00000360: 9974 9bbd 9910 7c3d 431d 4dbe d632 333c
00000370: 28a8 48bd 5d58 fabd 436a ae3d 2162 6c3b
00000380: 5d10 be3c fe2e 90bd 54b2 213e 99b5 643d
00000390: 6102 9dbd 9d0d bbbd bdec febd e27f 993d
000003a0: a440 023e c636 a5bd 845a 203e 3662 fc3b
000003b0: 1400 e8bc 7f7c cb3d 6247 a2bd 5954 41be
000003c0: 41ac d33c 6a07 9a3d a372 823e 833f 7c3e
000003d0: daff 2a3e 65ce 44be 0927 d7bd cee3 60bd
000003e0: d067 733e 3a25 7bbd 3e4b 3bbd 9cec 08be
000003f0: d708 e93d 4697 72bd 6b75 2bbe dd80 2a3e

hidden_layers_x.3.fc.1.weight f4 [32]
1.1030519 1.0643619 0.9809853 1.0005635 1.1186534 0.97686994 0.98997825 1.0020957
1.0079048 0.9807676 0.9412468 0.9988626 0.96143305 1.0135304 1.0264995 1.0240059
1.0369112 0.91132045 0.93339664 1.1041094 1.0125476 0.9588529 0.98839056 1.0129155
0.97880965 1.0202206 1.1063673 0.9136898 0.9584174 1.0681231 1.117362 1.1087995
00000000: ce30 8d3f 033d 883f da21 7b3f 7712 803f
00000010: 0930 8f3f 2614 7a3f 376f 7d3f ac44 803f
00000020: 0603 813f 9613 7b3f 8df5 703f 76b5 7f3f
00000030: 7a20 763f 5dbb 813f 5664 833f a012 833f
00000040: 82b9 843f 4c4c 693f 15f3 6e3f 7553 8d3f
00000050: 299b 813f 6277 753f 2a07 7d3f 37a7 813f
00000060: 4593 7a3f 9796 823f 729d 8d3f 93e7 693f
00000070: d85a 753f 42b8 883f b805 8f3f 24ed 8d3f

hidden_layers_x.3.fc.1.bias f4 [32]
0.065291375 0.0597732 0.054891262 0.10034743 -0.10582942 -0.089879714 -0.11606352 0.110019416
-0.047134526 -0.03476567 -0.07023971 -0.07430516 -0.06966438 0.010711162 0.020096239 0.014641459
0.009464997 0.045115083 -0.03548549 0.072775975 0.03152994 -0.0068424367 -0.08378628 0.020954069
-0.09718817 0.039798107 0.07552101 -0.10471985 -0.030680642 -0.053968597 0.055490144 -0.111233056
00000000: 7cb7 853d bed4 743d a9d5 603d f482 cd3d
00000010: 18bd d8bd db12 b8bd b6b2 edbd dc51 e13d
00000020: 2210 41bd 7266 0ebd d6d9 8fbd 4e2d 98bd
00000030: 33ac 8ebd df7d 2f3c dea0 a43c bbe2 6f3c
00000040: 1313 1b3c 98ca 383d 3c59 11bd 920b 953d
00000050: 8a25 013d 8536 e0bb 2498 abbd dea7 ab3c
00000060: 970a c7bd 5703 233d c2aa 9a3d 5c77 d6bd
00000070: f855 fbbc 2d0e 5dbd a249 633d 28ce e3bd

hidden_layers_x.3.fc.3.weight f4 [32, 32]
-0.12842798 0.21159233 0.12353754 -0.07311599 -0.09674557 0.19350249 -0.045265634 -0.0068493267
-0.2622024 -0.041706685 -0.06317692 -0.18956755 -0.012946059 0.14210954 -0.023128722 0.050384115
-0.053147662 0.18836917 -0.09210082 0.14064662 0.101717785 -0.072520286 -0.11302873 0.021821596
-0.058055986 0.04857081 0.20192689 -0.094256714 -0.015389615 -0.16761927 0.09570659 -0.052626617
0.060444675 0.0030911227 -0.23551495 0.023569167 0.08756753 -0.11655745 0.19015704 -0.107317396
0.06659066 0.07401661 0.038497448 -0.098573826 -0.079841994 0.0455771 0.1082287 0.08287229
0.13456076 -0.19907866 0.13875075 0.092207 -0.11586509 0.12523443 0.12533513 0.10602496
-0.06606007 -0.23557504 0.05205314 0.17307013 -0.051389124 0.10175221 -0.10252213 -0.05014576
-0.038416166 0.12909801 -0.20233552 0.13309088 -0.028376393 -0.09519969 0.104347885 -0.094491936
-0.123154916 -0.12001503 -0.11210936 -0.16383842 -0.08243443 -0.09640101 -0.016658576 -0.062246885
-0.043870922 0.055878438 0.15830319 0.1016255 -0.039122503 -0.1165552 0.11835612 0.08853337
-0.16428496 -0.08424861 -0.14639403 0.040075164 -0.041474257 -0.1406566 0.011985487 0.0745976
-0.0326864 0.25364417 -0.1204752 -0.11838022 0.008001498 0.047480974 0.03690396 0.10356343
0.050993603 -0.0073762485 0.013038024 -0.0869756 -0.038090665 0.24732697 0.20566215 0.10490574
0.08004165 0.02423777 0.0021062358 -0.034872793 -0.0758793 0.25743687 -0.053558324 0.22978725
-0.14078137 0.24909934 0.16074362 0.000507878 0.26661733 -0.24341652 0.26681393 -0.072968505
0.07842765 -0.035863087 -0.01931698 0.17154983 -0.030302862 -0.19279799 0.01028764 0.11368322
0.109910026 0.082175024 -0.102201685 0.12490969 -0.10554231 -0.10832747 0.029384714 0.14153166
0.064854294 0.07148407 -0.01660252 -0.060070205 0.15104821 -0.098026946 0.089701734 0.05645229
-0.108981855 -0.13571216 0.12360299 -0.21954446 -0.054000463 -0.042322524 -0.08619524 0.08189238
-0.15235622 0.10158353 -0.087392986 0.09787988 0.014437901 -0.13852686 -0.07449814 0.039619304
-0.0074459696 -0.087744616 -0.01578651 0.048020355 0.09872665 -0.015370103 -0.063941926 -0.041167594
-0.13762805 0.17697784 0.16666408 0.16956778 -0.038004573 0.1787241 0.1300691 0.205853
-0.1469477 -0.05504701 -0.014035655 -0.09002314 0.093418874 -0.18526848 0.12519524 -0.06382887
0.012213158 0.20067626 -0.15171055 -0.19652906 0.021363804 0.14938104 -0.1006011 -0.165875
-0.03268563 0.04634722 0.08144624 -0.030265985 0.18060799 -0.0385173 0.081050016 0.1541778
-0.029601935 -0.19330816 0.17812325 0.092372485 -0.028098041 -0.041708276 -0.032679003 0.009386326
-0.09670378 0.08846458 0.16239962 0.07322258 0.013016072 0.05143537 0.15881786 -0.15269513
0.14162648 -0.07693281 -0.040558662 -0.11640692 -0.006013485 -0.018684749 -0.10223135 -0.03058465
0.0515342 -0.026283517 -0.09405521 -0.124667324 -0.088290974 0.14072026 0.035537507 0.046986736
0.11843998 -0.049028214 -0.07534031 0.086326115 -0.08392511 -0.116555676 0.019828176 0.119336076
-0.029023005 -0.046663783 0.01839546 -0.03715521 0.12293519 0.057063136 0.104936786 0.013203757
00000000: a082 03be a9ab 583e 4001 fd3d d6bd 95bd
00000010: 8b22 c6bd 8425 463e 7568 39bd 5170 e0bb
00000020: 653f 86be a1d4 2abd e762 81bd ff1d 42be
00000030: b51b 54bc 2a85 113e 7278 bdbc 935f 4e3d
00000040: 5db1 59bd d9e3 403e 5b9f bcbd ab05 103e
00000050: 6a51 d03d 8485 94bd 9b7b e7bd 34c3 b23c
00000060: 1dcc 6dbd 30f2 463d ecc5 4e3e aa09 c1bd
00000070: b924 7cbc 63a4 2bbe d101 c43d 028f 57bd
00000080: d694 773d 6f94 4a3b d52a 71be 2014 c13c
00000090: 9b56 b33d acb5 eebd 87b8 423e 39c9 dbbd
000000a0: af60 883d 0596 973d 80af 1d3d 13e1 c9bd
000000b0: 3384 a3bd 0eaf 3a3d 02a7 dd3d f2b8 a93d
000000c0: 4cca 093e 47db 4bbe ad14 0e3e 06d7 bc3d
000000d0: ad4a edbd 743d 003e da57 003e 9d23 d93d
000000e0: 814a 87bd 953a 71be ac35 553d 4c39 313e
000000f0: 677d 52bd 7663 d03d 1ff7 d1bd a465 4dbd
00000100: 455a 1dbd 4532 043e 0b31 4fbe fa48 083e
00000110: 9c75 e8bc 0ef8 c2bd 58b4 d53d fd84 c1bd
00000120: a538 fcbd 71ca f5bd 9899 e5bd 42c5 27be
00000130: 62d3 a8bd e56d c5bd 9177 88bc 97f6 7ebd
00000140: ffb1 33bd cae0 643d 3b1a 223e 0821 d03d
00000150: eb3e 20bd 7eb4 eebd b264 f23d fc50 b53d
00000160: 513a 28be 898a acbd 51e8 15be db25 243d
00000170: e9e0 29bd 4908 10be c75e 443c a0c6 983d
00000180: 2de2 05bd a6dd 813e b4bb f6bd 5471 f2bd
00000190: b718 033c 697b 423d 9b28 173d 1019 d43d
000001a0: abde 503d 75b4 f1bb 709d 553c 4320 b2bd
000001b0: f504 1cbd 4843 7d3e 1999 523e d2d8 d63d
000001c0: e0ec a33d 4a8e c63c c608 0a3b c6d6 0ebd
000001d0: 9b66 9bbd c4ce 833e f95f 5bbd 594d 6b3e
000001e0: fe28 10be e613 7f3e fa99 243e 1e23 053a
000001f0: 1182 883e 2e42 79be d69b 883e 8370 95bd
00000200: ad9e a03d 2ce5 12bd a53e 9ebc c2aa 2f3e
00000210: b53d f8bc d66c 45be 7d8d 283c c0d2 e83d
00000220: 8218 e13d 614b a83d 1e4f d1bd a7d0 ff3d
00000230: 9126 d8bd cbda ddbd 36b8 f03c aded 103e
00000240: 54d2 843d 3d66 923d 0202 88bc 2d0c 76bd
00000250: 62ac 1a3e 5ac2 c8bd 8bb5 b73d 843a 673d
00000260: e131 dfbd 21f8 0abe 9023 fd3d 43d0 60be
00000270: 972f 5dbd 625a 2dbd 2187 b0bd 31b7 a73d
00000280: 4503 1cbe 070b d03d 18fb b2bd 3f75 c83d
00000290: f28c 6c3c fcd9 0dbe 7b92 98bd da47 223d
000002a0: 52fd f3bb 73b3 b3bd b652 81bc feb0 443d
000002b0: 3331 ca3d e2d2 7bbc fcf3 82bd 5a9f 28bd
000002c0: 5eee 0cbe ae39 353e fda9 2a3e 2da3 2d3e
000002d0: afaa 1bbd 7303 373e d630 053e 21cb 523e
000002e0: 7579 16be f978 61bd cef5 65bc 0d5e b8bd
000002f0: 6552 bf3d 05b7 3dbe 2e33 003e b6b8 82bd
00000300: b319 483c 147e 4d3e 035a 1bbe ea3e 49be
00000310: 2503 af3c 58f7 183e f307 cebd 23db 29be
00000320: 5ee1 05bd 95d6 3d3d 49cd a63d 5ff0 f7bc
00000330: 4df1 383e 51c4 1dbd 8dfd a53d c9e0 1d3e
00000340: c27f f2bc 93f2 45be f165 363e c92d bd3d
00000350: dd2d e6bc 4cd6 2abd 6bda 05bd 1bc9 193c
00000360: a20c c6bd eb2c b53d 164c 263e b8f5 953d
00000370: 5d41 553c e5ad 523d 26a1 223e 1d5c 1cbe
00000380: 8806 113e f38e 9dbd d720 26bd c066 eebd
00000390: c50c c5bb c210 99bc ac5e d1bd a98c fabc
000003a0: 8615 533d 8850 d7bc 05a0 c0bd 9551 ffbd
000003b0: e6d1 b4bd f918 103e c78f 113d 2a75 403d
000003c0: a990 f23d cfd1 48bd 054c 9abd bfcb b03d
000003d0: eee0 abbd beb4 eebd b36e a23c 7966 f43d
000003e0: a7c1 edbc 8622 3fbd 13b2 963c 1030 18bd
000003f0: 72c5 fb3d 09bb 693d 19e9 d63d 9254 583c

hidden_layers_x.3.fc.4.weight f4 [32]
0.91627276 0.9118562 0.96423507 0.99679583 0.9448373 0.933925 0.9991467 0.84373385
1.0699922 0.92579013 0.9352801 0.98896784 0.872752 0.98411167 0.9043995 0.93445635
0.91514796 0.8967197 0.9431884 0.9377948 0.8967551 0.88653016 1.0027933 0.8789116
0.9549629 0.9027876 0.8169116 0.905174 0.9208113 0.89913255 0.9269454 1.0423069
00000000: da90 6a3f 686f 693f 1cd8 763f 032e 7f3f
00000010: dbe0 713f b515 6f3f 14c8 7f3f f1fe 573f
00000020: 81f5 883f 9500 6d3f 846e 6f3f ff2c 7d3f
00000030: ad6c 5f3f beee 7b3f ba86 673f 8838 6f3f
00000040: 2347 6a3f 6c8f 653f cc74 713f 5213 703f
00000050: be91 653f a4f3 623f 885b 803f 5a00 613f
00000060: 7378 743f 171d 673f 1e21 513f 7cb9 673f
00000070: 4aba 6b3f 8d2d 663f 4b4c 6d3f 506a 853f

hidden_layers_x.3.fc.4.bias f4 [32]
-0.044976816 -0.08537747 -0.050744865 0.00985963 -0.059590112 -0.06567756 -0.004301865 -0.00911619
-0.076250054 -0.058645435 -0.05809833 -0.0033440974 -0.05394116 -0.083202474 -0.041835684 -0.061616298
-0.06762182 -0.018532645 -0.084165394 -0.06529749 0.0030415196 -0.072924994 0.034299202 -0.10800457
-0.07729463 -0.05783397 -0.1981018 -0.0010006737 -0.07482474 -0.058005918 -0.091526635 -0.03505633
00000000: 9c39 38bd 62da aebd d9d9 4fbd 498a 213c
00000010: c314 74bd f581 86bd a9f6 8cbb 125c 15bc
00000020: fd28 9cbd 3236 70bd 84f8 6dbd a528 5bbb
00000030: 68f1 5cbd 0f66 aabd e55b 2bbd 5f61 7cbd
00000040: 4f7d 8abd c6d1 97bc e85e acbd b1ba 85bd
00000050: 3b54 473b b359 95bd 527d 0c3d 8031 ddbd
00000060: a64c 9ebd 50e3 6cbd 33db 4abe 0a29 83ba
00000070: b73d 99bd 9d97 6dbd 5172 bbbd 3a97 0fbd

hidden_layers_x.4.fc.0.weight f4 [32, 32]
0.14421117 -0.14917138 -0.19660635 0.099237345 0.005363799 0.08780839 0.13615565 -0.11753312
0.094669856 -0.039198264 0.1296057 -0.03594628 0.11214346 0.2842774 -0.09060944 -0.1786006
0.057229113 0.31084064 0.06623301 -0.054745056 0.24582364 -0.06315386 0.26089984 0.18461813
0.23687579 -0.25786662 0.09325314 -0.019935355 0.165667 -0.06766369 -0.05587692 -0.11271263
-0.21135393 0.09112693 0.04144586 -0.0022446956 -0.0964327 0.092591956 -0.124055415 -0.1740592
-0.15848148 -0.17382848 -0.025148878 -0.043285392 0.07855769 -0.15650423 0.05242931 -0.20637614
0.06516702 0.053243198 -0.03717118 -0.15249567 -0.15005243 0.020533705 -0.23151028 -0.037860185
-0.22046077 -0.03662578 0.09380123 0.17578177 -0.083631046 -0.111452706 -0.13610388 0.08897132
0.14072396 0.10706074 -0.13850576 0.0020536932 0.12521616 0.09567507 -0.10196313 0.10115162
0.06267587 0.053890638 -0.017095363 -0.1846533 -0.03901741 -6.840401e-05 0.16557075 -0.14025995
-0.12040638 -0.071766056 0.034591213 -0.08090841 -0.1866739 -0.13470677 0.22756001 0.17525929
0.05813764 0.0669551 0.11201256 0.09600067 0.19617382 0.024995733 -0.033054873 -0.23974922
0.15136625 0.20468958 -0.24275519 0.058364034 -0.10816947 0.008942488 -0.044082522 0.1914782
0.13522938 -0.20310614 0.14356668 -0.10539492 -0.012031358 0.026115557 0.014240413 0.021420194
0.024058083 0.105024986 0.1797711 0.069135346 0.103233024 -0.18451324 0.2582766 -0.06382861
-0.06834012 -0.11330065 -0.043794263 0.06306929 0.13159586 0.19070259 0.11743626 -0.16193713
-0.086316206 -0.18374753 0.15239406 -0.1489933 0.10257352 0.08816472 0.026136398 -0.08654362
-0.08455733 0.07206303 -0.13217272 0.22285458 0.06987654 -0.032148305 0.07327982 -0.032484524
0.034160495 0.020068912 0.046322003 0.054567873 -0.14690274 -0.033339027 -0.16750301 0.033332612
-0.25013024 -0.04366427 -0.16336286 -0.056455817 0.039057124 -0.033894118 0.09761328 0.025973786
-0.027244402 -0.15864447 -0.03605113 -0.1872432 0.030810503 0.12176582 -0.021704111 0.048440527
0.02593255 -0.15719305 -0.23642948 -0.063445866 -0.03372332 0.025116002 -0.008353626 0.0776634
-0.14830622 -0.06571537 -0.13618678 -0.042636566 -0.11505989 0.1626056 -0.0944547 -0.15789548
-0.24505174 0.069580786 -0.1557838 -0.18251085 0.17102526 -0.047293305 0.11315183 0.070485264
-0.065208785 -0.13244109 -0.08046873 -0.14886267 0.2474997 -0.19638537 -0.07625068 -0.18169871
0.09896267 0.15831569 0.12741488 0.09075647 0.078221396 0.13476552 0.1950694 0.087776355
0.02934446 -0.03905185 0.11214105 -0.10142304 -0.012383951 -0.08165068 0.12867354 0.0019779066
0.04256317 -0.10348757 -0.2059223 -0.1819434 -0.07899986 0.08974677 0.21245873 0.27674538
0.07386724 -0.19642688 0.21183997 0.04705426 0.087377936 0.2062766 -0.18252277 0.048996873
-0.18327112 -0.18824506 0.08642283 0.22251733 -0.1508946 -0.06914924 -0.050241716 -0.050795097
-0.018213274 -0.2767226 -0.19989651 -0.1733618 0.05572489 -0.17330986 -0.17700472 0.050385296
0.007797195 -0.0014338953 -0.008907989 -0.05326176 -0.1824852 -0.082417145 -0.18020053 0.13110074
00000000: 18ac 133e 62c0 18be 2d53 49be f33c cb3d
00000010: cfc2 af3b e3d4 b33d 636c 0b3e 34b5 f0bd
00000020: 45e2 c13d 5c8e 20bd 5bb7 043e 683c 13bd
00000030: 78ab e53d cf8c 913e 7191 b9bd 13e3 36be
00000040: 1369 6a3d 8126 9f3e 2ca5 873d 5a3c 60bd
00000050: 31b9 7b3e d056 81bd aa94 853e 890c 3d3e
00000060: 918f 723e 1807 84be 81fb be3d 784f a3bc
00000070: 9ca4 293e 4393 8abd 33df 64bd e1d5 e6bd
00000080: 2a6d 58be c2a0 ba3d 22c3 293d be1b 13bb
00000090: 827e c5bd daa0 bd3d c410 febd 933c 32be
000000a0: f848 22be 1800 32be 0505 cebc 064c 31bd
000000b0: dbe2 a03d a542 20be 1ec0 563d 4454 53be
000000c0: 4976 853d 8a15 5a3d cf40 18bd d327 1cbe
000000d0: 58a7 19be 4d36 a83c 0811 6dbe 4813 1bbd
000000e0: 78c0 61be ea04 16bd dc1a c03d 2300 343e
000000f0: c146 abbd 5141 e4bd d15e 0bbe 9836 b63d
00000100: f119 103e a942 db3d 74d4 0dbe 4197 063b
00000110: aa38 003e 4bf1 c33d 0cd2 d0bd 9528 cf3d
00000120: 355c 803d 6ebc 5c3d 930b 8cbc c115 3dbe
00000130: b8d0 1fbd 2074 8fb8 618b 293e 4ea0 0fbe
00000140: 9f97 f6bd 15fa 92bd 84af 0d3d 4fb3 a5bd
00000150: 7127 3fbe 92f0 09be 7e05 693e 2c77 333e
00000160: bc21 6e3d c11f 893d d766 e53d 009c c43d
00000170: cae1 483e dac3 cc3c 8c64 07bd d280 75be
00000180: c1ff 1a3e 259a 513e d194 78be 200f 6f3d
00000190: f587 ddbd 8383 123c e08f 34bd dc12 443e
000001a0: 9279 0a3e 0efb 4fbe 2503 133e 4bd9 d7bd
000001b0: 2c1f 45bc 4bf0 d53c 9f50 693c 6779 af3c
000001c0: 7515 c53c 5717 d73d ea15 383e d596 8d3d
000001d0: d66b d33d 0af1 3cbe d53c 843e 93b8 82bd
000001e0: e8f5 8bbd 2c0a e8bd 9d61 33bd 792a 813d
000001f0: 11c1 063e 8a47 433e 6c82 f03d d9d2 25be
00000200: 8dc6 b0bd 5028 3cbe 300d 1c3e b391 18be
00000210: 1112 d23d b48f b43d 001c d63c c83d b1bd
00000220: 652c adbd c895 933d 4958 07be fe33 643e
00000230: 6e1b 8f3d f1ad 03bd bb13 963d 7e0e 05bd
00000240: e0eb 0b3d 8f67 a43c 24bc 3d3d 9082 5f3d
00000250: ac6d 16be 818e 08bd e985 2bbe c787 083d
00000260: 1211 80be 4ed9 32bd 9848 27be 373e 67bd
00000270: 5dfa 1f3d 8fd4 0abd 79e9 c73d fac6 d43c
00000280: a72f dfbc b273 22be 5aaa 13bd aebc 3fbe
00000290: 4f66 fc3c 5c60 f93d d2cc b1bc 9369 463d
000002a0: 8070 d43c 37f7 20be 921a 72be e8ef 81bd
000002b0: 7721 0abd 13c0 cd3c a6dd 08bc fd0d 9f3d
000002c0: 96dd 17be c895 86bd 8c74 0bbe aea3 2ebd
000002d0: 85a4 ebbd 1582 263e 7771 c1bd 5aaf 21be
000002e0: d8ee 7abe 5f80 8e3d ca85 1fbe 20e4 3abe
000002f0: 3f21 2f3e a0b6 41bd 26bc e73d 945a 903d
00000300: 2f8c 85bd a39e 07be cacc a4bd 756f 18be
00000310: 9070 7d3e 3f19 49be 5129 9cbd 3a0f 3abe
00000320: f1ac ca3d 821d 223e 0c79 023e 87de b93d
00000330: 8a32 a03d f9ff 093e 46c0 473e 17c4 b33d
00000340: cb63 f03c d5f4 1fbd 35aa e53d e2b6 cfbd
00000350: 0ee6 4abc 7938 a7bd ffc2 033e c49f 013b
00000360: b856 2e3d 4bf1 d3bd 4cdd 52be 5f4f 3abe
00000370: aeca a1bd 28cd b73d c88e 593e 92b1 8d3e
00000380: b547 973d 2124 49be 94ec 583e f8bb 403d
00000390: 34f3 b23d 2c3a 533e 40e7 3abe f2b0 483d
000003a0: 6dab 3bbe 50c3 40be 74fe b03d 95db 633e
000003b0: 1d84 1abe 1e9e 8dbd 42ca 4dbd 850e 50bd
000003c0: 0134 95bc 96ae 8dbe acb1 4cbe c185 31be
000003d0: c83f 643d 2478 31be ba40 35be d060 4e3d
000003e0: 9d7f ff3b 8bf1 bbba d0f2 11bc 0129 5abd
000003f0: 66dd 3abe 52ca a8bd 7d86 38be 463f 063e

hidden_layers_x.4.fc.1.weight f4 [32]
1.1458126 0.95379084 0.9946192 1.0495443 0.9580432 1.0786794 1.0456768 0.9173122
0.96058863 0.9498231 1.108036 1.0204645 1.0005488 0.9773335 1.0058969 0.9971922
0.928626 0.9770402 0.94600546 0.9034341 0.95759684 1.0465747 0.9398728 0.9721417
1.0251684 0.9226551 1.074818 0.8963615 1.000448 0.9841291 0.9728914 0.904482
00000000: fda9 923f a32b 743f 5d9f 7e3f 7857 863f
00000010: 5242 753f 2b12 8a3f bdd8 853f f9d4 6a3f
00000020: 23e9 753f 9b27 733f 20d4 8d3f 959e 823f
00000030: fc11 803f 8732 7a3f 3bc1 803f fd47 7f3f
00000040: 6fba 6d3f 4e1f 7a3f 6a2d 723f 7547 673f
00000050: 1125 753f 29f6 853f 819b 703f 47de 783f
00000060: b838 833f 2033 6c3f a393 893f f277 653f
00000070: ae0e 803f e2ef 7b3f 690f 793f 228c 673f

hidden_layers_x.4.fc.1.bias f4 [32]
0.11453381 -0.10097811 0.056871925 0.10018489 -0.08309531 -0.07718254 -0.016803125 -0.08155703
0.0061683147 -0.013967195 0.1224643 0.017530901 -0.009233544 -0.034690205 0.025322929 0.020108402
0.046288896 -0.011566537 -0.0730311 -0.05186884 -0.03316089 0.06125692 -0.08767856 -0.08237956
-0.10078372 -0.05925276 0.029461583 -0.08626749 0.009433223 0.029322919 -0.03542101 -0.07891003
00000000: b490 ea3d 9dcd cebd 89f2 683d bc2d cd3d
00000010: e02d aabd e111 9ebd b5a6 89bc 5f07 a7bd
00000020: 931f ca3b a9d6 64bc 90ce fa3d f79c 8f3c
00000030: 4a48 17bc 5117 0ebd 0872 cf3c 60ba a43c
00000040: 6d99 3d3d 9381 3dbc 5491 95bd 6c74 54bd
00000050: b7d3 07bd 89e8 7a3d d190 b3bd 9db6 a8bd
00000060: b267 cebd 06b3 72bd 6b59 f13c 03ad b0bd
00000070: ce8d 1a3c 9e36 f03c 9f15 11bd 959b a1bd

hidden_layers_x.4.fc.3.weight f4 [32, 32]
0.3092197 -0.14173613 0.11409722 0.21745612 -0.14190693 -0.112513795 -0.16163625 -0.08989294
0.13942087 0.10699631 0.305748 0.15228947 -0.22159225 0.10880511 0.14509997 -0.08542842
0.22271939 -0.17817144 -0.13437833 0.1654237 -0.020462269 0.28112623 -0.2967246 -0.00968811
-0.32126397 -0.044320464 0.08707016 -0.091145456 0.069889784 -0.008840476 0.103000924 -0.18748832
0.08183464 -0.009252464 -0.15200478 0.025213957 0.050370026 0.066316456 0.24271822 0.059648477
0.10309282 -0.07797945 0.11548152 0.07581163 -0.04203664 0.16436176 0.08426506 0.17278293
0.09761998 0.068409495 -0.06057199 0.06145393 -0.13266033 0.117582604 0.23444183 0.029927563
0.08655286 0.11255276 0.01690515 0.25824672 0.048777312 0.10568344 -0.024406446 -0.030683348
0.07031169 0.080341175 -0.03401374 0.0028135725 -0.14419007 -0.18616565 0.055205647 0.10305913
0.088427946 0.10667349 0.12063316 -0.088087134 0.087589286 0.03591903 -0.064516574 0.13339113
-0.06536168 -0.21824759 -0.027813092 0.002924782 -0.12207443 0.1781017 0.021539113 0.071244165
-0.15057401 -0.022916535 0.104379624 0.13826568 -0.09905181 0.040859368 0.03128586 -0.029000003
0.24803235 -0.011424378 -0.21317138 0.09019767 -0.020184407 -0.016808802 -0.026806459 -0.06133819
0.26140216 0.113938585 -0.11150706 0.015089441 -0.30620575 -0.09640181 -0.0030408835 -0.005254517
0.061230738 -0.059394486 -0.13677391 0.050936375 -0.19137293 0.283661 0.020794986 -0.16200651
-0.07255024 -0.06853304 -0.15003994 -0.0977169 -0.22832988 -0.009444537 0.13616632 -0.020474227
-0.118118584 -0.045379374 0.18355621 0.1672869 0.13018633 0.10762574 -0.22166322 0.05105422
-0.048283953 0.099215135 0.13623762 0.07655275 -0.17022923 -0.0006824204 0.020701656 -0.017329555
0.09284061 0.16226034 0.1089065 -0.024417464 -0.09760708 -0.07085291 -0.08967559 0.06985258
-0.23150745 0.096163526 0.21946098 -0.1337537 -0.19862847 -0.06774518 0.018369082 0.04454608
-0.12577285 0.16712573 -0.03311711 0.05556275 -0.063492335 -0.0020880005 -0.08682445 0.2129655
0.13218114 0.18781145 -0.017491216 -0.14684981 0.021665437 0.049456324 0.039504576 -0.043235965
0.021485845 0.075828746 0.03725236 0.061441503 -0.1764776 -0.033670895 0.1478311 0.20429708
-0.03664104 -0.06332127 -0.025037453 0.07340473 -0.10323894 -0.28134868 0.0269738 -0.13157539
0.08402957 -0.10139999 -0.08141229 -0.1354735 -0.17081466 0.034047112 -0.11882799 0.057337105
-0.016832946 -0.050829783 0.19908334 -0.0045709205 0.07525767 -0.05559855 0.04478727 0.17659487
-0.00018969082 -0.1549334 -0.026367953 0.17244822 0.1376235 0.03886931 -0.1311177 0.048127808
0.03838447 -0.054301057 -0.1584039 -0.10810485 0.14664987 -0.039843053 0.22474876 0.122046664
-0.0168456 -0.076547 -0.17378719 -0.14420748 0.057602596 -0.08945898 0.13591065 0.2417991
-0.07712804 0.107044585 -0.15884197 -0.15298405 -0.08247867 -0.09751755 -0.11465231 -0.1696636
-0.016716048 0.03166525 -0.19159538 -0.060432952 0.014821031 0.024182374 0.05333063 0.011642071
0.26351368 -0.053606104 -0.08961586 0.054472186 0.17932211 -0.07454725 0.034160923 -0.027660908
00000000: 0b52 9e3e 4723 11be ceab e93d d1ac 5e3e
00000010: 0d50 11be a26d e6bd f983 25be ca19 b8bd
00000020: 58c4 0e3e e220 db3d 008b 9c3e c5f1 1b3e
00000030: 14e9 62be 37d5 de3d 1695 143e 18f5 aebd
00000040: 8d10 643e 9372 36be 799a 09be d564 293e
00000050: 7da0 a7bc c7ef 8f3e 49ec 97be e1ba 1ebc
00000060: b67c a4be 6089 35bd d751 b23d 78aa babd
00000070: 6022 8f3d a5d7 10bc 26f2 d23d f0fc 3fbe
00000080: eb98 a73d a697 17bc 24a7 1bbe 808d ce3c
00000090: cd50 4e3d ecd0 873d 208b 783e f651 743d
000000a0: 5422 d33d b1b3 9fbd 9381 ec3d 2143 9b3d
000000b0: 9d2e 2cbd 734e 283e 2993 ac3d 02ee 303e
000000c0: fcec c73d 471a 8c3d 561a 78bd 1eb7 7b3d
000000d0: 1cd8 07be 26cf f03d 8511 703e a62a f53c
000000e0: a042 b13d 1082 e63d ab7c 8a3c ea38 843e
000000f0: b8ca 473d 8f70 d83d 07f0 c7bc a55b fbbc
00000100: 93ff 8f3d ea89 a43d fe51 0bbd ea63 383b
00000110: 90a6 13be 35a2 3ebe 511f 623d aa10 d33d
00000120: b619 b53d a177 da3d 850e f73d 0767 b4bd
00000130: 0362 b33d d51f 133d 4421 84bd af97 083e
00000140: 58dc 85bd 4c7c 5fbe 48d8 e3bc b3ad 3f3b
00000150: 2902 fabd 4b60 363e cb72 b03c 76e8 913d
00000160: 1330 1abe 75bb bbbc fcc4 d53d 8595 0d3e
00000170: addb cabd 275c 273d 9a25 003d 6a91 edbc
00000180: 31fc 7d3e 502d 3bbc 9949 5abe 8eb9 b83d
00000190: c559 a5bc 9db2 89bc 3899 dbbc c13d 7bbd
000001a0: 81d6 853e a258 e93d d05d e4bd b439 773c
000001b0: 00c7 9cbe 506e c5bd 8f49 47bb 152e acbb
000001c0: 15cd 7a3d a247 73bd 760e 0cbe a9a2 503d
000001d0: 44f7 43be 043c 913e 3f5a aa3c 09e5 25be
000001e0: 3895 94bd 0d5b 8cbd 12a4 19be cc1f c8bd
000001f0: 4fcf 69be 42bd 1abc 2f6f 0b3e 91b9 a7bc
00000200: 28e8 f1bd b9df 39bd 29f6 3b3e 424d 2b3e
00000210: 914f 053e e26a dc3d affb 62be 3b1e 513d
00000220: 65c5 45bd 4e31 cb3d e081 0b3e b0c7 9c3d
00000230: 9250 2ebe 75e4 32ba 8596 a93c b6f6 8dbc
00000240: 3823 be3d 9327 263e 5f0a df3d 2207 c8bc
00000250: 39e6 c7bd 551b 91bd d6a7 b7bd df0e 8f3d
00000260: 4a10 6dbe 62f1 c43d 61ba 603e bbf6 08be
00000270: 4365 4bbe fcbd 8abd c27a 963c f375 363d
00000280: 99ca 00be 0223 2b3e cfa5 07bd c495 633d
00000290: 4508 82bd d6d6 08bb 04d1 b1bd a113 5a3e
000002a0: 7e5a 073e a551 403e bd49 8fbc cc5f 16be
000002b0: b77b b13c b792 4a3d 8dcf 213d 3218 31bd
000002c0: 1503 b03c 1a4c 9b3d ee95 183d 16aa 7b3d
000002d0: 8bb6 34be 7eea 09bd 0961 173e 4133 513e
000002e0: ea14 16bd 95ae 81bd 581b cdbc 3855 963d
000002f0: f06e d3bd ef0c 90be 29f8 dc3c b3bb 06be
00000300: b217 ac3d ccaa cfbd 7dbb a6bd 91b9 0abe
00000310: 0aea 2ebe fc74 0b3d 175c f3bd 50da 6a3d
00000320: 3fe5 89bc e432 50bd 81dc 4b3e a9c7 95bb
00000330: b120 9a3d 4ebb 63bd db72 373d 49d5 343e
00000340: bee7 46b9 dca6 1ebe 9b01 d8bc 4496 303e
00000350: 2ded 0c3e 6d35 1f3d b843 06be aa21 453d
00000360: 0939 1d3d c96a 5ebd a234 22be 1366 ddbd
00000370: 622b 163e 7832 23bd 8a24 663e 9af3 f93d
00000380: c9ff 89bc acc4 9cbd 45f5 31be 20ab 13be
00000390: b3f0 6b3d 4536 b7bd 292c 0b3e 2f9a 773e
000003a0: 4ef5 9dbd 313a db3d 78a7 22be daa7 1cbe
000003b0: 94ea a8bd 48b7 c7bd d5ce eabd 4bbc 2dbe
000003c0: 18f0 88bc 6cb3 013d 9431 44be 8b88 77bd
000003d0: e9d3 723c 1d1a c63c 3871 5a3d 63be 3e3c
000003e0: 44eb 863e 1392 5bbd 8588 b7bd 3a1e 5f3d
000003f0: 37a0 373e 3bac 98bd 53ec 0b3d 2199 e2bc

hidden_layers_x.4.fc.4.weight f4 [32]
0.8854331 0.9020091 0.97381866 0.92688566 0.8842657 0.9295213 0.8958478 1.0410017
1.1115068 0.924862 0.9416023 0.71511173 0.9175727 1.081408 0.92282766 0.9444546
0.8991139 1.0304207 0.977131 0.8637658 0.91994864 0.9467356 0.9726606 1.0552379
0.9667777 0.95023096 0.8780234 0.98601514 1.0544233 1.2383273 1.0644189 0.96117425
00000000: beab 623f 12ea 663f 2e4c 793f 6148 6d3f
00000010: 3d5f 623f 1cf5 6d3f 4856 653f 8b3f 853f
00000020: db45 8e3f c2c3 6c3f d90c 713f 9011 373f
00000030: 0be6 6a3f 946b 8a3f 6f3e 6c3f c7c7 713f
00000040: 542c 663f d3e4 833f 4225 7a3f c11f 5d3f
00000050: c181 6b3f 445d 723f 4900 793f 0912 873f
00000060: be7e 773f 5642 733f 24c6 603f 7d6b 7c3f
00000070: 58f7 863f 8281 9e3f e13e 883f 840f 763f

hidden_layers_x.4.fc.4.bias f4 [32]
-0.10580278 -0.055787444 -0.016779272 0.006171482 -0.07367006 0.037586298 -0.07770435 -0.08844284
-0.12640548 -0.06393407 -0.04188884 -0.0006959622 -0.03690801 -0.10146649 0.0076924944 -0.048945315
-0.08101611 -0.04167794 -0.14351085 -0.11237238 -0.022711234 -0.041691594 -0.03725955 -0.075478226
-0.055239834 -0.021874676 -0.075601034 -0.021412909 -0.10815347 -0.1982083 -0.051331002 -0.09056531
00000000: 21af d8bd 6081 64bd af74 89bc 253a ca3b
00000010: 54e0 96bd 17f4 193d 7523 9fbd 8521 b5bd
00000020: 7070 01be deef 82bd a293 2bbd 3c71 36ba
00000030: da2c 17bd aacd cfbd 5211 fc3b e27a 48bd
00000040: c6eb a5bd 7db6 2abd 82f4 12be 7e23 e6bd
00000050: e90c babc cec4 2abd 789d 18bd 5494 9abd
00000060: 2a43 62bd 8532 b3bc b7d4 9abd 206a afbc
00000070: 917f ddbd 1ef7 4abe 7540 52bd 4e7a b9bd

hidden_layers_x.5.weight f4 [2, 32]
0.10109884 0.17572555 0.04960478 0.23935777 0.04325813 -0.013636034 0.054214954 -0.07771333
-0.16462028 -0.040697027 0.025252836 0.10763996 0.16402999 -0.06270738 -0.02904589 0.079103716
0.11052814 0.114081874 0.00015063283 -0.02683785 0.18368486 -0.14710534 0.06976539 0.11855376
0.04812861 0.18273368 0.18879658 -0.04118254 -0.17262168 0.051000427 -0.16466865 -0.026942581
0.0015483146 -0.014506292 0.059486438 0.0008858642 0.044616498 -0.020458538 0.007332114 -0.0077722627
0.046683785 0.02444557 0.008397466 0.01156925 0.048594553 0.0014788741 -0.084827244 0.018233713
0.0017519144 -0.02481013 -0.008890354 -0.0031126193 -0.00024559678 0.0018566683 0.010892474 0.007299764
0.03526492 -0.006576229 0.0034134702 -0.08114174 0.030487655 -0.013536616 0.022615664 -0.0077533713
00000000: e90c cf3d 66f1 333e 622e 4b3d 341a 753e
00000010: 702f 313d ac69 5fbc 8010 5e3d 2b28 9fbd
00000020: 3892 28be edb1 26bd 09df ce3c 5772 dc3d
00000030: 7af7 273e ba6c 80bd a5f1 edbc 2101 a23d
00000040: 945c e23d c2a3 e93d 31f3 1d39 0ddb dbbc
00000050: e217 3c3e c8a2 16be 28e1 8e3d 50cc f23d
00000060: 8122 453d 8a1e 3b3e e453 413e 06af 28bd
00000070: bdc3 30be d3e5 503d e69e 28be b0b6 dcbc
00000080: d1f0 ca3a ccab 6dbc 0da8 733d 5739 683a
00000090: cabf 363d aa98 a7bc 3b42 f03b 77ae febb
000000a0: 7f37 3f3d 1342 c83c 8695 093c f48c 3d3c
000000b0: 150b 473d c8d6 c13a e8b9 adbd de5e 953c
000000c0: 7ea0 e53a 9d3e cbbc d9a8 11bc 16fd 4bbb
000000d0: 71c3 80b9 735b f33a 5976 323c dc32 ef3b
000000e0: f371 103d 687d d7bb 87b4 5f3b a42d a6bd
000000f0: 3fc1 f93c afc8 5dbc 7c44 b93c fe0f febb

hidden_layers_x.5.bias f4 [2]
0.16091205 -0.04541516
00000000: 21c6 243e 3f05 3abd

hidden_layers_c.0.weight f4 [32, 7]
-0.366702 -0.47301915 0.30021304 -0.14687108 -0.2391087 0.23320632 -0.20789072 0.34270784
0.44234723 0.11689992 0.052587777 0.08675826 0.33229175 0.03323063 -0.31174123 0.28620952
0.24614887 -0.041487627 -0.2473167 -0.012021306 -0.2701206 0.23170829 -0.06027486 0.2225781
0.12738785 -0.03529424 -0.1425858 0.276974 -0.05559997 0.024128942 0.36260512 -0.06843323
0.07904704 -0.112956345 -0.03893915 0.33502737 0.22253834 -0.14318588 0.30598015 -0.15413167
0.11844736 0.083631404 0.0115339 -0.21452764 0.37106377 -0.06891691 0.26045713 -0.22141463
-0.14277463 0.3376837 -0.39055797 0.07402942 0.055897553 -0.2609402 -0.07614295 -0.27853873
0.13316493 0.13297549 0.24736688 0.0336837 -0.10457138 -0.10147987 -0.091718405 0.48749536
0.23676622 -0.1880071 0.25080594 0.12961876 0.423417 0.055010572 0.25927898 0.06360983
-0.27765635 0.11555214 -0.06386231 0.28859887 -0.26658505 0.007613403 0.2966172 0.13704269
0.17105836 0.28420925 0.20267485 0.008339463 -0.031587027 -0.10715898 0.31403506 -0.06906759
0.0517826 -0.08630383 -0.14302963 0.32838973 0.045598995 -0.24020654 0.32944062 -0.016492985
-0.07140877 -0.42840463 0.23373513 -0.16071709 0.026768863 0.38095972 0.19594832 0.40341082
-0.07549746 -0.69117683 -0.6683202 -0.20114547 -0.17954868 -0.08487003 0.1730819 0.35923705
-0.3443472 -0.24971458 0.36432627 -0.020060005 -0.12297283 -0.39128223 -0.09551666 -0.27158973
0.37552613 -0.12321579 -0.07187659 0.0990182 0.11060364 0.34066072 -0.07521877 -0.25476187
0.37130973 -0.023045333 0.16542436 -0.3209059 -0.31024227 -0.06999522 -0.13799965 0.009694121
0.12817363 0.0013126668 -0.12252752 -0.06463054 0.28795788 0.33907896 0.26789975 0.23375946
0.22949836 0.3738373 -0.31962204 -0.39492747 0.13667658 0.32656693 -0.26657805 0.1827113
-0.15405357 -0.039383102 0.47985134 -0.13356587 0.14821517 0.25412297 0.19691762 -0.23085809
0.13653791 -0.37202734 -0.2700323 -0.23006721 0.23683125 0.0632985 0.26662707 0.1655571
-0.11105244 0.3526036 -0.40335774 -0.2565142 -0.2895258 -0.24452108 -0.37250128 -0.41129676
0.08705413 0.23854667 0.20147406 0.25546023 -0.11808287 -0.07162873 -0.25352225 0.052878432
0.2511877 0.17780554 0.28464815 -0.0708291 -0.22933823 0.2270395 0.3905232 -0.12766679
0.07688539 0.13195598 0.18083851 0.10700886 -0.33229223 -0.0028882185 0.1822089 -0.035207834
-0.3305611 -0.3414298 -0.11992919 0.4592121 0.21270958 0.35385057 0.114470355 0.33083507
0.051105395 0.3620908 0.33185795 -0.3339096 -0.36957097 -0.21756111 -0.08940204 -0.35277218
-0.44471085 -0.010456654 0.097841114 -0.32472917 0.061959013 -0.28679046 -0.044591345 -0.009394204
00000000: 5dc0 bbbe 912f f2be 86b5 993e 5f65 16be
00000010: e9d8 74be a3cd 6e3e 4ee1 54be 6777 af3e
00000020: 567b e23e 3a69 ef3d 4866 573d 51ae b13d
00000030: 2522 aa3e d71c 083d 8c9c 9fbe 0e8a 923e
00000040: 730e 7c3e eeee 29bd 9740 7dbe 03f5 44bc
00000050: 3f4d 8abe f044 6d3e c6e2 76bd 83eb 633e
00000060: f671 023e b190 10bd 0302 12be 89cf 8d3e
00000070: cbbc 63bd 0faa c53c 61a7 b93e b926 8cbd
00000080: 6ae3 a13d a855 e7bd a87e 1fbd b588 ab3e
00000090: 17e1 633e 529f 12be 6ea9 9c3e b1d4 1dbe
000000a0: 8894 f23d f146 ab3d aff8 3c3c 22ad 5bbe
000000b0: 12fc bd3e 4f24 8dbd a35a 853e 84ba 62be
000000c0: 8333 12be e1e4 ac3e 37f7 c7be bd9c 973d
000000d0: d5f4 643d f499 85be d6f0 9bbd a19c 8ebe
000000e0: 635c 083e ba2a 083e be4d 7d3e ebf7 093d
000000f0: 8529 d6bd aed4 cfbd dcd6 bbbd fe98 f93e
00000100: d872 723e ef84 40be a369 803e c8ba 043e
00000110: 1dca d83e c452 613d 37c0 843e df45 823d
00000120: f928 8ebe 9aa6 ec3d 3eca 82bd 3bc3 933e
00000130: d67d 88be da79 f93b 36de 973e eb54 0c3e
00000140: ec29 2f3e e083 913e ff89 4f3e 3ea2 083c
00000150: 6661 01bd 2b76 dbbd 34c9 a03e 4f73 8dbd
00000160: fe19 543d 10c0 b0bd 5c76 12be b322 a83e
00000170: 03c6 3a3d b4f8 75be 71ac a83e 4c1c 87bc
00000180: c33e 92bd da57 dbbe 4358 6f3e 0593 24be
00000190: 604a db3c 270d c33e ada6 483e dd8b ce3e
000001a0: 6a9e 9abd f7f0 30bf 0817 2bbf 14f9 4dbe
000001b0: 9cdb 37be 57d0 adbd 623c 313e ebed b73e
000001c0: 474e b0be 2eb5 7fbe f988 ba3e e154 a4bc
000001d0: 2ed9 fbbd 2556 c8be 3d9e c3bd cf0d 8bbe
000001e0: f644 c03e 8f58 fcbd 0934 93bd 0eca ca3d
000001f0: 2984 e23d 156b ae3e 4c0c 9abd 2670 82be
00000200: 4f1c be3e 91c9 bcbc 0165 293e c74d a4be
00000210: 13d8 9ebe a759 8fbd c84f 0dbe 17d4 1e3c
00000220: f33f 033e ca0d ac3a b5ef fabd 045d 84bd
00000230: 376f 933e c29b ad3e 282a 893e a45e 6f3e
00000240: 9e01 6b3e 9a67 bf3e 80a5 a3be ef33 cabe
00000250: f2f4 0b3e c833 a73e eb7c 88be ac18 3b3e
00000260: 38c0 1dbe 2d50 21bd 13af f53e 7ec5 08be
00000270: b8c5 173e 681c 823e c6a4 493e 1066 6cbe
00000280: 98d0 0b3e 5e7a bebe ac41 8abe bd96 6bbe
00000290: e483 723e a5a2 813d 5883 883e cd87 293e
000002a0: 766f e3bd 7688 b43e e884 cebe d455 83be
000002b0: ba3c 94be bc63 7abe 7db8 bebe 7d95 d2be
000002c0: 7049 b23d 9445 743e 374f 4e3e afcb 823e
000002d0: 6fd5 f1bd 15b2 92bd abcd 81be 0e97 583d
000002e0: ad9b 803e a812 363e 67bd 913e d90e 91bd
000002f0: a4d7 6abe 0b7d 683e a8f2 c73e 15bb 02be
00000300: 1676 9d3d 781f 073e bb2d 393e 7627 db3d
00000310: 3522 aabe 4448 3dbb f894 3a3e 1736 10bd
00000320: 4e3f a9be e3cf aebe 6f9d f5bd d91d eb3e
00000330: 8ad0 593e e72b b53e 6f6f ea3d 3763 a93e
00000340: e453 513d f763 b93e 49e9 a93e 33f6 aabe
00000350: 6838 bdbe 57c8 5ebe 6b18 b7bd 8e9e b4be
00000360: 24b1 e3be 6352 2bbc ec60 c83d e742 a6be
00000370: bcc8 7d3d 33d6 92be 6aa5 36bd 26ea 19bc

hidden_layers_c.1.weight f4 [32]
0.9769585 0.97419447 0.9599955 0.94168663 1.0462514 0.93672764 0.8690063 0.8908245
1.009305 0.8462779 0.7906099 0.8859623 0.9017966 0.79577374 1.0139809 0.89512455
1.0657413 0.93636674 1.0308461 0.89943635 0.8984334 0.87657493 0.93352365 0.89610404
1.1440142 0.89962137 0.8818345 1.0088377 1.0369155 0.9995792 1.2297342 1.0203656
00000000: f419 7a3f cf64 793f 44c2 753f 6012 713f
00000010: 91eb 853f 62cd 6f3f 3277 5e3f 130d 643f
00000020: e830 813f aba5 583f 6965 4a3f 6dce 623f
00000030: 24dc 663f d4b7 4b3f 20ca 813f e226 653f
00000040: 366a 883f bbb5 6f3f c4f2 833f 7641 663f
00000050: bbff 653f 3767 603f 68fb 6e3f 1367 653f
00000060: 0f6f 923f 964d 663f e8bf 613f 9821 813f
00000070: a6b9 843f 6ce4 7f3f ee67 9d3f 579b 823f

hidden_layers_c.1.bias f4 [32]
-0.023918986 -0.04896779 -0.0827699 -0.044394415 0.05218535 -0.06631782 -0.09693642 -0.06437974
-0.03309358 -0.090383485 -0.059661057 -0.08718971 -0.09900774 -0.0141972955 -0.0071043954 -0.043854255
-0.0032328758 0.004746563 0.012107428 -0.09116756 -0.07514808 -0.092561126 -0.076485544 -0.08255163
0.042330563 -0.08318248 -0.028964594 -0.031895455 -0.08040069 -0.04567091 -0.024849765 -0.007746265
00000000: c0f1 c3bc 7392 48bd 4483 a9bd ebd6 35bd
00000010: 4ec0 553d a3d1 87bd 9a86 c6bd 86d9 83bd
00000020: 228d 07bd fa1a b9bd 275f 74bd 8590 b2bd
00000030: 92c4 cabd c69b 68bc fdcb e8bb 85a0 33bd
00000040: a8de 53bb 0e89 9b3b 3c5e 463c 0fb6 babd
00000050: 3de7 99bd b090 bdbd 74a4 9cbd d410 a9bd
00000060: d062 2d3d 935b aabd 2847 edbc cfa4 02bd
00000070: 1ea9 a4bd 6c11 3bbd bc91 cbbc 61d4 fdbb

hidden_layers_c.3.fc.0.weight f4 [32, 32]
0.10107268 0.054153156 0.10157061 0.09041334 0.1741622 -0.12799896 -0.12743078 0.09522037
-0.12709819 0.08197494 0.121169485 -0.12508169 -0.0587974 0.074802816 0.0027046478 0.021460267
-0.04761347 0.09284166 -0.09411915 0.042618074 0.04815855 0.17801705 -0.17908248 -0.009019413
0.07184553 -0.22095524 -0.057644084 0.00011414595 0.115639724 0.090230204 -0.18594056 -0.049068455
0.092275344 0.1531208 -0.11834639 0.17631796 -0.2606763 -0.052264716 0.049274985 -8.1490056e-05
0.028369717 0.09571898 -0.039928015 0.13045421 0.004899693 -0.07155233 0.1373052 0.108434714
-0.100570954 0.10425668 -0.16996679 -0.08464813 0.18455255 0.07472747 -0.15805067 0.10480452
0.08888746 0.17274365 -0.17390382 0.014374016 -0.1638058 -0.08460458 0.0032574148 -0.024006583
-0.12509112 -0.076055795 -0.07459004 -0.14790432 -0.021014495 0.04645615 0.0299588 0.09225101
0.16765459 0.032458838 -0.023313068 0.037132815 0.06441344 -0.13138708 -0.13806547 -0.107249975
-0.14359212 -0.15517688 0.15340085 -0.058457278 -0.008552808 -0.1510377 -0.10947856 0.06134335
-0.26618466 0.005347375 0.14261028 -0.0910412 -0.036642436 0.17623517 -0.2683957 -0.1310976
0.055224534 -0.16185518 0.089819804 -0.20104505 0.16224952 0.057579085 0.0963261 0.1633779
-0.030132223 0.22657375 0.13343896 0.05398873 -0.13071637 0.105677076 -0.20836972 -0.08011056
0.03658657 0.08024892 0.09675191 -0.02164161 0.095807545 -0.10352761 0.0559582 -0.009348331
0.043138366 -0.06007503 -0.15827313 -0.037583854 0.020218235 0.021637868 0.14520253 0.0917082
0.017036157 -0.032315318 0.03303903 0.10610375 -0.032502122 -0.12796457 -0.080889724 0.045731086
-0.049591385 0.16901678 0.13622601 0.19035798 0.17630817 0.044801854 -0.09267218 0.08709422
0.099643365 0.08497391 0.064508945 0.04029482 -0.01869184 -0.050407924 -0.0627536 -0.21700695
0.16228166 0.17748019 -0.16212311 0.18317159 -0.15861054 -0.06723355 0.19066948 -0.15784292
-0.15074177 -0.03217831 -0.12549333 -0.05386475 -0.12534851 -0.041670598 0.114961706 -0.2810802
0.056714997 -0.06555153 0.06947576 0.19969778 -0.08424118 0.0072996006 -0.029044678 0.05735886
-0.19035132 -0.0043503507 -0.04433573 -0.0243099 -0.05314774 0.10724444 0.2191159 0.038253628
0.10096751 0.22609147 0.13787557 -0.017868876 0.038844876 0.0050103096 0.049008846 -0.037440427
0.09780567 0.13670395 0.037345912 -0.2249926 0.1805041 -0.18881474 0.06131435 0.029571189
-0.079206064 0.2680709 0.10521098 -0.15568739 -0.20850621 0.046902396 -0.055578563 0.039223306
-0.0043071387 -0.22747189 -0.0038656923 0.17217289 0.15103579 0.053321317 -0.21312034 0.083755024
0.19204356 0.115360126 -0.098903544 0.052781504 -0.1162344 0.00645741 0.12811649 0.18340568
0.1679982 -0.16361456 -0.025535265 -0.076940216 0.1011423 -0.19962426 -0.018431986 -0.024154808
-0.11420877 -0.06522455 0.20390439 0.06479224 -0.11609731 0.18947035 0.06892652 -0.0095595
0.09438145 -0.030415881 -0.15038982 -0.062186114 0.12712239 -0.071229525 0.09872619 -0.11217435
-0.11482138 -0.07014184 -0.11897494 -0.15348572 -0.053366788 -0.009030634 -0.10907346 0.07130462
00000000: 31ff ce3d b3cf 5d3d 4104 d03d a12a b93d
00000010: 9357 323e 2912 03be 377d 02be e602 c33d
00000020: 0726 02be 7ae2 a73d b527 f83d 6a15 00be
00000030: 8bd5 70bd 3832 993d 7640 313b 71cd af3c
00000040: 5806 43bd c523 be3d 8ac1 c0bd 4a90 2e3d
00000050: e641 453d 1a4a 363e 6661 37be 29c6 13bc
00000060: c023 933d 1742 62be 341c 6cbd a461 ef38
00000070: 85d4 ec3d 9dca b83d 3467 3ebe 01fc 48bd
00000080: dbfa bc3d b3cb 1c3e 985f f2bd b28c 343e
00000090: 5d77 85be 8713 56bd 91d4 493d a4e5 aab8
000000a0: 9c67 e83c 5008 c43d 8f8b 23bd ca95 053e
000000b0: 9b8d a03b 078a 92bd bc99 0c3e 0513 de3d
000000c0: 25f8 cdbd 8784 d53d c60b 2ebe 005c adbd
000000d0: 58fb 3c3e b70a 993d 09d8 21be c1a3 d63d
000000e0: a10a b63d b6e3 303e d813 32be fe80 6b3c
000000f0: b5bc 27be 2b45 adbd 5a7a 553b 74a9 c4bc
00000100: e317 00be 24c3 9bbd aac2 98bd 3b74 17be
00000110: 9726 acbc ce48 3e3d 286c f53c 19ee bc3d
00000120: a5ad 2b3e 8ff3 043d 0cfb bebc 9418 183d
00000130: 32eb 833d 568a 06be 0961 0dbe e0a5 dbbd
00000140: d009 13be b0e6 1ebe 1d15 1d3e e670 6fbd
00000150: 1421 0cbc a0a9 1abe 4c36 e0bd 2a43 7b3d
00000160: 5b49 88be 0839 af3b 6e08 123e cf73 babd
00000170: 6116 16bd fe76 343e 296b 89be 733e 06be
00000180: 1f33 623d 5dbd 25be 72f3 b73d c1de 4dbe
00000190: bd24 263e 0cd8 6b3d 9e46 c53d 894c 273e
000001a0: dad7 f6bc f302 683e 39a4 083e 4923 5d3d
000001b0: 83da 05be 396d d83d df5e 55be 0111 a4bd
000001c0: cddb 153d 8c59 a43d de25 c63d bf49 b1bc
000001d0: bf36 c43d 4906 d4bd 6d34 653d be29 19bc
000001e0: dbb1 303d 3c11 76bd 5a12 22be 87f1 19bd
000001f0: b6a0 a53c e641 b13c f9af 143e 82d1 bb3d
00000200: 698f 8b3c 115d 04bd ef53 073d ec4c d93d
00000210: f220 05bd 2509 03be 83a9 a5bd 8550 3b3d
00000220: 5620 4bbd bc12 2d3e d57e 0b3e 34ed 423e
00000230: 218a 343e 2682 373d e9ca bdbd 745e b23d
00000240: d211 cc3d cd06 ae3d 441d 843d 2e0c 253d
00000250: a11f 99bc 8a78 4ebd f684 80bd 1237 5ebe
00000260: 2a2d 263e 5ebd 353e 9a03 26be 5591 3b3e
00000270: cd6a 22be beb1 89bd dc3e 433e 93a1 21be
00000280: 0d5c 1abe 67cd 03bd 5381 00be 49a1 5cbd
00000290: 5c5b 00be caae 2abd 0b71 eb3d bee9 8fbe
000002a0: fc4d 683d e13f 86bd 4f49 8e3d 937d 4c3e
000002b0: a486 acbd 7d31 ef3b 1bef edbc 20f1 6a3d
000002c0: 75eb 42be 638d 8ebb 6299 35bd 8e25 c7bc
000002d0: 72b1 59bd f9a2 db3d eb5f 603e d6af 1c3d
000002e0: 0ec8 ce3d 8684 673e 412f 0d3e c061 92bc
000002f0: ce1b 1f3d 862d a43b 80bd 483d 225b 19bd
00000300: 574e c83d 1ffc 0b3e 07f8 183d 7664 66be
00000310: 11d6 383e a758 41be c224 7b3d 473f f23c
00000320: ca36 a2bd 9740 893e db78 d73d 846c 1fbe
00000330: a782 55be ba1c 403d 59a6 63bd 9ea8 203d
00000340: e622 8dbb 64ee 68be 8e57 7dbb 174e 303e
00000350: 20a9 1a3e 7467 5a3d 383c 5abe c187 ab3d
00000360: 11a7 443e ee41 ec3d f18d cabd 6b31 583d
00000370: 4d0c eebd ae98 d33b f830 033e b3ce 3b3e
00000380: b807 2c3e 938a 27be 552f d1bc d592 9dbd
00000390: b223 cf3d 4d6a 4cbe adfe 96bc 4ee0 c5bc
000003a0: 4ae6 e9bd 7394 85bd 50cc 503e cbb1 843d
000003b0: 6dc4 edbd 8404 423e 5929 8d3d 739f 1cbc
000003c0: 104b c13d ba2a f9bc caff 19be deb6 7ebd
000003d0: 5f2c 023e c9e0 91bd f530 ca3d aabb e5bd
000003e0: 7927 ebbd 86a6 8fbd 22a9 f3bd 5c2b 1dbe
000003f0: 2297 5abd 39f5 13bc e861 dfbd 2808 923d

hidden_layers_c.3.fc.1.weight f4 [32]
0.8789653 1.0381892 1.042747 0.97281784 0.9295823 0.95818317 1.0600139 1.0111926
1.0572087 0.9731034 0.95072013 0.99817395 0.9752565 1.0399685 1.0158677 0.9780673
0.975452 0.9521098 0.9616969 1.0600578 1.0239223 0.9526387 1.0257787 1.025053
0.99203587 0.9833275 1.1524669 1.0566462 1.050565 1.060209 1.0036324 1.010337
00000000: df03 613f 62e3 843f bc78 853f 970a 793f
00000010: 1bf9 6d3f 7e4b 753f 89ae 873f c26e 813f
00000020: 9d52 873f 4e1d 793f 6562 733f 5488 7f3f
00000030: 69aa 793f b01d 853f f407 823f 9e62 7a3f
00000040: 39b7 793f 78bd 733f c531 763f f9af 873f
00000050: e30f 833f 21e0 733f b74c 833f f034 833f
00000060: 10f6 7d3f 5abb 7b3f 0984 933f 2f40 873f
00000070: ea78 863f eeb4 873f 0777 803f b952 813f
