density_functional_approximation_dm21/checkpoints/NN_PBE/state_dict.pth (torch, 54890 bytes, 44 tensors)

hidden_layers_x.0.weight f4 [32, 5]
-0.007675596 0.034224294 -0.013764892 -0.014354809 -0.002206432 -0.014349694 0.040603183 -0.018346725
-0.0125031 -0.00317465 -0.026299585 0.035475206 -0.025167853 0.012270162 0.0062016314 0.013432685
-0.044135734 0.0058966344 -0.0064935246 -0.0010022245 -0.0035773546 0.0019420716 -0.015609168 0.024166599
-0.0013497326 1.0332951e-19 2.7171746e-21 5.688264e-20 -3.5554e-20 -2.027664e-20 -0.02572853 0.033366144
-0.024444496 0.013417298 0.0036754962 3.1697795e-07 -2.8313508e-07 1.5315185e-06 -3.2726774e-07 1.421467e-06
0.010585515 -0.021332968 0.004418538 -0.006267452 -0.0029414382 -0.012616031 0.040090963 -0.004905382
0.0065027736 0.0011388167 -0.026311982 0.034591213 -0.0250848 0.010352035 0.008798906 -0.022000842
0.028440375 -0.019833872 0.0127969375 0.0027935037 0.025797974 -0.036914345 0.024954526 -0.013414812
-0.0035001033 -0.025444755 0.03792442 -0.024632193 0.013887653 0.0013938895 -0.01261098 0.049385563
-0.005521924 0.006178852 0.00095655204 -0.009426779 0.0116001675 -0.0028540303 0.0064347335 0.0033754548
0.012424185 -0.033271283 0.004835568 -0.006637604 -0.0014618352 -0.011163155 0.043982282 -0.0054626446
0.005691518 0.0020472961 6.08e-43 -4.46e-42 6.14e-43 5.62e-43 5.13e-43 5.63672e-36
4.2169443e-36 1.218005e-35 -1.8217769e-35 1.4201715e-35 -0.01253808 0.049408853 -0.0054726 0.00605156
0.0009080216 -0.012019908 0.031452797 -0.0047702854 0.006572329 0.0014595145 0.016798627 -0.0407399
0.01719554 0.01118995 0.004719321 -0.012999268 0.043170497 -0.0055075404 0.006417378 0.0009594132
-0.02680465 0.03291934 -0.025533637 0.010812638 0.008118695 0.00027768017 0.0012589116 0.00041177604
0.0035645461 0.0030724555 0.0073026824 -0.034200434 0.013261064 0.014595396 0.0020239279 -0.026214167
0.031139508 -0.02457339 0.009344988 0.0100324545 -0.012695327 0.032933854 -0.0050724302 0.006612762
0.0014296051 -0.012798732 0.04550334 -0.005799665 0.0061709937 0.00094123546 -0.025451133 0.03354377
-0.024333514 0.010806005 0.0071886173 -0.011940343 0.029235465 -0.0047823843 0.00651328 0.0016229377
00000000: 9183 fbbb c62e 0c3d 2486 61bc 6f30 6bbc
00000010: c999 10bb fb1a 6bbc 864f 263d df4b 96bc
00000020: cdd9 4cbc ca0d 50bb 3a72 d7bc 734e 113d
00000030: d02c cebc ca08 493c 0e37 cb3b c414 5c3c
00000040: acc7 34bd 8e38 c13b a2c7 d4bb 135d 83ba
00000050: 0d72 6abb 1c8d fe3a 99bd 7fbc 08f9 c53c
00000060: 83e9 b0ba dbfa f31f cd4d 4d1d 724f 861f
00000070: 26e6 279f e881 bf9e a3c4 d2bc f0aa 083d
00000080: d33f c8bc 3ad4 5b3c 98e0 703b 1e2d aa34
00000090: ca01 98b4 938e cd35 56b3 afb4 3cc9 be35
000000a0: de6e 2d3c 7ac2 aebc 62c9 903b 335f cdbb
000000b0: 25c5 40bb 78b3 4ebc 6c36 243d 54bd a0bb
000000c0: 3815 d53b 5944 953a 3a8c d7bc 84af 0d3d
000000d0: a37e cdbc 959b 293c 4929 103c 1c3b b4bc
000000e0: cafb e83c a57a a2bc 3faa 513c 3713 373b
000000f0: 4656 d33c 7f33 17bd 6f6d cc3c cdc9 5bbc
00000100: fd61 65bb 8571 d0bc a356 1b3d 74c9 c9bc
00000110: 0a89 633c 2cb3 b63a 499e 4ebc 8448 4a3d
00000120: 41f1 b4bb f877 ca3b 1fc1 7a3a c772 1abc
00000130: a10e 3e3c af0a 3bbb 75da d23b bc36 5d3b
00000140: cf8e 4b3c 7847 08bd af73 9e3b 4280 d9bb
00000150: 0d9b bfba aae5 36bc c426 343d fcff b2bb
00000160: ea7f ba3b ee2b 063b b201 0000 6f0c 0080
00000170: b601 0000 9101 0000 6e01 0000 72c2 ef04
00000180: 755e b304 4085 8105 7cb9 c185 bf04 9705
00000190: 856c 4dbc f060 4a3d 7f53 b3bb 2a4c c63b
000001a0: 4c08 6e3a 26ef 44bc a6d4 003d 0e50 9cbb
000001b0: b15c d73b 2e4d bf3a 469d 893c e2de 26bd
000001c0: a9dd 8c3c 0d56 373c 89a4 9a3b e2fa 54bc
000001d0: 8cd3 303d 9978 b4bb de48 d23b 2181 7b3a
000001e0: 6d95 dbbc 6ed6 063d eb2b d1bc 7e27 313c
000001f0: 4604 053c 9a95 9139 1002 a53a a5e3 d739
00000200: 299b 693b 405b 493b 574b ef3b c115 0cbd
00000210: ef44 593c 8721 6f3c e0a3 043b 18bf d6bc
00000220: 4818 ff3c 224e c9bc b81b 193c 2a5f 243c
00000230: 1000 50bc a6e5 063d a136 a6bb deaf d83b
00000240: 9661 bb3a c6b1 51bc b661 3a3d 1e0b bebb
00000250: 0c36 ca3b 3ebd 763a e57e d0bc 3165 093d
00000260: 1457 c7bc ac0b 313c 7e8e eb3b 6ea1 43bc
00000270: 377f ef3c 8cb5 9cbb 5a6d d53b c1b8 d43a

hidden_layers_x.1.weight f4 [32]
0.048333667 0.054528575 0.06578036 0.038555287 0.082548104 6.0034603e-19 0.066677205 3.6657439e-06
0.024394928 -0.03672184 0.06490298 0.05629764 -0.064353965 0.062019058 -0.043270502 -0.017797286
0.032217853 -0.035805278 5.58e-43 -1.5943354e-35 -0.043225877 -0.029844739 -0.05506253 -0.037673134
0.06707428 -0.0030231501 -0.048372522 0.06531666 -0.0324586 -0.040283415 0.062804535 -0.029851936
00000000: 86f9 453d 5b59 5f3d dab7 863d 26ec 1d3d
00000010: fb0e a93d dd30 3121 0f8e 883d 0001 7636
00000020: dfd7 c73c a469 16bd dbeb 843d 5b98 663d
00000030: 03cc 83bd b207 7e3d 693c 31bd 9dcb 91bc
00000040: def6 033d 8ea8 12bd 8e01 0000 f089 a985
00000050: 9e0d 31bd f47c f4bc 3f89 61bd 254f 1abd
00000060: 3d5e 893d 0b20 46bb 4422 46bd bec4 853d
00000070: 4ff3 04bd 3900 25bd aa9f 803d 0c8c f4bc

hidden_layers_x.1.bias f4 [32]
-0.00068381213 -0.00029703625 0.011506947 0.041862156 0.0019151131 1.0982032e-08 0.008892663 8.0229384e-08
0.0227295 0.03671317 0.005341629 0.009640811 0.008178527 0.0034272503 0.043508377 0.014663869
0.032891996 0.03561627 -2.3461618e-08 -1.5608844e-08 0.044044282 0.029836714 0.00014530164 0.03978528
0.0033686538 0.0014371747 -0.0007109367 0.0023406986 0.033445835 0.043214776 0.0030721205 0.029348534
00000000: db41 33ba 88bb 9bb9 a287 3c3c a777 2b3d
00000010: 8804 fb3a 7dab 3c32 88b2 113c 924a ac33
00000020: 3733 ba3c 8d60 163d d508 af3b 7ef4 1d3c
00000030: 3aff 053c b89b 603b d735 323d b940 703c
00000040: c2b9 063d 5ee2 113d a588 c9b2 3614 86b2
00000050: c767 343d 206c f43c 1d5c 1839 e4f5 223d
00000060: a2c4 5c3b 955f bc3a 285e 3aba 6866 193b
00000070: 80fe 083d fa01 313d a155 493b 566c f03c

hidden_layers_x.1.running_mean f4 [32]
0.00029361327 -0.0016642284 -0.0008651384 -0.014211278 -0.0006350499 5.419518e-20 -0.0017581527 1.3153078e-06
-0.006189734 0.013201844 -0.0009780219 -0.0007244935 0.0004447781 -0.00026424954 0.01708983 0.0031764721
-0.010310757 0.015506113 1.092e-42 -4.8669825e-36 0.017097788 0.009643208 0.0022967383 0.014101496
-0.0021727057 0.003233167 -0.0006688304 -0.0022500171 0.009891346 0.015057834 -0.0011473816 0.00867699
00000000: 1bf0 9939 3d22 daba 75ca 62ba 6cd6 68bc
00000010: 7a79 26ba f4ed 7f1f d171 e6ba a289 b035
00000020: 41d3 cabb 8c4c 583c f830 80ba f0eb 3dba
00000030: 1b31 e939 f98a 8ab9 f9ff 8b3c 5c2c 503b
00000040: 73ee 28bc 5a0d 7e3c 0b03 0000 bf04 cf84
00000050: a910 8c3c 8cfe 1d3c e084 163b f609 673c
00000060: f463 0ebb 8be3 533b 7354 2fba 0675 13bb
00000070: 500f 223c 22b5 763c bd63 96ba ef29 0e3c

hidden_layers_x.1.running_var f4 [32]
2.7215108e-05 2.7137641e-05 3.7061134e-05 1.1307755e-05 5.020007e-05 1.228287e-39 3.2144933e-05 5.698514e-13
1.0145168e-05 1.0793855e-05 3.914225e-05 2.6234035e-05 3.2390195e-05 2.7822865e-05 1.2076236e-05 9.949291e-06
1.0175773e-05 1.2010241e-05 6e-45 6e-45 1.177589e-05 9.685644e-06 2.8203849e-05 1.0942773e-05
3.8332306e-05 4.60542e-06 2.717703e-05 3.910567e-05 9.9456e-06 1.0983423e-05 3.484607e-05 9.440799e-06
00000000: 004c e437 a4a5 e337 1772 1b38 70b6 3d37
00000010: ea8d 5238 f75f 0d00 5cd3 0638 1f66 202b
00000020: 2a35 2a37 4117 3537 ac2c 2438 2911 dc37
00000030: b5da 0738 2665 e937 0a9b 4a37 e1eb 2637
00000040: 9db8 2a37 987f 4937 0400 0000 0400 0000
00000050: 1091 4537 867f 2237 4e97 ec37 da96 3737
00000060: 00c7 2038 4288 9a36 3afa e337 6505 2438
00000070: 07dc 2637 7145 3837 af27 1238 ec63 1e37

hidden_layers_x.4.fc.0.weight f4 [32, 32]
1.0831618e-08 -4.797143e-08 1.245121e-07 6.658953e-08 -4.1062474e-08 4.0325157e-09 6.715377e-08 2.83859e-07
-4.547943e-08 6.529337e-08 6.756384e-08 9.154173e-08 1.1732854e-07 1.1054111e-07 -6.1092464e-08 7.589072e-08
5.4036356e-08 -1.4581698e-07 9.743663e-08 9.117127e-08 -7.150494e-08 -1.1532298e-08 -4.8720178e-08 7.5549984e-08
1.1136038e-07 -4.6133524e-09 -1.2642559e-07 9.0082956e-08 8.326015e-08 3.8170003e-07 1.0222326e-07 -2.2890954e-09
1.01163955e-07 -2.7684717e-07 3.322745e-08 4.4473867e-07 1.0477486e-06 -3.5644776e-10 -6.35766e-07 -2.401411e-07
7.28825e-07 2.2193634e-08 9.3308006e-07 -5.482743e-09 3.5624313e-07 -3.9563793e-07 6.308866e-08 1.8215976e-06
5.047409e-07 -1.8175733e-06 -2.8635388e-06 1.0202464e-07 7.477204e-08 8.233042e-07 4.038487e-08 3.6410785e-09
3.605211e-07 1.3620794e-07 3.3927372e-09 3.9492278e-07 1.2051561e-06 -3.8111311e-06 3.455329e-08 6.981582e-07
-4.3568565e-07 -4.7853252e-08 -1.4890014e-07 4.3660012e-08 1.2680194e-07 8.47579e-12 1.0732593e-06 -1.8624984e-07
2.0895181e-06 3.3173642e-09 4.4350458e-08 -1.5968402e-07 -4.5737373e-08 -1.2512218e-07 -1.3451829e-07 3.2580277e-07
-6.138246e-08 -1.4619923e-06 2.2745608e-09 8.008153e-08 1.2173938e-07 1.854996e-08 -1.27522375e-08 4.9544735e-08
3.236724e-08 -5.1813254e-07 3.2133292e-07 -6.1241074e-08 8.77664e-07 -2.7863754e-07 5.5032547e-09 -3.8904535e-08
4.4791254e-06 3.7562963e-06 1.8213999e-06 -3.4060743e-06 2.0539298e-06 2.5168225e-09 -5.6309477e-06 5.2283433e-08
6.600488e-05 -3.5011599e-06 3.1314275e-06 1.6001268e-06 1.666492e-06 5.889869e-07 -2.9668438e-06 -1.3961091e-05
-5.365028e-06 -3.3740155e-06 1.4793416e-07 1.6820971e-06 -1.180612e-06 1.2649033e-06 3.3030976e-06 -3.679566e-06
1.9802615e-06 -6.204339e-06 3.1508562e-06 3.9163288e-06 -2.1970667e-05 2.456894e-05 -1.5566741e-07 9.2902474e-07
4.359525e-07 2.1921436e-07 -1.886814e-07 -1.194517e-07 -1.5804083e-07 2.8637683e-09 6.034164e-06 -3.8278802e-09
-1.7199176e-06 -6.81319e-08 -7.06513e-08 2.5764092e-07 -1.6612569e-07 1.5945665e-07 1.5531916e-07 8.49586e-07
1.2294048e-07 -4.992703e-06 5.8244287e-10 -4.3035655e-09 -7.70898e-08 1.4761879e-08 3.1577588e-07 1.5912612e-07
-2.0802234e-07 1.2529814e-05 2.8973133e-07 2.3843484e-07 -1.3184433e-06 -2.7511119e-06 -2.556854e-07 1.3956441e-08
8.370091e-18 6.3723786e-18 -6.3165245e-18 1.220967e-19 9.7849365e-17 3.7566762e-23 7.060175e-18 -3.145481e-12
-3.676099e-18 8.367538e-18 3.0583824e-18 -1.4337986e-17 -6.82378e-18 1.2297217e-17 5.2106497e-18 -4.903311e-19
7.9039035e-18 -6.320554e-18 9.765832e-11 1.8552777e-20 3.2412427e-18 -1.4514551e-20 1.7293521e-17 1.37182396e-17
5.8379434e-18 1.5587922e-13 -7.840948e-18 -8.9914326e-18 4.8217014e-19 1.8603284e-18 -6.0685092e-18 -4.2304668e-18
-0.0047787204 -0.005523097 -0.0009916204 -0.0010040337 -0.0018221695 5.5797413e-05 -0.008262792 0.00035021993
-0.0074564554 -0.0016780578 -0.001300656 -0.0013042339 -0.001271058 -0.0022994592 -0.0006848363 0.021053474
-0.00047915496 0.0020023803 3.6408805e-05 -6.61275e-05 -0.0013993743 -0.0005052416 -0.0056208707 -0.0011420633
-0.0009744949 -0.0032791134 -0.004363841 -0.00046027548 0.0012464913 0.011100983 0.00014756313 -0.00056323514
-1.5091765e-11 -1.8578378e-11 9.884122e-12 3.934355e-12 -4.0536554e-12 1.138326e-08 1.8410683e-12 8.594068e-15
-2.3234055e-11 3.2512517e-12 5.957962e-12 4.035602e-12 7.955032e-12 -4.2303948e-13 -1.7712169e-11 -2.6552267e-12
5.718274e-12 2.4517919e-11 -4.1890234e-11 -6.674981e-09 -1.9640616e-11 6.653725e-13 3.0330845e-11 2.8624566e-12
6.7080473e-12 6.2287637e-09 -3.3352876e-11 6.9246835e-12 4.307194e-12 -1.8770607e-11 5.798041e-12 -6.5490074e-12
00000000: f615 3a32 2509 4eb3 a0b1 0534 fbff 8e33
00000010: ab5c 30b3 628e 8a31 2d36 9033 4965 9834
00000020: 2a55 43b3 6937 8c33 9d17 9133 9995 c433
00000030: 0cf6 fb33 9e62 ed33 f031 83b3 5df9 a233
00000040: 9a15 6833 de91 1cb4 5b3e d133 f0c9 c333
00000050: 428e 99b3 951f 46b2 6740 51b3 0b3e a233
00000060: 0425 ef33 7a83 9eb1 9abf 07b4 a173 c133
00000070: c0cc b233 74ec cc34 d585 db33 314e 1db1
00000080: 793f d933 96a1 94b4 f8b5 0e33 6bc4 ee34
00000090: 5ea0 8c35 90f5 c3af 82a9 2ab5 beec 80b4
000000a0: 79a4 4335 51a4 be32 c678 7a35 b862 bcb1
000000b0: af41 bf34 1068 d4b4 5c7b 8733 9e7d f435
000000c0: 887d 0735 58f3 f3b5 392b 40b6 a418 db33
000000d0: 5d92 a033 0901 5d35 a273 2d33 8836 7a31
000000e0: a58d c134 8e40 1234 aa25 6931 c605 d434
000000f0: d9c0 a135 bcc2 7fb6 be67 1433 1169 3b35
00000100: 2ee8 e9b4 3587 4db3 5ce1 1fb4 b184 3b33
00000110: 0d27 0834 911b 152d e90c 9035 f7fb 47b4
00000120: a639 0c36 b0f7 6331 d87b 3e33 9c75 2bb4
00000130: c670 44b3 5359 06b4 1b70 10b4 fee9 ae34
00000140: 5dd1 83b3 ac39 c4b5 7f4e 1c31 49f9 ab33
00000150: 77b7 0234 cb57 9f32 ef14 5bb2 03cb 5433
00000160: 2804 0b33 cc15 0bb5 a983 ac34 a383 83b3
00000170: 9c98 6b35 a797 95b4 2417 bd31 fd17 27b3
00000180: 654b 9636 ae14 7c36 d376 f435 e993 64b6
00000190: 3fd6 0936 69f4 2c31 79f1 bcb6 3e8e 6033
000001a0: 1a6c 8a38 78f5 6ab6 8425 5236 f0c3 d635
000001b0: 3bac df35 df1a 1e35 fd19 47b6 6e3a 6ab7
000001c0: 3d05 b4b6 256d 62b6 d5d7 1e34 6bc4 e135
000001d0: 8575 9eb5 bfc5 a935 c9aa 5d36 76ee 76b6
000001e0: a2e4 0436 de2e d0b6 4c73 5336 0269 8336
000001f0: a64d b8b7 6619 ce37 8825 27b4 1862 7935
00000200: db0c ea34 2f61 6b34 5998 4ab4 a242 00b4
00000210: efb1 29b4 f2cb 4431 1379 ca36 6486 83b1
00000220: ebd7 e6b5 e84f 92b3 f7b8 97b3 e651 8a34
00000230: 4860 32b4 1c37 2b34 cec5 2634 1b0f 6435
00000240: 9f01 0434 fe86 a7b6 c619 2030 90de 93b1
00000250: 918c a5b3 6e9b 7d32 e887 a934 41dc 2a34
00000260: bf5c 5fb4 2437 5237 5f8c 9b34 3c02 8034
00000270: 5ef5 b0b5 be9f 38b6 2245 89b4 14c5 6f32
00000280: a366 1a23 6a19 eb22 e309 e9a2 7725 1020
00000290: 12a0 e124 66a9 351a bc3c 0223 f357 5dac
000002a0: c69f 87a2 955a 1a23 36ab 6122 9d3e 84a3
000002b0: c8c0 fba2 f7d7 6223 323d c022 5fb8 10a1
000002c0: 21cd 1123 f22f e9a2 bfc0 d62e dd39 af1e
000002d0: 5829 6f22 0816 899e 2c81 9f23 8e0e 7d23
000002e0: d161 d722 2081 2f2a d4a3 10a3 d7dc 25a3
000002f0: bf4f 0e21 9c44 0922 73e3 dfa2 a113 9ca2
00000300: d096 9cbb 18fb b4bb 42f9 81ba c899 83ba
00000310: ddd5 eeba 0408 6a38 a960 07bc b99d b739
00000320: 4855 f4bb 47f2 dbba c67a aaba d4f2 aaba
00000330: a199 a6ba 86b2 16bb 9686 33ba 5678 ac3c
00000340: 1737 fbb9 5e3a 033b a8b5 1838 eead 8ab8
00000350: 366b b7ba 3172 04ba 482f b8bb 49b1 95ba
00000360: 3f75 7fba 65e6 56bb 8dfe 8ebb 2151 f1b9
00000370: 4f61 a33a e6e0 353c 2dbb 1a39 12a6 13ba
00000380: a2bf 84ad ca6a a3ad 21e2 2d2d 856d 8a2c
00000390: 15a0 8eac 1b90 4332 bd8d 012c 25d1 1a28
000003a0: 715e ccad 58c9 642c 8da0 d12c 79fd 8d2c
000003b0: 47f2 0b2d 6a26 eeaa 42cc 9bad 50d8 3aac
000003c0: a231 c92c 72a9 d72d 363c 38ae c159 e5b1
000003d0: bcc2 acad 2449 3b2b 7f65 052e 6f6d 492c
000003e0: b804 ec2c c904 d631 00b0 12ae 01a4 f32c
000003f0: c18b 972c a61b a5ad 1c00 cc2c 376c e6ac

hidden_layers_x.4.fc.1.weight f4 [32]
3.8693602e-07 1.5484101e-06 -1.1150638e-06 -1.3825619e-05 -5.8945698e-06 -7.20036e-16 0.016392093 -4.7554655e-10
-0.0001754881 -1.9525767e-06 -5.0502086e-07 -1.5690894e-05 -1.5139087e-05 -7.158005e-08 -0.0006943224 -0.00030114455
-7.1787535e-36 -0.00513691 1.2829747e-07 6.9267024e-08 -4.3185256e-08 -4.51524e-07 -1.2795375e-06 5.249812e-06
-2.1695175e-06 -0.005410855 2.658836e-06 -1.108317e-07 0.0007495731 -0.005366638 0.0052756676 9.130895e-07
00000000: 15bc cf34 f7d2 cf35 4da9 95b5 95f4 67b7
00000010: f8c9 c5b6 4789 4fa6 b648 863c 9db7 02b0
00000020: 3a03 38b9 0309 03b6 c590 07b5 f09f 83b7
00000030: e2fd 7db7 8cb7 99b3 3003 36ba f0e2 9db9
00000040: daac 1885 8653 a8bb 24c2 0934 f3bf 9433
00000050: b17a 39b3 fc68 f2b4 93bc abb5 8b27 b036
00000060: 0798 11b6 8b4d b1bb 746e 3236 5f02 eeb3
00000070: 007f 443a 9fda afbb 82df ac3b 081b 7535

hidden_layers_x.4.fc.1.bias f4 [32]
-0.0030346678 -0.0036272446 -0.00393373 -0.0025421272 -0.0033882423 -8.523357e-05 0.0018027696 -0.00042645092
0.004434845 -0.0026844165 -0.0027107038 -0.006994546 -0.0031387683 -0.0071022296 -0.0017015738 0.0065694237
-0.0009540334 0.0027783222 -1.0480881e-05 -0.0021869587 -0.0022585778 -0.00044219958 -0.0011455548 -0.0014374948
-0.0009952114 0.004352432 -0.0048029153 -0.006359858 0.0020807688 0.007595007 -0.0005536521 -0.00016246965
00000000: 47e1 46bb 11b7 6dbb 85e6 80bb d199 26bb
00000010: 460d 5ebb 6dbf b2b8 e94a ec3a 4695 dfb9
00000020: 2d52 913b 09ed 2fbb 10a6 31bb 8132 e5bb
00000030: cbb3 4dbb d2b9 e8bb 5807 dfba 5244 d73b
00000040: 1918 7aba 8314 363b 0bd7 2fb7 1453 0fbb
00000050: a604 14bb 06d7 e7b9 7126 96ba 526a bcba
00000060: c171 82ba d99e 8e3b c661 9dbb 5b66 d0bb
00000070: 825d 083b 89df f83b f722 11ba 9d5c 2ab9

hidden_layers_x.4.fc.1.running_mean f4 [32]
6.954767e-09 -1.0049794e-07 -5.2677184e-08 2.1571171e-07 -7.222264e-08 2.8758023e-17 4.2959375e-05 -6.9974976e-12
-1.3341612e-05 4.7353957e-08 -1.132189e-07 4.7012264e-07 1.9456824e-07 -1.5885312e-09 -2.347646e-06 7.460721e-05
-1.2089889e-38 0.00023365155 -7.655855e-09 -1.6136044e-08 -1.227517e-09 -1.0503316e-08 -2.060356e-08 2.6210105e-07
-2.7276469e-08 0.00014787128 -8.93125e-08 6.5768335e-11 -3.356498e-05 -0.00034396056 -0.00015307791 -2.7195243e-10
00000000: c7f6 ee31 54d1 d7b3 2d3f 62b3 629e 6734
00000010: d118 9bb3 7b9f 0424 472f 3438 db33 f6ac
00000020: cad5 5fb7 3a62 4b33 c022 f3b3 2a65 fc34
00000030: 83ea 5034 7953 dab0 408c 1db6 7176 9c38
00000040: b1a5 8380 5c00 7539 ce86 03b2 899b 8ab2
00000050: 6ab5 a8b0 1372 34b2 b5fb b0b2 e5b6 8c34
00000060: 974d eab2 e50d 1b39 11cc bfb3 48a0 902e
00000070: 1fc8 0cb8 9b55 b4b9 8a83 20b9 e781 95af

hidden_layers_x.4.fc.1.running_var f4 [32]
7.403504e-16 5.920944e-15 3.4709132e-15 7.8049134e-13 1.3401891e-14 3.0218606e-30 1.1207115e-07 2.701862e-21
1.5163555e-09 8.976614e-16 8.4106475e-15 1.9013468e-13 2.7707418e-14 1.02041e-16 7.212583e-12 8.2753395e-09
6e-45 8.231338e-08 5.38094e-15 3.089261e-14 1.713009e-18 9.8066775e-17 2.1763324e-15 2.7084793e-13
3.438432e-15 1.1564008e-08 5.6273388e-15 1.1202572e-18 7.161468e-10 3.306173e-08 1.5389267e-08 4.8970742e-18
00000000: 3864 5526 1253 d527 0c1b 7a27 54b0 5b2b
00000010: 506d 7128 9729 750e c4ab f033 9d25 4c1d
00000020: 0468 d030 dc5d 8126 4483 1728 9712 562a
00000030: f590 f928 604a eb24 2cc5 fd2c 542b 0e32
00000040: 0400 0000 42c4 b033 69de c127 c120 0b29
00000050: a6cb fc21 6820 e224 3fd2 1c27 4d79 982a
00000060: e0c3 7727 0cab 4632 0abf ca27 1f52 a521
00000070: 5ada 4430 c2ff 0d33 5b31 8432 8fab b422

hidden_layers_x.5.fc.0.weight f4 [32, 32]
-7.2913103e-10 2.8152078e-09 -1.2042105e-09 -2.4611397e-09 4.744085e-10 -3.5608099e-09 -2.1778925e-09 -1.4372766e-07
-2.1864832e-09 -4.647973e-09 -1.68084e-09 -2.5846094e-09 2.1569439e-07 4.277571e-07 -1.5585268e-06 -5.9761063e-09
1.1603513e-06 1.5192597e-08 6.305372e-09 -1.9994557e-09 6.299118e-07 -1.145432e-06 3.5207781e-09 9.7713935e-09
-4.0433555e-08 -9.72119e-10 8.948241e-10 -1.873247e-10 8.62134e-10 -1.6555735e-08 2.1446525e-09 -8.715078e-10
1.1904212e-10 -3.3530723e-10 1.1034462e-10 1.3069812e-10 -2.1647616e-11 -6.5141205e-11 1.9382544e-10 -2.0574905e-08
2.6091818e-11 4.278459e-09 1.4553979e-10 5.6197624e-10 1.7782826e-11 4.7155096e-11 3.8744665e-07 3.1379854e-11
-4.6886536e-11 2.4437313e-10 -1.388143e-06 -8.802722e-08 3.4832215e-10 -4.7388845e-08 -1.5083375e-10 -2.495288e-10
-1.4157288e-09 1.2735165e-09 4.4981077e-10 5.2850835e-11 -3.2978134e-11 2.1564295e-10 1.1272419e-10 7.642423e-11
2.0697373e-10 3.622668e-10 4.5336981e-10 -1.08580055e-10 -1.7000188e-11 -7.378126e-10 3.4059734e-11 5.1639604e-10
-2.3030176e-12 -8.518927e-11 6.9009815e-12 9.520339e-11 1.0178374e-10 1.8648967e-10 -8.5646344e-11 -9.162085e-11
5.5400726e-11 4.200599e-10 2.3391657e-11 2.0223742e-06 -3.8611453e-12 7.519532e-10 -5.919281e-11 -1.5635825e-10
-1.5535235e-11 1.0772067e-09 -8.270587e-11 1.0637667e-10 5.922716e-11 -1.4815037e-10 2.687569e-10 8.1559974e-11
-5.6518856e-10 6.2900636e-11 2.4537448e-08 -8.2987517e-10 -1.485978e-10 1.888565e-08 9.240281e-10 3.0121845e-07
-6.1401176e-11 9.877136e-10 5.6206494e-11 -3.1463396e-10 -2.3505168e-06 -1.9555486e-10 -9.6614e-10 -2.8817407e-10
7.677341e-12 -1.0774526e-09 -1.3999039e-07 2.333798e-06 -5.131105e-10 -4.6248883e-07 1.3699097e-10 2.18906e-09
-7.0127246e-09 -5.611026e-10 6.233786e-09 9.973317e-09 -3.2072295e-10 -1.8444837e-10 -4.156475e-09 -3.915806e-10
-1.9528402e-13 -5.3047248e-14 -6.611482e-14 2.0295212e-13 9.764124e-14 4.995395e-16 -7.201229e-14 -1.1914093e-09
-6.16519e-15 -1.0045374e-13 -6.1915e-14 -1.4871535e-13 -7.61616e-14 -6.627747e-14 8.656112e-15 -5.1754797e-14
-7.270832e-15 -1.3124087e-13 1.1691631e-15 4.133662e-15 -1.32867985e-14 3.142201e-14 -1.5490535e-14 4.46642e-15
-1.4898242e-12 3.2138028e-10 -8.813813e-14 -4.151356e-14 2.8339911e-14 1.3155526e-14 -4.31655e-14 2.934231e-14
8.6767557e-07 5.8877747e-09 6.912303e-09 -1.041002e-09 2.5962197e-07 -1.3695693e-08 3.9944936e-08 3.6696516e-08
-2.2459254e-07 4.658212e-06 -2.1285012e-09 -4.454272e-09 5.4148336e-07 4.6216867e-11 -1.1855479e-09 3.962006e-09
-2.1680381e-07 -8.3846274e-08 4.3298273e-10 -2.0444332e-08 -7.534532e-09 4.21127e-08 4.1533426e-08 -4.0227015e-08
-8.489203e-09 5.0309552e-08 -3.6052555e-07 1.7523354e-09 -1.6432858e-07 7.4677273e-06 5.5724463e-06 4.673417e-07
3.732373e-21 -5.097925e-22 4.9710995e-22 3.853403e-22 -3.2577282e-22 -3.1684923e-23 2.8024514e-24 -8.384514e-21
1.4310104e-24 1.380961e-22 1.5254654e-21 4.0387033e-21 3.618113e-21 -3.114448e-22 1.9389733e-22 1.6631157e-22
-6.7545477e-23 1.8493519e-21 3.2980593e-23 -7.094311e-24 -2.3513795e-23 -7.235754e-22 2.1160102e-22 8.140198e-22
3.453689e-19 -2.9944887e-18 6.7789375e-22 1.9900594e-24 -1.7978563e-21 1.4290325e-21 1.4678043e-21 -2.1095355e-21
-1.02145705e-07 -3.3791334e-08 -1.319079e-06 -6.9503517e-06 -3.317249e-07 -1.972806e-11 -1.1011422e-06 -3.9795177e-07
-6.5808776e-09 1.9015246e-06 -2.554176e-08 -7.92063e-08 3.2817053e-07 -7.3426945e-09 -4.4573832e-07 3.737105e-06
-1.2092344e-06 -1.7698496e-09 1.1770485e-10 -1.8807341e-07 8.500094e-09 3.295201e-08 4.4397833e-08 8.347765e-07
-2.171945e-06 -2.1373248e-08 -5.3226684e-10 8.406061e-08 -6.0299755e-08 3.5620488e-08 -4.9415246e-07 -1.1065639e-06
00000000: 096c 48b0 a975 4131 6481 a5b0 d420 29b1
00000010: 8867 0230 6eb2 74b1 e4a9 15b1 8f53 1ab4
00000020: 0541 16b1 01b4 9fb1 4d03 e7b0 ee9c 31b1
00000030: 9f99 6734 7da6 e534 932e d1b5 6356 cdb1
00000040: 5ebd 9b35 e080 8232 a3a6 d831 cc66 09b1
00000050: 3617 2935 bebc 99b5 2ff2 7131 0bdf 2732
00000060: 2aa9 2db3 669b 85b0 a6f7 7530 37f7 4daf
00000070: 49fb 6c30 7236 8eb2 2061 1331 e98e 6fb0
00000080: 61e3 022f 4c56 b8af 80a6 f22e 40b4 0f2f
00000090: 196a bead 3d3f 8fae 031d 552f b2bc b0b2
000000a0: 8d81 e52d b901 9331 cf05 202f 9079 1a30
000000b0: 5d6b 9c2d eb63 4f2e 4302 d034 9302 0a2e
000000c0: 8c35 4eae 7658 862f 3b50 bab5 7a09 bdb3
000000d0: fc7d bf2f 9688 4bb3 edd7 25af 0e2e 89af
000000e0: 8793 c2b0 e107 af30 3d49 f72f c070 682e
000000f0: 140a 11ae 181a 6d2f 14e2 f72e 040f a82e
00000100: ed91 632f 8528 c72f 213e f92f 23c5 eeae
00000110: 0589 95ad f2ce 4ab0 dacb 152e 24f2 0d30
00000120: 7a0f 22ac 4c55 bbae 84ce f22c be5a d12e
00000130: 27d3 df2e 2d0c 4d2f 9b56 bcae f479 c9ae
00000140: aca7 732e 2dee e62f 54c1 cd2d 20b8 0736
00000150: 1bda 87ac 01b2 4e30 972a 82ae efea 2baf
00000160: 3da6 88ad d70c 9430 44df b5ae beec e92e
00000170: ed3d 822e 9fe4 22af 2cc0 932f 2f5a b32e
00000180: 9c5b 1bb0 e951 8a2e 6bc6 d232 461d 64b0
00000190: 9062 23af fc39 a232 b2fe 7d30 26b7 a134
000001a0: ca05 87ae 15c0 8730 e332 772e cbf8 acaf
000001b0: 92bd 1db6 cd03 57af 07c9 84b0 e56c 9eaf
000001c0: ac0f 072d 7e15 94b0 4450 16b4 589e 1c36
000001d0: f10a 0db0 fb4b f8b4 889f 162f 5a6e 1631
000001e0: 94f4 f0b1 163c 1ab0 f630 d631 1d57 2b32
000001f0: be51 b0af 9acd 4aaf bed0 8eb1 1246 d7af
00000200: c9de 5baa 50e7 6ea9 99e0 94a9 f780 642a
00000210: 58de db29 82fb 0f26 4228 a2a9 fdbe a3b0
00000220: d71f dea7 a333 e2a9 916b 8ba9 4870 27aa
00000230: 2c80 aba9 5c3e 95a9 45ef 1b28 3815 69a9
00000240: cbfa 02a8 9bc3 13aa 817e a826 4dee 9427
00000250: 8b5a 6fa8 1c83 0d29 be86 8ba8 74eb a027
00000260: 93ac d1ab 41ae b02f 2c78 c6a9 e0f5 3aa9
00000270: 6343 ff28 28fd 6c28 6f66 42a9 6125 0429
00000280: 36ea 6835 6a4d ca31 4381 ed31 0013 8fb0
00000290: 2c62 8b34 4b4a 6bb2 ec8f 2b33 3f9c 1d33
000002a0: 8727 71b4 bd4d 9c36 fd44 12b1 310c 99b1
000002b0: 745a 1135 9143 4b2e c2f0 a2b0 2c22 8831
000002c0: 94ca 68b4 fa0e b4b3 e708 ee2f 909d afb2
000002d0: 3971 01b2 67df 3433 7c62 3233 12c6 2cb3
000002e0: e9d7 11b2 f013 5833 418e c1b4 d2d6 f030
000002f0: 4c72 30b4 4a93 fa36 f3fa ba36 f4e6 fa34
00000300: 4c01 8d1d 4913 1a9c 053e 161c 86ec e81b
00000310: e7ea c49b 0938 199a 45d4 5818 0661 1e9e
00000320: 2a70 dd17 acf2 261b 9685 e61c f193 981d
00000330: 3eb0 881d c041 bc9b 5168 6a1b f00e 491b
00000340: a050 a39a abbb 0b1d ff7b 1f1a 5439 0999
00000350: 5669 e399 efaf 5a9c 58cf 7f1b bb05 761c
00000360: acde cb20 4bf4 5ca2 7de1 4c1c 30f9 1918
00000370: 99d7 079d 04f3 d71c eece dd1c 5a64 1f9d
00000380: 325b dbb3 f721 11b3 360b b1b5 1137 e9b6
00000390: ec17 b2b4 a487 adad f5ca 93b5 13a6 d5b4
000003a0: 031e e2b1 e337 ff35 ed66 dbb2 2018 aab3
000003b0: 6a2f b034 064b fcb1 cf4d efb4 faca 7a36
000003c0: fa4c a2b5 0c3f f3b0 f86a 012f 3af1 49b4
000003d0: cf07 1232 1e87 0d33 efaf 3e33 6715 6035
000003e0: bbc1 11b6 4598 b7b2 f34e 12b0 cf84 b433
000003f0: 247e 81b3 24fd 1833 e6a5 04b5 3f85 94b5

hidden_layers_x.5.fc.1.weight f4 [32]
2.381484e-08 3.3875565e-09 3.4898053e-09 8.217704e-10 -3.5624222e-11 2.7415386e-08 2.873986e-19 3.191855e-08
1.7388856e-18 3.3786854e-08 0.0010951228 -5.127785e-07 1.2050226e-10 -1.3869361e-15 9.945017e-10 9.401475e-08
4.239388e-08 -2.4297822e-10 -4.334471e-06 -6.513411e-07 -5.0573173e-05 1.1401712e-07 -0.00022451587 5.4576986e-08
-0.0064800964 0.00012596704 -8.749256e-22 -1.2243818e-07 2.083341e-05 -7.025973e-13 -4.5772117e-10 3.5213874e-05
00000000: 6391 cc32 86ca 6831 4ed1 6f31 f3e2 6130
00000010: 4fad 1cae 127f eb32 73a6 a920 d116 0933
00000020: 9f4e 0022 0a1d 1133 398a 8f3a dfa5 09b5
00000030: 5f7e 042f e9e0 c7a6 ebae 8830 28e5 c933
00000040: 9014 3633 2594 85af d370 91b6 d2d7 2eb5
00000050: 881e 54b8 93d9 f433 056c 6bb9 0868 6a33
00000060: fd56 d4bb 0516 0439 0b37 849c 8d77 03b4
00000070: 68c3 ae37 79c3 45ab 87a2 fbaf 9cb2 1338

hidden_layers_x.5.fc.1.bias f4 [32]
-0.0026406697 -0.0012514547 -0.0011251755 -0.0031552045 -0.0006366766 -3.2930537e-05 -0.0013427434 -0.0019390198
-0.00010060271 -0.0014559821 -0.00026968788 -0.0027778558 -0.0018340314 -0.001587868 -0.000513402 -0.0019753058
-0.00029740468 -0.0034695556 -9.7490665e-06 -0.00074840226 -0.0005975615 -0.0010195506 -0.0007216939 -0.0025559594
0.004503995 0.0055127116 -0.0011140058 -0.0010431601 -0.0023395352 -0.0019195721 -0.0010811838 -0.0007013548
00000000: 160f 2dbb da07 a4ba a07a 93ba 8cc7 4ebb
00000010: a5e6 26ba e51e 0ab8 fefe afba b526 feba
00000020: abfa d2b8 a7d6 beba e564 8db9 b00c 36bb
00000030: e263 f0ba 0220 d0ba d395 06ba 2274 01bb
00000040: fbec 9bb9 7c61 63bb ec8f 23b7 6d30 44ba
00000050: aca5 1cba 71a2 85ba 0f30 3dba e281 27bb
00000060: 4096 933b faa3 b43b d503 92ba a5ba 88ba
00000070: e352 19bb 279a fbba 82b6 8dba 20db 37ba

hidden_layers_x.5.fc.1.running_mean f4 [32]
1.4342119e-10 -1.6488033e-09 -6.182446e-12 5.607455e-09 -4.7761475e-13 -5.6195184e-08 3.1147478e-21 2.8532499e-08
1.9315321e-19 2.507516e-09 4.309491e-05 -1.2067983e-08 8.791251e-13 -1.9247793e-17 -7.596427e-12 7.754211e-09
8.285874e-10 -1.2779652e-11 2.33957e-08 6.581225e-08 -4.1463102e-07 3.2488523e-09 1.2212553e-06 -4.313993e-09
6.1754035e-05 -8.755812e-06 -1.026692e-23 2.1664703e-09 2.1993248e-08 4.376831e-13 -4.833844e-11 -7.495653e-09
00000000: 7ab1 1d2f 1c9c e2b0 8686 d9ac b2ab c031
00000010: c56f 06ab 425b 71b3 fc57 6b1d a117 f532
00000020: fa08 6420 b050 2c31 cfc0 3438 8d53 4fb2
00000030: a473 772b 9187 b1a3 44a3 05ad 6137 0532
00000040: a8c2 6330 70d2 60ad b0f7 c832 ab54 8d33
00000050: 749a deb4 6a42 5f31 03ea a335 493a 94b1
00000060: f281 8138 ede5 12b7 5397 4699 f3e0 1431
00000070: aaeb bc32 c864 f62a 3f98 54ae 3bc6 00b2

hidden_layers_x.5.fc.1.running_var f4 [32]
1.6738128e-16 2.91281e-17 2.9784575e-21 1.7240482e-16 3.440874e-24 1.0012815e-14 9.1536e-41 3.5305549e-15
5.7420104e-37 1.278358e-15 5.1432343e-09 1.7288261e-15 2.8072248e-24 2.8951015e-33 1.9574587e-21 6.031882e-15
8.773827e-19 6.0339534e-22 7.267283e-15 6.094396e-14 2.1908588e-13 1.1752601e-16 5.288542e-13 5.8593818e-15
2.8477123e-09 1.5297229e-10 6e-45 1.0905887e-16 3.406566e-16 2.8650576e-24 2.196391e-19 6.134496e-16
00000000: 3cfa 4025 6454 0624 bf0b 611d ecc4 4625
00000010: c41c 8518 f55f 3428 2aff 0000 3e67 7e27
00000020: f763 4303 163b b826 5eb8 b031 6d26 f926
00000030: d132 5918 0084 7009 c2e6 131d 4b52 d927
00000040: 957a 8121 745d 361c 6dea 0228 cd3b 8929
00000050: 35ab 762a 8e7f 0725 f6db 142b 421b d327
00000060: 7cb1 4331 df31 282f 0400 0000 fe78 fb24
00000070: 0a60 c425 50ac 5d18 eca6 8120 97d0 3026

hidden_layers_x.6.fc.0.weight f4 [32, 32]
-1.8682621e-06 6.386179e-07 -2.4091182e-09 -3.9388815e-06 1.474672e-11 1.7406282e-07 9.590082e-08 1.2308932e-07
5.374087e-06 3.3259166e-06 -1.6152917e-08 5.837667e-07 -2.2629153e-07 -8.4955265e-11 -2.333394e-07 5.2872923e-07
1.1300379e-07 4.0700168e-09 3.742297e-09 -2.4781711e-08 5.359904e-06 1.00626165e-08 5.7389283e-08 -3.5576667e-10
-3.5351113e-09 1.0102897e-07 -3.0449328e-07 4.479953e-07 1.6100945e-08 -1.7529258e-07 2.6102192e-08 3.5800614e-09
0.00016639219 -0.00033041902 -2.6467028e-06 4.5537313e-06 2.0260462e-08 -2.7576675e-07 4.8740526e-06 -0.00011191777
1.2751384e-05 -1.8462599e-05 2.7310793e-06 -1.2290707e-06 -2.217411e-05 2.1010808e-06 4.862504e-05 -0.00084877067
-7.5535405e-05 1.7653247e-05 -5.57052e-07 0.00016641873 4.261515e-06 2.2676448e-05 -2.7863245e-05 -1.664097e-06
5.05072e-06 6.1409606e-05 -2.320856e-07 1.2931962e-05 -1.5177625e-05 2.8554037e-05 -7.613443e-06 9.798178e-06
-3.3871034e-13 1.4154937e-10 1.9188991e-15 -9.198426e-15 -7.2034214e-15 -1.7610605e-16 1.80056e-15 -1.03868e-12
2.8764134e-14 2.2993289e-14 2.7509626e-16 1.6650651e-13 -3.7572806e-14 1.7232538e-14 -8.491849e-14 2.432168e-13
8.0525864e-14 7.730978e-14 -1.894359e-15 -2.7236698e-12 5.679417e-15 2.424798e-14 1.6293397e-14 -4.5467935e-16
1.4317178e-14 -1.2124889e-13 -1.06977896e-13 4.2361798e-14 2.566154e-14 -2.967257e-14 -3.1815875e-14 -1.885479e-14
1.1933304e-08 -1.0961274e-06 -7.266442e-10 -3.6207906e-10 1.3202811e-09 -9.1997646e-11 -8.535892e-09 -1.2280477e-06
-5.681157e-10 9.58989e-09 -6.2159677e-09 -6.4046666e-09 -7.976828e-09 -8.932867e-09 -1.2336128e-08 5.260502e-07
-4.4184077e-08 1.3568788e-08 1.4275468e-10 -3.958225e-08 8.530418e-10 -3.152143e-09 3.6510681e-09 3.2089065e-09
1.0469436e-08 5.69481e-08 -2.9814338e-08 8.25506e-10 1.430218e-08 2.8268689e-08 -8.849335e-10 2.9223832e-09
9.972662e-13 8.195833e-12 3.1575413e-15 2.8921134e-13 4.2455595e-15 1.4125569e-14 3.0696298e-13 3.0400647e-06
-5.474493e-14 4.688987e-13 1.0717497e-13 1.4395037e-14 2.7728872e-13 6.00409e-14 -1.7700334e-13 -4.7016176e-12
-4.4613743e-13 8.541877e-15 4.4203803e-15 3.0770434e-12 7.970396e-14 -9.710152e-14 -5.4997863e-14 -2.7219834e-15
-2.0177283e-13 -1.6861695e-13 -5.3488816e-13 5.734209e-14 -1.3353423e-13 -3.3403952e-13 3.9331998e-13 5.223884e-13
-1.3873921e-09 -2.7519945e-10 -4.526545e-12 -8.6238867e-13 5.584387e-09 -2.0821771e-10 1.5262226e-11 -3.7791602e-07
7.4295024e-13 -1.8059363e-07 9.1421925e-06 2.5479679e-08 1.6618616e-11 9.16268e-13 -3.2135565e-09 -1.1783142e-07
-2.3363017e-12 -1.9162133e-08 3.5223158e-11 3.0424632e-10 8.1536635e-09 3.5800193e-11 -1.0063021e-10 1.8602024e-14
2.003384e-08 -9.845513e-07 -2.9485736e-07 1.4198326e-10 -5.5731947e-10 -5.387792e-12 3.1378715e-09 6.976213e-09
-3.3915763e-16 -6.0991747e-15 -4.1586137e-18 -4.8538895e-17 -8.0823937e-19 -6.762195e-19 3.1773813e-18 -1.5765031e-15
-1.0992422e-18 4.0769075e-17 -1.2080752e-18 7.350406e-17 -9.764166e-17 1.9020782e-17 -6.1294626e-17 -6.280729e-15
-4.41784e-17 -3.4268637e-17 4.352915e-19 -1.1942415e-15 1.019037e-17 4.7189162e-17 1.6813857e-17 -4.0816925e-18
2.5432978e-17 7.184906e-17 -3.0633985e-17 1.1801016e-17 7.885373e-17 -1.4728491e-18 8.4986985e-18 1.1146179e-17
6.8877785e-06 -2.0098043e-05 -4.6150585e-06 -2.1179146e-06 -6.068107e-07 -1.742234e-08 -5.3723816e-06 -2.6912428e-06
2.2056988e-06 -1.609348e-06 5.9451345e-06 5.0515346e-06 -3.8488706e-06 5.363887e-07 3.528683e-07 1.4537534e-06
-1.1961711e-07 -3.2177427e-06 7.074734e-08 1.2287576e-06 -2.5048587e-06 -2.020428e-06 -4.421297e-06 1.6151893e-06
7.274228e-06 4.2635756e-06 6.242686e-06 -4.426055e-06 2.6843023e-07 -5.7578654e-06 -4.338126e-06 1.8492036e-06
00000000: ffc0 fab5 7d6d 2b35 a88d 25b1 bc2a 84b6
00000010: a9b6 812d 06e6 3a34 09f2 cd33 892a 0434
00000020: 0e53 b436 d032 5f36 a4c0 8ab2 24b4 1c35
00000030: 8bfa 72b4 90d1 baae d98b 7ab4 ffed 0d35
00000040: 7eac f233 3fd8 8b31 9895 8031 8fdf d4b2
00000050: 3ad9 b336 dbdf 2c32 2f7c 7633 b595 c3af
00000060: 56ee 72b1 43f5 d833 3d79 a3b4 0184 f034
00000070: 5a4e 8a32 0f38 3cb4 5437 e032 1b05 7631
00000080: 9079 2e39 173c adb9 029e 31b6 41cc 9836
00000090: 3a09 ae32 180d 94b4 cb8b a336 65b5 eab8
000000a0: c7ee 5537 21e0 9ab7 9647 3736 8cf6 a4b5
000000b0: 8a02 bab7 4b00 0d36 bdf2 4b38 0980 5eba
000000c0: c368 9eb8 0f16 9437 5288 15b5 b080 2e39
000000d0: 23fe 8e36 4d39 be37 ddbb e9b7 f059 dfb5
000000e0: 5b79 a936 08c9 8038 3433 79b4 5bf6 5837
000000f0: 67a3 7eb7 5487 ef37 fa76 ffb6 db62 2437
00000100: 4ead beaa 9ba2 1b2f 7145 0a27 41b4 25a8
00000110: ebc3 01a8 5509 4ba5 78be 0127 642e 92ab
00000120: ca8a 0129 ea1a cf28 0b95 9e25 3c78 3b2a
00000130: 7f36 29a9 8737 9b28 2d38 bfa9 3ceb 882a
00000140: 0054 b529 0e16 ae29 c180 08a7 46a9 3fac
00000150: 609f cc27 0968 da28 04c2 9228 6a0d 03a6
00000160: 2af5 8028 9d83 08aa 8fe4 f0a9 d4c7 3e29
00000170: 7c23 e728 25a2 05a9 3549 0fa9 30d4 a9a8
00000180: 3a03 4d32 a71e 93b5 0abd 47b0 190e c7af
00000190: 4375 b530 124e caae 40a5 12b2 66d3 a4b5
000001a0: 9729 1cb0 c8c0 2432 3b94 d5b1 0b10 dcb1
000001b0: 760a 09b2 2a77 19b2 ddee 53b2 e535 0d35
000001c0: e8c4 3db3 291c 6932 dff5 1c2f 2501 2ab3
000001d0: 7b7b 6a30 169d 58b1 45e6 7a31 ae83 5c31
000001e0: 11dd 3332 1997 7433 360d 00b3 d2e9 6230
000001f0: a7b5 7532 81d3 f232 a93f 73b0 1cd3 4831
00000200: 4d5a 8c2b c02e 102d 5b86 6327 bfcf a22a
00000210: 60f6 9827 b076 7e28 07ce ac2a ea03 4c36
00000220: 9b8c 76a9 b6fb 032b 2a56 f129 b2a8 8128
00000230: 8419 9c2a 3933 8729 bd49 47aa 686c a5ac
00000240: 2e27 fbaa 74e0 1928 d042 9f27 1687 582c
00000250: 347a b329 37a7 daa9 38b0 77a9 bb23 44a7
00000260: 0f2d 63aa 87d8 3daa c18e 16ab 771f 8129
00000270: 9f58 16aa 2b0c bcaa 626b dd2a 0d0a 132b
00000280: 85ae beb0 e14a 97af 7e43 9fac a7bd 72ab
00000290: cae0 bf31 13f0 64af 7a3f 862d 62e4 cab4
000002a0: 351f 512b 33e9 41b4 6b61 1937 68de da32
000002b0: cc2d 922d 09f4 802b 7cd5 5cb1 820a fdb3
000002c0: 1267 24ac fa99 a4b2 c0e9 1a2e dd42 a72f
000002d0: 3114 0c32 6f73 1d2e c649 ddae 598d a728
000002e0: e116 ac32 ed24 84b5 e34c 9eb4 bc1c 1c2f
000002f0: df31 19b0 eb90 bdac 05a2 5731 6bb3 ef31
00000300: d582 c3a5 f5be dba7 ff6c 99a2 9dd8 5fa4
00000310: d78c 6ea1 b395 47a1 0973 6a22 b332 e3a6
00000320: 3238 a2a1 a103 3c24 ca47 b2a1 237d a924
00000330: 7625 e1a4 8d6f af23 f655 8da4 8049 e2a7
00000340: a6bc 4ba4 4409 1ea4 b279 0021 bc1b aca6
00000350: a9fa 3b23 219f 5924 9914 9b23 7f96 96a2
00000360: ec93 ea23 33ac a524 3a46 0da4 b9b0 5923
00000370: 07d3 b524 aa5a d9a1 f8c5 1c23 589c 4d23
00000380: 911d e736 3898 a8b7 0ddb 9ab6 7f21 0eb6
00000390: b7e3 22b5 21a8 95b2 6844 b4b6 339b 34b6
000003a0: 9e05 1436 c700 d8b5 517c c736 5a80 a936
000003b0: 8c25 81b6 5afc 0f35 da71 bd34 961e c335
000003c0: 1a70 00b4 66f0 57b6 c3ed 9733 caeb a435
000003d0: 2519 28b6 b096 07b6 a75a 94b6 7bc9 d835
000003e0: 2515 f436 d60f 8f36 4478 d136 8683 94b6
000003f0: c51c 9034 b033 c1b6 3890 91b6 2732 f835

hidden_layers_x.6.fc.1.weight f4 [32]
3.276699e-07 0.00031557778 -1.798674e-11 6.7777837e-06 2.730328e-10 -7.5935097e-10 6.5781265e-15 -1.1550581e-05
2.2939385e-07 2.0662003e-09 -2.3953372e-20 -4.044961e-18 1.9011786e-07 0.000109527275 -5.069189e-06 3.841249e-08
-1.6543485e-09 -6.930233e-07 5.518577e-14 -2.4653715e-09 -2.7537097e-09 2.1545156e-06 2.0224204e-05 -4.560051e-05
0.00021488203 -2.439719e-08 -5.136168e-07 6.745284e-05 1.11236645e-07 1.7372092e-07 2.4222209e-09 4.4009862e-08
00000000: 9cea af34 2274 a539 8a36 9ead b86c e336
00000010: f319 962f 93ba 50b0 8200 ed27 5ec9 41b7
00000020: 4d4f 7634 fbfc 0d31 b33b e29e 943b 95a2
00000030: 3323 4c34 02b2 e538 0018 aab6 fbfa 2433
00000040: 375f e3b0 3308 3ab5 dc88 7829 466b 29b1
00000050: c63b 3db1 4c96 1036 26a7 a937 2d43 3fb8
00000060: f551 6139 fd91 d1b2 7adf 09b5 7875 8d38
00000070: fee0 ee33 0b88 3a34 2974 2631 5b05 3d33

hidden_layers_x.6.fc.1.bias f4 [32]
-0.003637786 0.003655393 -0.0005944854 -0.00086226664 -0.00027129255 -2.6445841e-05 -0.0009523472 -0.0007899727
-0.00084517855 -0.0012187035 -0.00039478103 -0.0023727445 -0.0017517157 -0.0005821546 -0.00223632 0.0032584753
-0.0022143768 -0.0036072186 -6.23528e-05 0.00022209955 -0.0005780024 -0.0008573285 -0.00047615948 -0.00024472832
-0.0006692593 -0.001737718 -0.004515671 -0.0008578149 -0.0018676945 -0.0020182973 -0.0010576788 -0.0012170117
00000000: ec67 6ebb 518f 6f3b 3dd7 1bba bc09 62ba
00000010: 453c 8eb9 03d8 ddb7 f0a6 79ba 2c16 4fba
00000020: f98e 5dba e7bc 9fba 9dfa ceb9 0c80 1bbb
00000030: d399 e5ba bc9b 18ba 398f 12bb 258c 553b
00000040: 141f 11bb 1667 6cbb 68c3 82b8 65e3 6839
00000050: 1685 17ba 57be 60ba 0ba5 f9b9 e14e 80b9
00000060: 3b71 2fba 24c4 e3ba 32f8 93bb fcde 60ba
00000070: 6ecd f4ba 6945 04bb d0a1 8aba 2384 9fba

hidden_layers_x.6.fc.1.running_mean f4 [32]
-2.9502752e-08 -1.0897842e-05 7.646351e-13 -4.9013044e-10 1.44381425e-11 -1.0686583e-08 1.585321e-16 -7.064829e-08
9.6990895e-09 4.149534e-12 1.863851e-22 5.147439e-20 -1.4319765e-08 4.689511e-06 5.930615e-08 -2.4505784e-10
5.137361e-09 8.8143e-10 -1.565097e-11 -4.0788943e-12 -5.5631732e-11 -5.9748237e-09 8.2488896e-08 1.3430545e-07
1.1698244e-06 -6.314226e-09 -9.6827046e-11 -4.0099053e-07 8.755127e-09 -2.8665491e-08 -1.0079611e-11 8.352722e-11
00000000: 3d6d fdb2 e0d5 36b7 c439 572b ddb9 06b0
00000010: 9dff 7d2d 1798 37b2 6bc6 3625 4fb7 97b3
00000020: 0ca1 2632 aeff 912c 6553 611b b814 731f
00000030: fe02 76b2 985a 9d36 cdb7 7e33 d3b8 86af
00000040: b584 b031 1f49 7230 daaa 89ad 6a83 8fac
00000050: c3ab 74ae 1b4b cdb1 c024 b133 9a35 1034
00000060: dc02 9d35 85f4 d8b1 c8ec d4ae b847 d7b4
00000070: 7569 1632 153c f6b2 8852 31ad a5ad b72e

hidden_layers_x.6.fc.1.running_var f4 [32]
2.3339173e-15 1.2428358e-10 7.080147e-24 3.5749753e-16 1.0381234e-20 6.5610545e-15 3.3851302e-32 1.2867134e-13
7.848508e-15 1.4253148e-23 1.1e-43 4.914401e-39 1.3050359e-14 8.594089e-12 2.242408e-14 1.8696271e-18
2.1063569e-16 1.0036569e-15 4.6703453e-21 1.03262516e-23 9.4690596e-21 3.1765358e-15 4.844036e-14 2.114597e-14
1.7537265e-12 1.5322494e-14 7.039795e-15 1.6412873e-13 2.7769636e-15 8.430677e-15 8.307278e-21 7.545351e-21
00000000: 2d2d 2827 b8a6 082f 31f3 0819 5315 ce25
00000010: 9118 441e 0c63 ec27 19c4 2f0b fdde 102a
00000020: db62 0d28 16d9 8919 4e00 0000 5a83 3500
00000030: 2818 6b28 5630 172d 68fa c928 42f4 0922
00000040: afd8 7225 67a4 9026 cf70 b01d 1fbd 4719
00000050: 90dd 321e bee4 6427 ef27 5a29 4977 be28
00000060: a8d0 f62b 4403 8a28 a6a2 fd27 e3ca 382a
00000070: f019 4827 a3df 1728 88eb 1c1e 1487 0e1e

hidden_layers_x.7.weight f4 [2, 32]
5.02e-43 -4.93e-43 5.27e-43 5.65e-43 -5.6e-43 -5.69e-43 -5.3e-43 -5.27e-43
1.156e-42 -5.93e-43 5.09e-43 -5.17e-43 -6.11e-43 -5.11e-43 5.24e-43 5.45e-43
5.56e-43 6.26e-43 5.73e-43 5.72e-43 5.44e-43 5.11e-43 5.87e-43 -5.75e-43
-5.7e-43 -5.97e-43 5.3e-43 5.32e-43 -5.28e-43 -4.93e-43 -5.41e-43 -4.92e-43
0.039186053 0.045676883 0.055316947 -0.041748226 0.04628192 -3.746178e-05 0.05142704 -0.00045313823
-0.014353176 -0.03369163 0.060412697 0.052689023 0.0616797 0.058501966 -0.0514107 -0.0064298813
-0.024748724 -0.041057136 -1.7411865e-05 -0.00016654657 -0.05067244 -0.023102006 0.048865993 -0.039163973
0.05177918 -0.0037598622 0.04053895 0.051515695 -0.02287239 -0.039833885 0.057630427 -0.019992407
00000000: 6601 0000 6001 0080 7801 0000 9301 0000
00000010: 9001 0080 9601 0080 7a01 0080 7801 0080
00000020: 3903 0000 a701 0080 6b01 0000 7101 0080
00000030: b401 0080 6d01 0080 7601 0000 8501 0000
00000040: 8d01 0000 bf01 0000 9901 0000 9801 0000
00000050: 8401 0000 6d01 0000 a301 0000 9a01 0080
00000060: 9701 0080 aa01 0080 7a01 0000 7c01 0000
00000070: 7901 0080 6001 0080 8201 0080 5f01 0080
00000080: 8e81 203d af17 3b3d 0694 623d 3000 2bbd
00000090: 1c92 3d3d 4820 1db8 29a5 523d 2f93 edb9
000000a0: 9529 6bbc 3c00 0abd 4e73 773d 72d0 573d
000000b0: daa3 7c3d c29f 6f3d 0794 52bd c1b1 d2bb
000000c0: d6bd cabc 872b 28bd b20f 92b7 01a3 2eb9
000000d0: e88d 4fbd 6b40 bdbc b527 483d 676a 20bd
000000e0: 6816 543d 0568 76bb 2c0c 263d 1f02 533d
000000f0: e15e bbbc db28 23bd e20d 6c3d 1ec7 a3bc

hidden_layers_x.7.bias f4 [2]
0.00044310605 1.7039596e-10
00000000: b050 e839 335a 3b2f

hidden_layers_c.0.weight f4 [32, 7]
-0.02036307 -0.009273906 0.01586934 -0.023480572 0.007586961 -0.0030841033 0.013105833 0.0034752258
-0.0023494337 0.029754527 -0.021308443 0.035455696 0.0039020432 0.0037157265 0.0076909075 0.023161944
-0.017426668 0.045852464 -0.03333763 -0.013542157 0.002130189 -0.0060726274 -0.021521121 0.015200484
-0.0487624 0.037890114 0.015287808 -0.0030271036 0.01720412 0.015168501 -0.02642294 0.056130968
-0.02316623 -0.0050260415 -0.009807059 0.00744607 -0.007664577 -0.010281432 -0.008990337 0.021381462
0.020181715 -0.019429645 -0.017532391 0.01517582 0.017211106 0.0019648538 0.019267961 0.018957365
0.010314533 -0.0030045486 -0.002793198 0.0045139645 0.0033129281 0.00382461 0.0015787595 0.0029438713
1.0681844e-37 -6.0866733e-38 1.5790647e-38 -2.076e-39 3.058215e-39 -2.882701e-38 -4.28221e-38 4.71e-43
-1.857e-42 6.11e-43 6.08e-43 -7.7e-44 4.93e-43 5.11e-43 -0.016785432 -0.014548795
0.026305724 -0.058515128 0.022242118 0.004799536 0.00996126 -1.666088e-20 1.6429618e-20 6.6001638e-21
-1.642785e-21 7.889493e-21 -3.5292776e-20 1.1745988e-20 0.0039980984 0.0036024249 0.0068401285 0.0016332477
-0.0034605265 0.004673603 0.002074859 0.016619978 0.0149681745 -0.02579625 0.056260385 -0.024588067
-0.0060847923 -0.009348136 -5.274086e-28 -5.261653e-28 6.501048e-29 -2.530822e-28 -3.419136e-28 8.835642e-28
8.441942e-28 -2.0550315e-14 -1.6937357e-14 7.3469995e-15 1.827696e-14 1.7578924e-15 5.1804555e-14 -9.2044096e-14
0.01406527 -0.013712834 -0.022937113 0.053668905 -0.023375077 -0.015811732 -0.011127105 0.014461267
-0.01549257 0.017265245 -0.004615254 0.021536361 0.014192114 0.01417759 0.0057229777 0.0068321438
0.008342703 0.007243234 0.0009898924 0.0041977135 0.008488775 -0.0030002808 0.0043200627 -0.03681265
0.031012218 -0.033669226 0.0016652127 -0.0072590667 0.0017199259 0.0187051 -0.0026284033 0.03218128
-0.021734158 -0.015378446 0.0057048737 -0.00481546 0.0055949595 -0.036930613 0.0281883 -0.036012262
-0.0012635401 -0.0048861336 -0.010350159 -0.015915517 0.02989898 -0.019638723 0.024949368 -0.003742766
0.0075150006 0.0030060827 0.0012320189 -0.00010150604 -0.0004972465 -0.002403277 0.0036651562 0.00018857764
1.33856e-39 1.26462e-39 3.545093e-39 -5.382864e-39 3.009244e-39 -5.85705e-40 -1.128229e-39 0.017191062
0.015241155 -0.02632872 0.058004968 -0.023027565 -0.0052319635 -0.0100402245 -0.00030323945 -0.0002579289
1.1227573e-05 2.0271831e-05 -2.6356805e-05 -7.0301485e-06 3.381853e-05 -0.006204945 -0.02200194 0.013261978
-0.049124233 0.03867927 0.015521223 -0.0031731795 -0.011767055 -0.021895956 0.021523057 -0.04847337
0.028909173 0.010650097 0.0013895341 0.015877418 -0.017349904 0.017721053 -0.003100942 0.02192901
0.012506344 0.0145583935 -0.0016413244 0.0049985545 -0.029662859 0.018394215 -0.036121592 -0.0036634342
-0.003360714 0.0039289105 -0.0045376066 0.036077254 -0.02705947 0.030000784 -0.0016042888 0.008086616
00000000: 74d0 a6bc 95f1 17bc 6b00 823c 545a c0bc
00000010: 0b9c f83b ab1e 4abb d9b9 563c 9dc0 633b
00000020: f5f8 19bb c4bf f33c 0b8f aebc fe39 113d
00000030: 6cb9 7f3b 8c83 733b 0204 fc3b 1ebe bd3c
00000040: 5fc2 8ebc cbcf 3b3d 0a8d 08bd ecdf 5dbc
00000050: a49a 0b3b e4fc c6bb 104d b0bc 730b 793c
00000060: 15bb 47bd aa32 1b3d b779 7a3c 5f62 46bb
00000070: a8ef 8c3c 4e85 783c ec74 d8bc 96e9 653d
00000080: 1bc7 bdbc 7eb1 a4bb c9ad 20bc 2afe f33b
00000090: 2227 fbbb 7473 28bc 354c 13bc 2d28 af3c
000000a0: 2054 a53c eb2a 9fbc 17a0 8fbc 01a4 783c
000000b0: 4efe 8c3c c7c4 003b d8d7 9d3c 7a4c 9b3c
000000c0: 49fe 283c f6e7 44bb 160e 37bb e1e9 933b
000000d0: b61d 593b 4fa6 7a3b 61ee ce3a f7ed 403b
000000e0: cb64 1102 ecb1 a581 e6f1 ab00 0b9b 1680
000000f0: 0f4d 2100 fdf2 1c81 4c25 6981 5001 0000
00000100: 2d05 0080 b401 0000 b201 0000 3700 0080
00000110: 6001 0000 6d01 0000 9a81 89bc 125e 6ebc
00000120: 1a7f d73c 8fad 6fbd 1a35 b63c 6d45 9d3b
00000130: 8d34 233c 895b 9d9e 612c 9b1e de58 f91d
00000140: 2b40 f89c 3f07 151e 59aa 269f 1de0 5d1e
00000150: 7b02 833b a916 6c3b 2823 e03b b312 d63a
00000160: 00ca 62bb 0625 993b 5cfa 073b 9f26 883c
00000170: 133d 753c a852 d3bc 4a71 663d ea6c c9bc
00000180: f062 c7bb ed28 19bc 7824 2792 9abf 2692
00000190: 37d2 a410 ef68 a091 a7b6 d891 9f01 8c12
000001a0: 96c4 8512 cd19 b9a8 e38e 98a8 0e5a 0428
000001b0: cd9f a428 c856 fd26 964e 6929 cf43 cfa9
000001c0: 0572 663c cbab 60bc 9de6 bbbc edd3 5b3d
000001d0: 177d bfbc 9b87 81bc 764e 36bc f3ee 6c3c
000001e0: 8cd4 7dbc d86f 8d3c 8e3b 97bb 066d b03c
000001f0: 0a86 683c 1f49 683c d187 bb3b 2de0 df3b
00000200: d5af 083c a758 ed3b 47bf 813a f98c 893b
00000210: 8114 0b3c 5ca0 44bb 508f 8d3b dcc8 16bd
00000220: 560d fe3c bee8 09bd 4443 da3a 77dd edbb
00000230: 236f e13a 703b 993c 4a41 2cbb 85d0 033d
00000240: d50b b2bc e1f5 7bbc f3ef ba3b 02cb 9dbb
00000250: ec55 b73b 8e44 17bd 26eb e63c 9881 13bd
00000260: 5f9d a5ba dc1b a0bb b793 29bc 4261 82bc
00000270: b5ee f43c 63e1 a0bc 9e62 cc3c 3249 75bb
00000280: 6540 f63b b301 453b b27b a13a a4df d4b8
00000290: a659 02ba 4c80 1dbb 1e33 703b edbc 4539
000002a0: 5c93 0e00 3fc5 0d00 479a 2600 3c9d 3a80
000002b0: 8cc4 2000 b560 0680 0b49 0c80 45d4 8c3c
000002c0: 0ab6 793c 54af d7bc 9e96 6d3d 4ea4 bcbc
000002d0: e470 abbb c17f 24bc 1cfc 9eb9 a23a 87b9
000002e0: 0f5e 3c37 6d0d aa37 cf18 ddb7 84e4 ebb6
000002f0: 5fd8 0d38 da52 cbbb 6a3d b4bc c448 593c
00000300: 7e36 49bd 276e 1e3d ba4c 7e3c 1ef5 4fbb
00000310: 9bca 40bc 265f b3bc 1f51 b03c 038c 46bd
00000320: eed2 ec3c bf7d 2e3c 0721 b63a 5c11 823c
00000330: 6321 8ebc be2b 913c 2c39 4bbb 78a4 b33c
00000340: 69e7 4c3c 5486 6e3c b521 d7ba eaca a33b
00000350: 86ff f2bc 77af 963c 3cf4 13bd 3a16 70bb
00000360: 6d3f 5cbb 17be 803b 34b0 94bb bec5 133d
00000370: d2ab ddbc 34c4 f53c 0047 d2ba ba7d 043c

hidden_layers_c.1.weight f4 [32]
-0.03589187 0.08767314 0.06322969 -0.06945031 0.077129744 0.101630725 -0.05799082 -0.0005119281
-9.030382e-39 -5.02e-43 -0.07838264 6.500433e-20 0.003745971 0.07764928 -2.7279087e-27 3.709703e-14
-0.14270082 -0.055471625 -0.003885669 -0.11502311 0.042016875 -0.10475862 0.08189155 0.0024714419
1.489388e-39 0.07681764 -6.92356e-05 -0.07427135 -0.06857856 -0.054397646 -0.09061786 0.10432782
00000000: 5a03 13bd fa8d b33d 917e 813d f73b 8ebd
00000010: 33f6 9d3d c523 d03d c887 6dbd ea32 06ba
00000020: 0855 6280 6601 0080 1487 a0bd b57c 991f
00000030: f77e 753b 9606 9f3d 9020 5893 f711 2729
00000040: 2a20 12be 3736 63bd b5a6 7ebb 3c91 ebbd
00000050: e319 2c3d b08b d6bd c2b6 a73d eaf7 213b
00000060: cf37 1000 9152 9d3d 9432 91b8 941b 98bd
00000070: eb72 8cbd 11d0 5ebd db95 b9bd d3a9 d53d

hidden_layers_c.1.bias f4 [32]
0.010522504 0.050535977 0.022604913 0.026018647 0.03434285 -0.0044892323 -0.0015512847 0.007814106
-5.533879e-10 -7.647785e-09 0.035830755 -4.602382e-09 -0.0017394528 0.0344157 -1.6896197e-09 -1.0136871e-07
-0.0005551524 -0.0017462667 0.0037197494 0.04854942 0.017396888 0.04010433 0.03774002 -0.0031113015
3.4816093e-08 0.03464619 -0.00019441708 0.028110774 0.024817038 -0.0021148352 0.04847865 0.052466992
00000000: 9566 2c3c d0fe 4e3d f02d b93c 0f25 d53c
00000010: 17ab 0c3d 691a 93bb 7a54 cbba bc06 003c
00000020: 361d 18b0 5063 03b2 45c3 123d fb22 9eb1
00000030: 5afe e3ba 7af7 0c3d 3538 e8b0 0ab0 d9b3
00000040: a687 11ba fde2 e4ba 0ac7 733b c2db 463d
00000050: eb83 8e3c 7044 243d 4795 1a3d fae6 4bbb
00000060: b388 1533 2ae9 0d3d 70dc 4bb9 9148 e63c
00000070: 1a4d cb3c 0c99 0abb 8d91 463d a1e7 563d

hidden_layers_c.1.running_mean f4 [32]
-0.01434908 0.038755834 0.011729162 -0.009379528 0.018808527 0.0023159175 0.0459971 0.007966282
3.1539383e-38 -2.263e-42 -0.020720107 -8.105147e-20 0.013550977 0.01745375 5.0771303e-28 1.963519e-14
-0.011091734 0.043123104 0.028961236 -0.032594755 0.015095804 -0.037044995 0.01144669 0.0031826708
9.458753e-39 0.020184666 -0.00035975987 -0.010832096 -0.015510084 0.043797668 -0.03782746 0.03353898
00000000: 6718 6bbc 70be 1e3d ac2b 403c 98ac 19bc
00000010: 5714 9a3c a6c6 173b 7567 3c3d 0285 023c
00000020: 7cb7 2b01 4f06 0080 37bd a9bc 9b60 bf9f
00000030: eb04 5e3c 2bfb 8e3c 93e6 2012 aadb b028
00000040: 1bba 35bc daa1 303d 1d40 ed3c 1482 05bd
00000050: 6454 773c 7ebc 17bd e68a 3b3c 5b94 503b
00000060: 28ff 6600 505a a53c 279e bcb9 1b79 31bc
00000070: 021e 7ebc 2f65 333d f7f0 1abd 2b60 093d

hidden_layers_c.1.running_var f4 [32]
1.6684566e-05 2.1682412e-05 2.4689782e-05 2.5041902e-05 3.2146698e-05 4.614325e-06 0.000109943816 3.2736268e-06
6e-45 6e-45 3.0957235e-05 5.4094e-40 7.019063e-06 3.344215e-05 6e-45 1.5734602e-28
7.6435404e-05 0.00010011219 2.1246182e-05 1.8849134e-05 1.3291972e-05 2.1769341e-05 1.6381857e-05 1.781392e-06
6e-45 3.300476e-05 2.4559283e-09 2.4722136e-05 2.7358947e-05 9.3029805e-05 2.1047807e-05 1.9534806e-05
00000000: d5f5 8b37 a0e2 b537 e71c cf37 1311 d237
00000010: 41d5 0638 c0d4 9a36 a391 e638 7bb0 5b36
00000020: 0400 0000 0400 0000 14d8 0138 ece3 0500
00000030: 4b85 eb36 3c44 0c38 0400 0000 b475 4711
00000040: f24b a038 53f3 d138 d439 b237 351e 9e37
00000050: 9600 5f37 4e9d b637 c56b 8937 2a18 ef35
00000060: 0400 0000 976e 0a38 26c5 2831 6262 cf37
00000070: e480 e537 ff18 c338 d28f b037 adde a337
