density_functional_approximation_dm21/checkpoints/NN_PBE/state_dict_0.18.pth (torch, 60368 bytes, 34 tensors)

hidden_layers_x.0.weight f4 [32, 2]
0.54768836 0.37398195 -0.45309463 0.4575878 -0.5800218 0.07017953 0.4304513 0.21785054
-0.52211976 0.19448413 -0.33306617 -0.13698068 -0.5761426 0.09419422 0.55665 0.21867332
0.29071555 -0.5121846 -0.29545134 0.050686117 0.3363992 -0.49649447 -0.6228591 -0.06943182
-0.17634891 0.2571586 0.11346134 -0.39550442 -0.1725545 -0.166911 -0.52619284 0.48585957
0.47014597 -0.5816953 0.34573236 -0.38805506 0.035009846 -0.43814227 -0.48688114 -0.68984586
0.2537512 -0.36781242 -0.086499356 0.43255496 -0.22644627 0.6308361 0.3512971 0.32075408
0.29744276 -0.2472714 -0.17204903 0.058486998 -0.44217506 0.5688909 -0.3519345 0.012824016
-0.3187343 -0.35062483 0.7274015 0.70037997 -0.39994308 0.25930953 0.0133676585 -0.14062728
00000000: 4e35 0c3f 907a bf3e 05fc e7be f348 ea3e
00000010: 4f7c 14bf 49ba 8f3d 1d64 dc3e 3614 5f3e
00000020: a4a9 05bf d926 473e a687 aabe aa44 0cbe
00000030: 157e 13bf e6e8 c03d 9d80 0e3f e6eb 5f3e
00000040: abd8 943e 881e 03bf 6645 97be 3f9c 4f3d
00000050: 843c ac3e 8634 febe b273 1fbf 4532 8ebd
00000060: cf94 34be 4baa 833e 6b5e e83d 8e7f cabe
00000070: 20b2 30be b8ea 2abe 93b4 06bf 96c2 f83e
00000080: f9b6 f03e fce9 14bf d503 b13e 27af c6be
00000090: 7c66 0f3d 2f54 e0be 7c48 f9be bd99 30bf
000000a0: adeb 813e e951 bcbe 9326 b1bd d877 dd3e
000000b0: 88e1 67be 7a7e 213f 37dd b33e e139 a43e
000000c0: 6b4a 983e b734 7dbe 9f2d 30be 1090 6f3d
000000d0: c564 e2be d6a2 113f c230 b4be d21b 523c
000000e0: 2431 a3be 1985 b3be fc36 3a3f 1a4c 333f
000000f0: 57c5 ccbe 38c4 843e 0604 5b3c 9900 10be

hidden_layers_x.1.weight f4 [32]
0.9948685 0.82177925 0.9669585 0.9225565 1.0973654 0.98885465 1.0385945 0.9580525
1.0179731 1.0366598 1.0487819 0.96943206 1.0949029 0.92423016 0.9697897 0.96146154
0.98246884 0.9929765 0.9205743 1.1481848 0.90838295 1.0734112 0.9743779 0.93262273
0.9537495 0.9246362 1.0451571 0.95698136 1.1399807 1.022227 1.0317317 0.95553595
00000000: b4af 7e3f 2060 523f 988a 773f aa2c 6c3f
00000010: 7876 8c3f 9425 7d3f aaf0 843f ee42 753f
00000020: f14c 823f 45b1 843f 7c3e 863f b32c 783f
00000030: c725 8c3f 599a 6c3f 2344 783f 5822 763f
00000040: 1483 7b3f b533 7e3f c2aa 6b3f b8f7 923f
00000050: c98b 683f 8a65 893f d470 793f 5dc0 6e3f
00000060: ed28 743f f5b4 6c3f b5c7 853f bbfc 743f
00000070: e3ea 913f 56d8 823f c90f 843f 019e 743f

hidden_layers_x.1.bias f4 [32]
0.052802198 0.013152606 -0.090776995 -0.03455604 0.035599217 0.06186238 0.029906029 -0.05361115
-0.05234692 -0.058691163 -0.05471634 0.05474142 0.06634518 -0.06700363 0.048940238 0.031282425
0.05033465 -0.060999136 -0.041485444 0.08631528 0.09397542 0.059763256 -0.07304848 0.08242122
-0.055052467 0.047484707 -0.031044453 -0.08551519 0.03533826 0.08946821 -0.088816084 -0.06120483
00000000: 1e47 583d 077e 573c 4ae9 b9bd a28a 0dbd
00000010: 7cd0 113d 6863 7d3d 7dfd f43c 5d97 5bbd
00000020: b969 56bd 2566 70bd 3e1e 60bd 8a38 603d
00000030: fbdf 873d 3339 89bd 8f75 483d 0022 003d
00000040: b52b 4e3d 3bda 79bd a4ec 29bd 11c6 b03d
00000050: 2f76 c03d 51ca 743d 719a 95bd 75cc a83d
00000060: b27e 61bd 537f 423d f050 febc 9722 afbd
00000070: dabe 103d 1c3b b73d 35e5 b5bd eab1 7abd

hidden_layers_x.3.fc.0.weight f4 [32, 32]
-0.008456717 0.06898237 0.0036869184 0.11517178 0.009764751 -0.14083233 0.047051355 0.15436083
-0.099852644 0.014763495 -0.16221325 -0.0021149435 0.20009655 -0.16361763 -0.05739812 0.012237728
-0.16361777 -0.0034163906 -0.20979258 0.00631978 -0.1372084 0.005917264 -0.068160154 0.23846652
-0.019605497 -0.04912771 0.19502571 -0.19228089 -0.09205071 0.08718013 -0.21177879 -0.050854214
0.17058524 0.13728872 -0.20975026 0.19594313 -0.18057978 0.048581433 0.0651436 0.09686293
0.19464776 0.07927863 -0.03544271 -0.16107456 0.084274806 0.101012304 -0.052794196 -0.04334601
0.08408811 0.14468153 0.04748489 0.06482132 0.07464478 -0.15342546 -0.08481595 -0.09346116
0.07439285 -0.030082377 0.10138505 -0.12670755 0.017626183 -0.04213157 -0.2579065 -0.12339931
-0.015003529 0.0052282 0.005956528 0.21191633 -0.047576312 -0.18676448 0.038180742 -0.020288572
0.096912 0.22008564 0.087412134 -0.004152484 -0.16163619 0.030327665 -0.22404954 0.05574178
-0.018095527 -0.0016327206 -0.0954418 -0.13059676 0.023362586 0.050600145 0.035364605 -0.15416443
-0.10925902 0.08887947 0.06098686 0.10004907 -0.21565168 -0.123089746 -0.0958188 0.1824657
-0.23258099 -0.21816826 0.18765977 -0.088117935 0.05275214 -0.16365953 -0.020726142 -0.009534577
0.122241005 0.12870619 0.004105883 -0.13851398 0.056611396 0.19663866 0.13504945 0.031886987
-0.075000525 0.2168297 0.016177732 -0.072747715 -0.007996844 -0.13984539 0.04981257 0.10264796
-0.000530259 -0.029367661 -0.059710506 -0.041725863 0.10677264 -0.029885478 0.20512562 0.14431489
-0.14161381 -0.053561155 -0.07138894 -0.18678966 0.1651933 -0.18528485 -0.106211625 -0.15059027
-0.17450927 0.087810405 0.03249377 -0.15347116 0.088079646 -0.021055974 -0.15600623 0.09390787
-0.16213286 -0.18951999 -0.086456895 -0.09343574 -0.03160342 -0.010004837 -0.08765688 -0.0071507227
0.1360628 -0.15222323 -0.065153286 0.0032704594 -0.11948249 -0.11318979 -0.034726415 0.07719425
-0.09997114 0.15817492 -0.074138075 0.07528711 0.034093156 -0.03517211 -0.049162596 0.00015636694
-0.16978747 0.16229135 -0.104304045 -0.13551624 -0.018510621 -0.023817321 0.039911963 0.17611192
-0.14693186 -0.053091727 0.010161157 -0.14066471 0.12087621 0.21361007 0.043005284 0.22748621
-0.049937 0.11999968 -0.03446923 0.03797403 -0.16936147 0.1456213 0.068759814 0.080811664
0.057394676 0.1815434 0.11620169 -0.09527674 0.0044253147 0.07523786 0.19425033 0.032404806
0.12657955 -0.02341499 0.06665105 -0.14083561 -0.0828854 0.06604768 0.11901218 0.13852015
0.021177744 -0.16342537 -0.18744753 0.0011370576 -0.21735808 -0.13457577 0.04678913 -0.010711458
-0.08996619 0.07104001 -0.13101994 0.007958765 0.018289208 -0.19825904 0.15382771 0.0161734
-0.05169986 0.005383577 0.1862231 0.092149146 -0.06549366 -0.18190293 -0.105353 0.08186462
0.047945827 0.04546635 0.077932574 -0.058456082 0.041929685 0.047195856 -0.13734423 -0.16330293
-0.0995894 -0.0054356856 0.20203567 0.18831782 0.03553847 -0.12502389 -0.020603914 -0.123647764
0.16417499 -0.015971772 0.015918968 -0.10485447 0.05331121 -0.07666556 -0.015708746 0.09877208
00000000: 0b8e 0abc a146 8d3d 3aa0 713b 2fdf eb3d
00000010: 56fc 1f3c 5a36 10be ecb8 403d c410 1e3e
00000020: 8b7f ccbd 96e2 713c 3b1b 26be dd9a 0abb
00000030: 1ce6 4c3e 618b 27be 4b1a 6bbd c080 483c
00000040: 6b8b 27be 86e5 5fbb ded3 56be 2816 cf3b
00000050: 5c80 0cbe 9ce5 c13b 8d97 8bbd 9130 743e
00000060: b59b a0bc 233a 49bd d2b4 473e 48e5 44be
00000070: 1585 bcbd 7f8b b23d 8adc 58be 824c 50bd
00000080: e6ad 2e3e 6a95 0c3e c6c8 56be 51a5 483e
00000090: e8e9 38be 53fd 463d 026a 853d 1260 c63d
000000a0: be51 473e d65c a23d 602c 11bd bbf0 24be
000000b0: 4598 ac3d 8adf ce3d ba3e 58bd 968b 31bd
000000c0: 6336 ac3d 6527 143e 847f 423d 0ac1 843d
000000d0: 5ddf 983d 901b 1dbe fcb3 adbd 9168 bfbd
000000e0: 475b 983d 516f f6bc f7a2 cf3d a0bf 01be
000000f0: c964 903c 2792 2cbd 520c 84be c7b8 fcbd
00000100: 5dd1 75bc 5251 ab3b fa2e c33b 9800 593e
00000110: 61df 42bd 303f 3fbe 6963 1c3d 3834 a6bc
00000120: cc79 c63d 215e 613e 2205 b33d 8f11 88bb
00000130: f583 25be b971 f83c 3e6d 65be 7e51 643d
00000140: 123d 94bc 0301 d6ba fe76 c3bd 28bb 05be
00000150: e562 bf3c 1942 4f3d 7ada 103d 48dd 1dbe
00000160: 31c3 dfbd 7106 b63d 5ccd 793d 87e6 cc3d
00000170: cbd3 5cbe 7a16 fcbd a63c c4bd 4ad8 3a3e
00000180: b629 6ebe 8067 5fbe e229 403e 2d77 b4bd
00000190: a112 583d 5d96 27be dfc9 a9bc ea36 1cbc
000001a0: 7e59 fa3d 8ecb 033e a58a 863b 9cd6 0dbe
000001b0: 5ae1 673d a55b 493e 674a 0a3e ee9b 023d
000001c0: e099 99bd 9b08 5e3e 2a87 843c c1fc 94bd
000001d0: 3205 03bc a133 0fbe 4408 4c3d 1839 d23d
000001e0: 1401 0bba 7394 f0bc 0193 74bd bde8 2abd
000001f0: 9dab da3d 64d2 f4bc 730c 523e 48c7 133e
00000200: 3603 11be f162 5bbd 5d34 92bd ca45 3fbe
00000210: 6f28 293e 50bb 3dbe 7b85 d9bd 5634 1abe
00000220: 8fb2 32be f1d5 b33d 3018 053d 8b27 1dbe
00000230: 1a63 b43d 947d acbc 19c0 1fbe c552 c03d
00000240: 2806 26be 8711 42be 5010 b1bd 3d5b bfbd
00000250: 9672 01bd 54eb 23bc 7385 b3bd 9c50 eabb
00000260: 0c54 0b3e 68e0 1bbe 166f 85bd 3455 563b
00000270: 3cb3 f4bd 0cd0 e7bd 493d 0ebd 0518 9e3d
00000280: abbd ccbd 9bf8 213e b4d5 97bd 2130 9a3d
00000290: 44a5 0b3d a110 10bd b85e 49bd 6ef6 2339
000002a0: c4dc 2dbe b42f 263e 5c9d d5bd c5c4 0abe
000002b0: 96a3 97bc 8b1c c3bc ba7a 233d af56 343e
000002c0: 4e75 16be b676 59bd fb7a 263c 690a 10be
000002d0: f28d f73d 99bc 5a3e 4f26 303d 25f2 683e
000002e0: bd8a 4cbd 64c2 f53d 9b2f 0dbd a88a 1b3d
000002f0: 186d 2dbe c01d 153e f2d1 8c3d 9680 a53d
00000300: ae16 6b3d 83e6 393e 27fb ed3d 7420 c3bd
00000310: 3b02 913b 4f16 9a3d 8fe9 463e e7ba 043d
00000320: 129e 013e cbd0 bfbc 5880 883d 3637 10be
00000330: d2bf a9bd 0244 873d a8bc f33d 3ad8 0d3e
00000340: f37c ad3c fb58 27be 3ff2 3fbe 5209 953a
00000350: 1e93 5ebe 3bce 09be f5a5 3f3d 1c7f 2fbc
00000360: 3240 b8bd 6d7d 913d 172a 06be 7b65 023c
00000370: 40d3 953c 6b04 4bbe 0385 1d3e 147e 843c
00000380: 3bc3 53bd b868 b03b 45b1 3e3e b1b8 bc3d
00000390: 8a21 86bd c344 3abe 50c3 d7bd a3a8 a73d
000003a0: d862 443d ec3a 3a3d 1d9b 9f3d a56f 6fbd
000003b0: 76be 2b3d 7150 413d f7a3 0cbe e238 27be
000003c0: 87f5 cbbd d61d b2bb 70e2 4e3e 63d6 403e
000003d0: c990 113d 4306 00be 8ac9 a8bc 0a3b fdbd
000003e0: 7d1d 283e 3cd7 82bc 7f68 823c f1bd d6bd
000003f0: db5c 5a3d d502 9dbd a1af 80bc 0449 ca3d

hidden_layers_x.3.fc.1.weight f4 [32]
1.039593 1.049608 0.9218345 0.89753264 1.0116708 0.90178895 0.9455752 0.9944431
1.0392596 0.9685125 0.9670641 0.92865556 0.9973081 1.0395818 1.0987518 1.0352596
0.9960387 0.9781146 0.90639573 1.054477 0.8991234 1.1261644 0.9707645 1.0595863
0.9821532 1.0665247 1.0796814 0.93904 1.0355812 1.0013041 1.0076305 1.0984935
00000000: 6211 853f 8e59 863f 59fd 6b3f b3c4 653f
00000010: 6e7e 813f a4db 663f 3711 723f d393 7e3f
00000020: 7506 853f 6ff0 773f 8391 773f 5fbc 6d3f
00000030: 954f 7f3f 0411 853f e6a3 8c3f 6383 843f
00000040: 64fc 7e3f b865 7a3f 8d09 683f 1af9 863f
00000050: f32c 663f 2826 903f 0684 783f 86a0 873f
00000060: 646e 7b3f e283 883f 0033 8a3f ed64 703f
00000070: ed8d 843f bc2a 803f 09fa 803f 6f9b 8c3f

hidden_layers_x.3.fc.1.bias f4 [32]
0.068519935 -0.038207684 0.08165105 0.08113111 0.040760145 -0.038501572 0.011392641 0.10592079
-0.056008007 0.048869345 0.043665063 0.0995446 -0.022474792 0.05015419 -0.07011286 -0.0819037
-0.103181966 -0.050312787 0.052642632 0.033998072 -0.04825696 0.06786993 0.05559734 -0.064293005
0.05462234 -0.05513152 -0.047009327 -0.0095743025 -0.026866216 -0.010559814 -0.066469006 -0.09174709
00000000: 2e54 8c3d a97f 1cbd aa38 a73d 1128 a63d
00000010: 1cf4 263d d3b3 1dbd 33a8 3a3c 00ed d83d
00000020: a768 65bd 392b 483d 23da 323d 0ade cb3d
00000030: 0e1d b8bc 7b6e 4d3d 5597 8fbd 21bd a7bd
00000040: 1151 d3bd c814 4ebd cd9f 573d 9041 0b3d
00000050: 17a9 45bd 64ff 8a3d 09ba 633d 0dac 83bd
00000060: adbb 5f3d 97d1 61bd da8c 40bd 89dd 1cbc
00000070: 8a16 dcbc 1203 2dbc e720 88bd e6e5 bbbd

hidden_layers_x.3.fc.3.weight f4 [32, 32]
-0.13726322 0.20462003 0.15058973 -0.093035676 -0.084096976 0.14495711 -0.112490535 0.12001411
-0.14159231 -0.12790458 -0.08183107 -0.15370367 -0.04285218 0.053317662 -0.16077553 0.022388192
-0.09038126 0.14947076 -0.11666899 0.048817802 0.07284665 -0.18016948 -0.15913919 -0.015636407
-0.05126977 0.059908506 0.22174531 -0.2274057 -0.030354245 -0.06752813 0.06679352 0.09105075
0.004509272 0.0006626166 -0.09129172 0.085975036 0.103533104 -0.16444847 0.19982938 -0.11038548
0.010009915 0.22852547 0.058145523 -0.034808956 -0.1148448 0.020778835 0.15097812 0.09577685
0.121716626 -0.12420853 0.06584245 0.071729824 -0.09092734 0.14409731 0.08758285 0.08770365
-0.057729423 -0.19164528 0.07350225 0.21490319 -0.096280366 0.099379785 -0.08192167 -0.07550931
-0.0034607064 0.18393287 -0.093841314 0.21973763 0.007845335 -0.111227676 0.09009932 -0.13531078
-0.15256087 -0.104585126 -0.15719369 -0.065192714 -0.085592784 -0.09791941 -0.03434987 -0.027600268
-0.020215362 0.08480715 0.0749642 0.10321624 -0.10430676 -0.10668316 0.10131196 0.08690637
-0.1865281 -0.060973313 -0.07608143 0.030877978 -0.03524042 -0.14025155 0.0072941445 0.08476938
0.020493342 0.22700545 -0.11131403 -0.10816311 0.093905605 0.079647064 0.08070493 -0.0071264175
0.001227113 0.030470895 -0.04278322 -0.11395856 0.023933182 0.21313901 0.24727143 0.10440966
0.06329518 0.043826442 0.06372817 0.044510167 0.025442658 0.32709727 -0.05528481 0.26880765
0.0053541968 0.23319946 0.10653209 -0.0021747784 0.2757624 -0.28891292 0.2409707 -0.1149833
0.060342208 -0.019819373 0.06312192 0.19016157 -0.04693492 -0.16983366 0.008959275 0.10257889
0.071221866 0.07578324 -0.14445905 0.104737416 -0.11120972 -0.05189275 0.05755005 0.15137395
0.04192934 0.12102868 -0.01593164 -0.05510137 0.17255762 -0.05828926 0.07287638 0.074733995
-0.09370328 -0.13888317 0.13271119 -0.2429093 -0.056348722 -0.08662812 -0.07528477 0.048576746
-0.090903275 0.14417222 -0.12149593 0.020894157 -0.029082721 -0.07123788 -0.101554394 -0.006426225
0.029366737 -0.10194759 0.02247356 0.08171175 0.09948589 -0.17610541 -0.1408289 -0.026343867
-0.08228124 0.05680305 0.15075773 0.12154304 -0.07444856 0.1308773 0.16414791 0.17451093
-0.17455885 -0.03647451 -0.049350772 -0.1038555 0.110137545 -0.11700861 0.14923841 -0.012515602
0.019048626 0.19065619 -0.2099021 -0.23370826 0.056316543 0.1545891 -0.062057648 -0.20654668
-0.010126085 0.0491029 0.113668695 -0.021075502 0.21658164 -0.058661766 0.08878985 0.14053382
-0.017048484 -0.19898477 0.20120755 0.0988706 -0.028103849 -0.05296682 0.00397821 0.0027351507
-0.06432795 0.09955745 0.15184383 0.07057105 0.0640516 0.07019318 0.13920107 -0.14174959
0.15640879 -0.08334682 -0.022543453 -0.18312697 0.07429459 -0.017559212 -0.0175774 -0.08486717
-0.0097454395 -0.012700414 -0.09850671 -0.13471125 -0.048540853 0.19223921 0.09701148 0.054936927
0.09628833 -0.023844145 -0.063749276 0.12904984 -0.064664036 -0.054125454 0.0041840943 0.1433605
0.04329787 -0.01832015 0.04058098 -0.007453596 0.1271127 0.03760909 0.073619686 -0.00985118
00000000: bb8e 0cbe ea87 513e 3234 1a3e 7d89 bebd
00000010: 093b acbd a36f 143e 7061 e6bd f5c9 f53d
00000020: 93fd 10be 6bf9 02be 0c97 a7bd 7f64 1dbe
00000030: c485 2fbd 9f63 5a3d 57a2 24be 7167 b73c
00000040: cf19 b9bd dd0e 193e 27f0 eebd 2df5 473d
00000050: a030 953d 597e 38be 62f5 22be ec17 80bc
00000060: 4000 52bd 9f62 753d 3411 633e 0add 68be
00000070: 77a9 f8bc 304c 8abd 0acb 883d d178 ba3d
00000080: 84c2 933b 73b3 2d3a 27f7 babd ae13 b03d
00000090: 2a09 d43d 2e65 28be 13a0 4c3e c811 e2bd
000000a0: a000 243c 9502 6a3e 002a 6e3d d693 0ebd
000000b0: c033 ebbd 6038 aa3c 029a 1a3e a726 c43d
000000c0: 9146 f93d 0b61 febd 68d8 863d 16e7 923d
000000d0: 1d38 babd 3f8e 133e a35e b33d f99d b33d
000000e0: b075 6cbd a93e 44be 5988 963d 950f 5c3e
000000f0: a42e c5bd a187 cb3d 8cc6 a7bd a0a4 9abd
00000100: 05cd 62bb e658 3c3e e02f c0bd e702 613e
00000110: b889 003c 56cb e3bd fe85 b83d e98e 0abe
00000120: eb38 1cbe ba30 d6bd 62f7 20be c283 85bd
00000130: 454b afbd f989 c8bd 73b2 0cbd f519 e2bc
00000140: b09a a5bc 5faf ad3d d586 993d 0963 d33d
00000150: c89e d5bd b37c dabd a57c cf3d f8fb b13d
00000160: 3901 3fbe 27bf 79bd 95d0 9bbd d0f3 fc3c
00000170: 4258 10bd 1a9e 0fbe b803 ef3b 929b ad3d
00000180: a7e1 a73c 1e74 683e 9cf8 e3bd 9f84 ddbd
00000190: 9551 c03d 001e a33d a048 a53d b984 e9bb
000001a0: 14d7 a03a 199e f93c 753d 2fbd 1b63 e9bd
000001b0: 850f c43c 1d41 5a3e b934 7d3e bbd4 d53d
000001c0: e7a0 813d 5b83 333d ea83 823d 4b50 363d
000001d0: 1f6d d03c 4b79 a73e 5372 62bd 28a1 893e
000001e0: 4272 af3b d7cb 6e3e 7f2d da3d ba86 0ebb
000001f0: bb30 8d3e 65ec 93be 06c1 763e 5d7c ebbd
00000200: 6429 773d 3d5c a2bc 1146 813d b7b9 423e
00000210: d53e 40bd e0e8 2dbe ecc9 123c e214 d23d
00000220: c5dc 913d 3e34 9b3d 13ed 13be 9280 d63d
00000230: ecc1 e3bd 7e8d 54bd 9ab9 6b3d c601 1b3e
00000240: 1abe 2b3d e2dd f73d 1283 82bc f9b1 61bd
00000250: f2b2 303e b8c0 6ebd 3640 953d 230e 993d
00000260: 81e7 bfbd 6437 0ebe 71e5 073e 37bd 78be
00000270: ebcd 66bd 156a b1bd e72e 9abd 69f8 463d
00000280: 7f2b babd e2a1 133e dcd2 f8bd 392a ab3c
00000290: e33e eebc 2ae5 91bd c0fb cfbd 1593 d2bb
000002a0: 8392 f03c e6c9 d0bd 791a b83c 7d58 a73d
000002b0: 42bf cb3d fa54 34be 7335 10be 18cf d7bc
000002c0: 1183 a8bd 51aa 683d 3c60 1a3e 8feb f83d
000002d0: 7d78 98bd b304 063e 6416 283e feb2 323e
000002e0: 8ebf 32be 4c66 15bd 0924 4abd 31b2 d4bd
000002f0: cb8f e13d 36a2 efbd f4d1 183e 3d0e 4dbc
00000300: dd0b 9c3c 603b 433e 93f0 56be 3851 6fbe
00000310: 2dac 663d 9b4c 1e3e 2930 7ebd f980 53be
00000320: e1e7 25bc 1f20 493d 22cb e83d 88a6 acbc
00000330: 94c7 5d3e 5247 70bd 74d7 b53d 19e8 0f3e
00000340: 43a9 8bbc aac2 4bbe 5a09 4e3e ab7c ca3d
00000350: 0b3a e6bc bcf3 58bd a55b 823b 3740 333b
00000360: 5fbe 83bd c7e4 cb3d f37c 1b3e 8e87 903d
00000370: 7c2d 833d 71c1 8f3d ba8a 0e3e ce26 11be
00000380: a029 203e bdb1 aabd 0cad b8bc a385 3bbe
00000390: c327 983d 56d8 8fbc 7bfe 8fbc d7ce adbd
000003a0: 56ab 1fbc 6615 50bc e3bd c9bd bff1 09be
000003b0: c6d2 46bd 5bda 443e f4ad c63d 8b05 613d
000003c0: d132 c53d cc54 c3bc fb8e 82bd a425 043e
000003d0: 946e 84bd a7b2 5dbd ba1a 893b 18cd 123e
000003e0: 1b59 313d 2414 96bc 3e38 263d 4c3d f4bb
000003f0: d529 023e fd0b 1a3d ebc5 963d d866 21bc

hidden_layers_x.3.fc.4.weight f4 [32]
0.9863581 0.9520223 0.91309476 1.0258318 0.9323823 0.8985353 0.9984158 0.87969625
1.0182533 0.9550924 0.9357238 1.0589526 0.92915195 1.0646597 0.9153618 0.9168393
0.9315538 0.9917334 1.0100037 0.931564 0.899365 0.885437 0.98788565 0.98602986
0.937376 0.99735296 0.9404304 0.92881894 0.94753355 0.94515705 0.9575026 1.0480851
00000000: f781 7c3f bcb7 733f 94c0 693f 754e 833f
00000010: 9bb0 6e3f 6906 663f 2e98 7f3f c633 613f
00000020: 2056 823f ef80 743f 988b 6f3f c28b 873f
00000030: e7dc 6d3f c546 883f 2755 6a3f fbb5 6a3f
00000040: 4f7a 6e3f 3de2 7d3f cd47 813f fa7a 6e3f
00000050: c93c 663f 00ac 623f 13e6 7c3f 746c 7c3f
00000060: e0f7 6f3f 8652 7f3f 0cc0 703f 14c7 6d3f
00000070: 8f91 723f d0f5 713f e41e 753f a727 863f

hidden_layers_x.3.fc.4.bias f4 [32]
0.06489946 -0.021661941 -0.0857846 0.038170524 0.06093241 0.038245823 -0.09395439 -0.073315874
-0.08781308 0.05453556 0.045269977 -0.033650454 -0.036060154 -0.07542719 0.032351278 -0.04765265
-0.08842408 -0.14320311 0.02179692 0.06469647 0.041274548 0.07716708 -0.08781347 -0.06547733
0.05613781 0.031057147 -0.063298896 0.09581388 0.03964303 0.06817504 -0.053371895 0.09417227
00000000: 02ea 843d 6274 b1bc d6af afbd b258 1c3d
00000010: 4394 793d a7a7 1c3d 296b c0bd a226 96bd
00000020: 58d7 b3bd ae60 5f3d 036d 393d 0fd5 09bd
00000030: d0b3 13bd 9279 9abd c682 043d 6d2f 43bd
00000040: af17 b5bd d6a3 12be 748f b23c 957f 843d
00000050: 800f 293d c609 9e3d 8cd7 b3bd fa18 86bd
00000060: c3f0 653d 8f6b fe3c daa2 81bd 113a c43d
00000070: bb60 223d 5b9f 8b3d 7d9c 5abd 64dd c03d

hidden_layers_x.4.fc.0.weight f4 [32, 32]
0.12982926 -0.06090246 -0.1473824 0.045439027 -0.093313396 0.14523798 0.042017125 -0.09090227
0.052807283 -0.028346846 0.07906492 -0.0031983566 0.066680335 0.19111265 -0.017994309 -0.16976534
-0.018581722 0.22165465 0.14554696 -0.1049022 0.10485966 -0.034527227 0.17601302 0.18772243
0.20209926 -0.03601108 0.06491163 0.030260904 0.11980978 -0.0024365066 -0.050422467 -0.14052913
-0.19983886 0.058768023 0.11922795 0.045031197 -0.041290954 0.06737254 -0.10675556 -0.14316425
-0.16600451 -0.17092335 0.01853094 -0.06765056 0.063123114 -0.09251927 0.007952141 -0.16307808
0.093241386 0.100405596 -0.025095243 -0.08163353 -0.041244633 -0.0062317676 -0.16536827 0.026887413
-0.21392183 -0.16426517 0.098784216 0.09680582 -0.016400384 -0.117211014 -0.103701346 0.17439944
0.094745494 0.023397291 -0.09956759 -0.021738432 0.1880419 0.024637055 -0.06106234 0.08979852
0.01863092 0.123922355 -0.008666893 -0.09406955 0.043531705 0.032837033 0.06556647 -0.013232601
-0.09796673 -0.135616 -0.0463374 -0.067240536 -0.03318567 -0.15128843 0.23337288 0.12451688
0.08684042 -0.029653687 0.09851546 0.03570936 0.18356799 -0.0057265107 -0.06952118 -0.11245292
0.10581223 0.15967603 -0.19782832 0.034758132 -0.030446185 -0.035222627 -0.078710824 0.14162043
0.06887192 -0.117730126 0.100568816 -0.03455828 0.12944257 -0.059621364 -0.0076047843 0.109426364
-0.003695329 0.042836104 0.076472186 -0.0023152328 0.083478846 -0.19618121 0.20268162 -0.09110218
-0.07464188 -0.1786338 -0.08300521 0.047714494 0.086466365 0.14903753 0.09504949 -0.038581714
-0.074712984 -0.20751579 0.026705708 -0.14174004 0.16762991 0.0071267304 0.095204264 -0.038841948
-0.08624783 0.06932983 -0.09751409 0.21821699 0.08140642 -0.029097144 0.042107273 -0.047958646
0.071218625 0.020889303 0.02940221 0.034648437 -0.08060659 -0.09437403 -0.1327881 0.0561534
-0.21467288 -0.16590993 -0.059891906 -6.761348e-05 0.11067153 -0.027470978 0.018454304 0.05478922
0.009028447 -0.14933713 -0.15961932 -0.16776009 0.06648911 0.01988259 0.074396834 0.08610339
0.04269485 -0.13237265 -0.21062258 -0.091742806 0.055305853 0.023409326 0.0066966224 0.09903149
-0.10269727 -0.064701736 -0.12219226 -0.02496923 -0.012089651 0.033917446 -0.05563654 -0.15242052
-0.20438433 -0.031181362 -0.035297934 -0.112222165 0.15234731 -0.0029220474 0.029485526 0.14791323
0.033281393 -0.10339061 -0.046476305 -0.13039799 0.15363462 -0.086782835 -0.060049947 -0.12474411
0.21309164 0.16888921 0.17285259 0.039171685 0.09798593 0.1917324 0.1443291 0.021519301
0.04612841 0.052304562 0.16297852 -0.054548778 0.046688437 -0.03191379 0.12858413 0.07893448
0.06052962 -0.08211832 -0.20296508 -0.08479179 -0.04825389 0.13759325 0.1852022 0.16301472
0.12350724 -0.15270774 0.24947613 0.07141209 0.00659794 0.22289072 -0.17741548 0.07567876
-0.15584831 -0.1832616 0.08579405 0.19987288 -0.18273944 -0.036475025 -0.024914289 -0.13300999
-0.008940233 -0.23504092 -0.06524611 -0.19028711 0.08908113 -0.15262763 -0.13995956 0.14139433
-0.0010869781 0.011767192 -0.06712203 -0.12051257 -0.21996488 -0.059711915 -0.08662978 0.059628688
00000000: f6f1 043e dc74 79bd 69eb 16be 461e 3a3d
00000010: 181b bfbd 44b9 143e 261a 2c3d f82a babd
00000020: 734c 583d a537 e8bc caec a13d 859b 51bb
00000030: b38f 883d 09b3 433e cd68 93bc f7d6 2dbe
00000040: b238 98bc 70f9 623e 430a 153e f7d6 d6bd
00000050: a9c0 d63d 6c6c 0dbd c23c 343e 4f3a 403e
00000060: 1cf3 4e3e 5b80 13bd 63f0 843d b7e5 f73c
00000070: d45e f53d ccad 1fbb ca87 4ebd dee6 0fbe
00000080: 8fa2 4cbe bdb6 703d c92d f43d a272 383d
00000090: b420 29bd 9dfa 893d a9a2 dabd a699 12be
000000a0: 16fd 29be 8806 2fbe 33ce 973c 608c 8abd
000000b0: b146 813d be7a bdbd b249 023c f1fd 26be
000000c0: 57f5 be3d 73a1 cd3d 8a94 cdbc 7b2f a7bd
000000d0: 22f0 28bd db33 ccbb 4d56 29be fe42 dc3c
000000e0: 530e 5bbe 2135 28be 614f ca3d 2142 c63d
000000f0: 195a 86bc 540c f0bd 5f61 d4bd c495 323e
00000100: ed09 c23d adab bf3c 18ea cbbd cc14 b2bc
00000110: 0e8e 403e a6d3 c93c 811c 7abd 49e8 b73d
00000120: df9f 983c 01cb fd3d 95ff 0dbc 89a7 c0bd
00000130: 4d4e 323d 2080 063d b747 863d 8dcd 58bc
00000140: c8a2 c8bd ecde 0abe 49cc 3dbd 68b5 89bd
00000150: b2ed 07bd 5beb 1abe 4df9 6e3e b502 ff3d
00000160: 64d9 b13d 4aec f2bc 79c2 c93d fa43 123d
00000170: 3ff9 3b3e 74a5 bbbb 1f61 8ebd b74d e6bd
00000180: 15b4 d83d 1d82 233e 8293 4abe 8b5e 0e3d
00000190: 476a f9bc 9a45 10bd 2433 a1bd f204 113e
000001a0: b90c 8d3d 7e1c f1bd 06f7 cd3d fc8c 0dbd
000001b0: 988c 043e 8835 74bd 8e31 f9bb ee1a e03d
000001c0: 552d 72bb e974 2f3d 739d 9c3d 29bb 17bb
000001d0: f5f6 aa3d bae3 48be c58b 4f3e c893 babd
000001e0: d8dd 98bd c7eb 36be a3fe a9bd 4670 433d
000001f0: 4715 b13d 4b9d 183e 4fa9 c23d dc07 1ebd
00000200: 1f03 99bd 057f 54be eec5 da3c 4d24 11be
00000210: 2da7 2b3e 5987 e93b 74fa c23d bc18 1fbd
00000220: b4a2 b0bd ccfc 8d3d 78b5 c7bd 4674 5f3e
00000230: 69b8 a63d 225d eebc ad78 2c3d 4970 44bd
00000240: 12db 913d 0b20 ab3c e7dc f03c 85eb 0d3d
00000250: 1115 a5bd 2c47 c1bd 9bf9 07be 1c01 663d
00000260: 35d3 5bbe 4be4 29be 3751 75bd b6cb 8db8
00000270: c1a7 e23d d10a e1bc 7b2d 973c a96a 603d
00000280: 0dec 133c d5eb 18be 3f73 23be 4dc9 2bbe
00000290: 712b 883d d0e0 a23c 5e5d 983d f956 b03d
000002a0: cce0 2e3d b28c 07be 72ad 57be a7e3 bbbd
000002b0: 6488 623d eac4 bf3c 576f db3b 06d1 ca3d
000002c0: f252 d2bd 5882 84bd f03f fabd 458c ccbc
000002d0: ac13 46bc 05ed 0a3d 24e3 63bd 2014 1cbe
000002e0: 204a 51be 0e70 ffbc 9194 10bd bcd4 e5bd
000002f0: ef00 1c3e d27f 3fbb a18b f13c 9176 173e
00000300: 1252 083d 75be d3bd f05d 3ebd 0d87 05be
00000310: 6552 1d3e 33bb b1bd eff6 75bd d779 ffbd
00000320: b234 5a3e 4bf1 2c3e 4500 313e 7d72 203d
00000330: d9ac c83d 8055 443e 02cb 133e 3f49 b03c
00000340: 25f1 3c3d 4f3d 563d d7e3 263e 8a6e 5fbd
00000350: 603c 3f3d 09b8 02bd 8fab 033e 67a8 a13d
00000360: e8ed 773d a62d a8bd 14d6 4fbe 51a7 adbd
00000370: dfa5 45bd 3fe5 0c3e a5a5 3d3e 55ed 263e
00000380: 5df1 fc3d 6b5f 1cbe ac76 7f3e 8040 923d
00000390: 8833 d83b 773d 643e 67ac 35be 77fd 9a3d
000003a0: b396 1fbe eea8 3bbe cab4 af3d 7aab 4c3e
000003b0: 0c20 3bbe d666 15bd 0d19 ccbc c533 08be
000003c0: 0e7a 12bc 91ae 70be c19f 85bd a0da 42be
000003d0: 2b70 b63d 6b4a 1cbe 8f51 0fbe adc9 103e
000003e0: ef78 8eba 2ecb 403c 4677 89bd 4bcf f6bd
000003f0: 793e 61be 7b94 74bd f46a b1bd 363d 743d

hidden_layers_x.4.fc.1.weight f4 [32]
0.9585283 0.9312142 0.93648404 0.9899704 0.921102 1.0601156 0.97387123 0.9218821
0.9209913 0.92524 1.0323918 0.897879 1.0364286 1.0293698 1.0289617 1.0086045
0.9070501 1.0002517 1.0200671 1.0155299 0.93866223 1.0965378 0.94772565 0.90968716
0.99852335 0.9603182 1.0253477 0.9425002 0.9891659 1.0076874 0.9353094 0.9226381
00000000: 1c62 753f 0e64 6e3f 6bbd 6f3f b36e 7d3f
00000010: 57cd 6b3f deb1 873f a04f 793f 7700 6c3f
00000020: 16c6 6b3f 87dc 6c3f 6a25 843f 66db 653f
00000030: b1a9 843f 64c2 833f 04b5 833f f419 813f
00000040: 6f34 683f 3f08 803f 8f91 823f e2fc 813f
00000050: 2b4c 703f 5a5b 8c3f 269e 723f 42e1 683f
00000060: 3a9f 7f3f 6ad7 753f 983e 833f b147 713f
00000070: fa39 7d3f e7fb 803f 7070 6f3f 0332 6c3f

hidden_layers_x.4.fc.1.bias f4 [32]
-0.06882979 0.03326704 0.08252967 -0.0024068605 0.06783882 -0.03652583 -0.12585348 -0.085982375
0.0047031725 0.058652025 -0.049526982 0.052388754 -0.05949618 -0.091556154 0.07629921 -0.08987091
0.03810897 -0.06464297 -0.073361546 -0.03208684 0.046402577 -0.032352343 0.03333003 0.061253853
-0.08806292 0.03094328 0.08470276 0.02312064 -0.07696757 -0.07818362 0.04516841 0.04033583
00000000: a2f6 8cbd 0543 083d 5105 a93d 6bbc 1dbb
00000010: 14ef 8a3d 1c9c 15bd bcdf 00be 8717 b0bd
00000020: 121d 9a3b 1b3d 703d cedc 4abd 9795 563d
00000030: 44b2 73bd cb81 bbbd c342 9c3d 3d0e b8bd
00000040: 2718 1c3d 8963 84bd 943e 96bd 7e6d 03bd
00000050: a110 3e3d e483 04bd 1285 083d 52e5 7a3d
00000060: 555a b4bd c37c fd3c a478 ad3d 7f67 bd3c
00000070: 2ca1 9dbd bc1e a0bd 8302 393d 2f37 253d

hidden_layers_x.4.fc.3.weight f4 [32, 32]
0.23514609 -0.07078495 0.10912318 0.14478287 -0.09593788 -0.1278595 -0.12900002 6.0028073e-05
0.04138441 -0.0070804083 0.21883196 0.039852377 -0.120683864 0.15238932 0.11149501 -0.15088855
0.063162334 -0.07548827 -0.08563786 0.22673513 -0.017229622 0.28480756 -0.24309336 0.09096411
-0.2289584 -0.06143987 0.08337963 -0.04821707 0.13885678 -0.06277024 -0.031143045 -0.17792442
0.15410845 -0.06618019 -0.19372961 0.03351923 0.020682516 0.054550655 0.20421089 -0.0026192146
0.15001535 -0.04033638 0.122250624 0.16726792 -0.08986377 0.1229351 0.100871146 0.20408967
0.18806966 0.039280586 -0.05710912 0.037523285 -0.06338675 0.11887998 0.23160951 0.0075806086
0.03865029 0.12846503 0.014915319 0.26243246 0.039132874 0.17607503 0.040661283 0.054541033
-0.0053644455 0.0027735836 0.021783099 0.00065560266 -0.116282634 -0.18718454 0.04954266 0.08486459
0.07748192 0.0971762 0.09713272 -0.017586185 0.032616816 -0.10309199 -0.14885017 0.09961493
-0.07054755 -0.19146977 -0.068849966 -0.093229786 -0.14399396 0.17416915 0.0019970145 0.047025613
-0.121275745 -0.015867379 0.095945634 0.16662529 -0.10005161 -0.03664469 0.032801587 -0.08096814
0.29040313 0.07354307 -0.20702288 0.10694425 -0.05191121 -0.04904185 0.010216478 0.033325925
0.19334322 -0.00062154717 -0.034563683 -0.07474564 -0.15723746 0.0034825096 0.030219382 -0.025685275
0.016578501 -0.033241253 -0.05844279 0.14071876 -0.22796507 0.32108253 -0.005486528 -0.10632712
-0.07157888 -0.09220244 -0.055047486 -0.06963078 -0.17371176 0.012228604 0.03298368 -0.028899644
-0.11221212 -0.08195497 0.16492474 0.1598805 0.14463621 0.089914076 -0.21409465 0.067774735
-0.05789963 0.07859684 0.1237557 -0.00998076 -0.20550913 -0.0059833336 0.00847276 -0.049374476
0.013379551 0.18171795 0.09586779 -0.0068928795 -0.14152262 -0.080421455 -0.14304322 0.05690921
-0.19958399 0.05563068 0.14290248 -0.17131571 -0.2106131 -0.13173428 0.0060538496 0.035640962
-0.13091652 0.1739177 -0.03582325 0.05481368 -0.052106835 -0.003514668 -0.07256917 0.23551506
0.11757983 0.12744024 -0.019114774 -0.20257986 0.0023398013 0.06531104 0.039026618 -0.037713848
0.0002755259 0.06542268 0.048303053 0.113326296 -0.20438835 -0.026264219 0.13099243 0.20202193
-0.12905845 -0.07068069 -0.063426025 0.0627519 -0.09614858 -0.14883032 -0.007929429 -0.110380426
0.109683834 -0.050276842 -0.064943865 -0.16587214 -0.15587285 0.039434273 -0.050884645 0.07879516
-0.053242654 -0.08103008 0.18228675 0.036433704 0.14350817 -0.006110917 0.047700193 0.18683988
-0.01513294 -0.14110282 -0.009902636 0.21385354 0.12068622 0.046301514 -0.08801906 0.09320201
0.06810555 -0.02081917 -0.058769237 -0.045957267 0.1755627 0.014246842 0.20583999 0.1544901
-0.0056812195 -0.07715421 -0.115702584 -0.08079925 0.010827758 -0.11556267 0.088749476 0.19466183
-0.0025059832 0.055913247 -0.11171542 -0.07820644 -0.11257379 -0.0926038 -0.08183364 -0.15224537
0.033760805 -0.0081853205 -0.15661435 -0.019064806 -0.056434248 0.05418778 -0.019018823 0.015217064
0.23251802 -0.088328175 -0.056916513 -0.01669432 0.16613537 -0.0035390372 0.116426945 -0.02572815
00000000: 23ca 703e b3f7 90bd f97b df3d f641 143e
00000010: 147b c4bd 9aed 02be 9518 04be a7c6 7b38
00000020: b382 293d c502 e8bb 7c15 603e 3f3c 233d
00000030: 1a29 f7bd f20b 1c3e 7f57 e43d 8782 1abe
00000040: 415b 813d 9899 9abd e762 afbd 412d 683e
00000050: 2325 8dbc 4cd2 913e 77ed 78be 644b ba3d
00000060: 1274 6abe 60a8 7bbd f1c2 aa3d 437f 45bd
00000070: 7930 0e3e af8d 80bd b31f ffbc d231 36be
00000080: 9bce 1d3e 7b89 87bd 0e61 46be 764b 093d
00000090: 616e a93c 8270 5f3d a91c 513e 21a7 2bbb
000000a0: a09d 193e c337 25bd 895e fa3d 4848 2b3e
000000b0: 7f0a b8bd 66c5 fb3d 8895 ce3d e2fc 503e
000000c0: 5595 403e aee4 203d 41eb 69bd 04b2 193d
000000d0: ead0 81bd 5977 f33d 0b2b 6d3e c166 f83b
000000e0: c44f 1e3d 568c 033e 625f 743c 8c5d 863e
000000f0: cb49 203d 034d 343e 728c 263d 6b66 5f3d
00000100: 3bc8 afbb 03c5 353b 7872 b23c c0dc 2b3a
00000110: 9725 eebd 4ead 3fbe 3fed 4a3d 7ccd ad3d
00000120: d7ae 9e3d 5104 c73d 85ed c63d e710 90bc
00000130: 3699 053d e521 d3bd 2e6c 18be ea02 cc3d
00000140: 3c7b 90bd a710 44be 3601 8dbd 42ef bebd
00000150: 2773 13be 6659 323e 58e0 023b ee9d 403d
00000160: 6b5f f8bd 4efc 81bc 257f c43d d29f 2a3e
00000170: dce7 ccbd be18 16bd f55a 063d a0d2 a5bd
00000180: b8af 943e c09d 963d cefd 53be 9605 db3d
00000190: d9a0 54bd 1be0 48bd 0463 273c c480 083d
000001a0: c4fb 453e 53ef 22ba a692 0dbd 3e14 99bd
000001b0: db02 21be d13a 643b a38e f73c ed69 d2bc
000001c0: a3cf 873c fb27 08bd b561 6fbd 9418 103e
000001d0: ad6f 69be ee64 a43e 55c8 b3bb 08c2 d9bd
000001e0: f397 92bd a2d4 bcbd 7979 61bd 959a 8ebd
000001f0: 7fe1 31be 7c5a 483c e519 073d f2be ecbc
00000200: 78cf e5bd 02d8 a7bd 08e2 283e b7b7 233e
00000210: 841b 143e df24 b83d a13b 5bbe 7bcd 8a3d
00000220: 2a28 6dbd 61f7 a03d a173 fd3d 5786 23bc
00000230: fc70 52be d70f c4bb 55d1 0a3c e43c 4abd
00000240: e735 5b3c 4514 3a3e 5556 c43d aadd e1bb
00000250: 4eeb 10be 01b4 a4bd ec79 12be a219 693d
00000260: bf5f 4cbe ffdc 633d 0755 123e 636d 2fbe
00000270: f6aa 57be 5ae5 06be 5f5f c63b 42fc 113d
00000280: fb0e 06be 7b17 323e 66bb 12bd 4f84 603d
00000290: fa6d 55bd 5856 66bb 259f 94bd dc2a 713e
000002a0: b2cd f03d b27f 023e 9696 9cbc 1871 4fbe
000002b0: 5a57 193b cbc1 853d 60da 1f3d d679 1abd
000002c0: 7674 9039 53fc 853d 6cd9 453d 9e17 e83d
000002d0: 2e4b 51be 0f28 d7bc e122 063e d6de 4e3e
000002e0: e627 04be 0ac1 90bd 81e5 81bd 1184 803d
000002f0: 8ce9 c4bd fa66 18be 70ea 01bc 220f e2bd
00000300: eba1 e03d 17ef 4dbd 4a01 85bd 63da 29be
00000310: 229d 1fbe d585 213d 6b6c 50bd 5b5f a13d
00000320: f814 5abd 19f3 a5bd 61a9 3a3e 823b 153d
00000330: cef3 123e 163e c8bb 4761 433d f452 3f3e
00000340: 27f0 77bc 427d 10be aa3e 22bc 6cfc 5a3e
00000350: 562a f73d a8a6 3d3d 5643 b4bd b2e0 be3d
00000360: ec7a 8b3d f78c aabc 03b8 70bd b03d 3cbd
00000370: b5c6 333e 966b 693c b8c7 523e a732 1e3e
00000380: 8629 babb 0703 9ebd 7af5 ecbd 147a a5bd
00000390: e966 313c 1fac ecbd 49c2 b53d 6e55 473e
000003a0: 6c3b 24bb 4a05 653d 0ecb e4bd b32a a0bd
000003b0: 168d e6bd 10a7 bdbd 6598 a7bd 36e6 1bbe
000003c0: c548 0a3d b91b 06bc 835f 20be cc2d 9cbc
000003d0: 9927 67bd 01f4 5d3d 5dcd 9bbc fe50 793c
000003e0: 3419 6e3e 67e5 b4bd 4a21 69bd 87c2 88bc
000003f0: 641f 2a3e 31ef 67bb 4071 ee3d d7c3 d2bc

hidden_layers_x.4.fc.4.weight f4 [32]
0.909417 0.93193763 0.9840246 0.8822332 0.92058897 0.9452719 0.9615116 0.9944952
1.0870029 0.9279401 0.96038955 0.97578156 0.9087179 1.0248095 0.94614345 0.9053318
0.9909539 0.9661399 0.8898344 0.9165965 0.98163766 1.0019314 0.9101012 1.0729444
1.0107435 0.9607441 0.8905734 0.92013264 1.0110211 1.1360637 1.0836196 1.0984576
00000000: 8dcf 683f 7793 6e3f 09e9 7b3f 09da 613f
00000010: b8ab 6b3f 57fd 713f a025 763f 3d97 7e3f
00000020: e922 8b3f 7b8d 6d3f 17dc 753f d2cc 793f
00000030: bca1 683f f52c 833f 7536 723f d3c3 673f
00000040: 28af 7d3f f254 773f 30cc 633f 11a6 6a3f
00000050: 9b4c 7b3f 4a3f 803f 64fc 683f 3e56 893f
00000060: 0b60 813f 53f3 753f 9efc 633f d08d 6b3f
00000070: 2469 813f 896a 913f 0cb4 8a3f 429a 8c3f

hidden_layers_x.4.fc.4.bias f4 [32]
-0.107192844 -0.053834654 0.0040054703 0.033805795 -0.07845067 0.007392624 -0.091384515 -0.12300034
-0.09613266 -0.07522372 -0.0419607 0.038073655 -0.07725585 -0.07407116 -0.014301679 -0.06644721
-0.08341753 -0.028426832 -0.11847377 -0.096859 0.045235243 0.019696562 -0.0715589 -0.013685224
-0.06347797 -0.019446839 0.02899188 -0.062219813 -0.047348876 -0.12997924 -0.07293477 -0.09648191
00000000: ec87 dbbd ba81 5cbd 5240 833b f277 0a3d
00000010: bfaa a0bd d33d f23b ce27 bbbd 9ae7 fbbd
00000020: 33e1 c4bd e50e 9abd fcde 2bbd 1ff3 1b3d
00000030: 5138 9ebd 9fb2 97bd 9751 6abc 7a15 88bd
00000040: cfd6 aabd 63df e8bc 60a2 f2bd 035e c6bd
00000050: 9748 393d af5a a13c 798d 92bd fd37 60bc
00000060: bd00 82bd fa4e 9fbc 6180 ed3c 34da 7ebd
00000070: e5f0 41bd 4719 05be d35e 95bd 4f98 c5bd

hidden_layers_x.5.weight f4 [2, 32]
0.06457887 0.11359539 0.020121362 0.21794394 0.032700054 0.018542584 -0.004346911 -0.11200523
-0.11744345 -0.022428216 -0.015529486 0.07447289 0.15043613 -0.09448819 -0.016366618 0.028963972
0.08871058 0.116109304 0.0035849113 -0.07624914 0.1717641 -0.15509759 0.051229004 0.07906707
0.03985142 0.17467798 0.142521 -0.019315818 -0.13440214 0.022517698 -0.20285663 -0.06703195
0.0010290279 -0.0027941423 0.03705105 0.0011893961 0.06436676 -0.0114008505 0.0021769963 -0.0031496708
0.033409715 0.040553283 0.032450087 -0.0045005013 0.065333545 0.009630265 -0.083460286 0.00095324626
0.002854543 0.0017227671 -0.0016982543 -0.044982113 0.00037814563 0.06855229 -0.0017896645 0.0050055794
0.05786926 -0.011625022 -0.001637777 -0.05068277 0.04851214 -0.0042840736 0.016208228 -0.043264154
00000000: ed41 843d b3a4 e83d 8ed5 a43c b22c 5f3e
00000010: 7ef0 053d 9ee6 973c 8870 8ebb ff62 e5bd
00000020: 3186 f0bd 61bb b7bc 636f 7ebc 3e85 983d
00000030: ee0b 1a3e 0683 c1bd 4913 86bc da45 ed3c
00000040: e4ad b53d b7ca ed3d d5f0 6a3b 8228 9cbd
00000050: eee2 2f3e e7d1 1ebe 81d5 513d eaed a13d
00000060: 3e3b 233d c9de 323e 06f1 113e 353c 9ebc
00000070: b7a0 09be 0977 b83c a6b9 4fbe 0c48 89bd
00000080: 72e0 863a ee1d 37bb d8c2 173d 83e5 9b3a
00000090: b8d2 833d a2ca 3abc f0ab 0e3b b56a 4ebb
000000a0: a0d8 083d 331b 263d 62ea 043d f178 93bb
000000b0: 98cd 853d 42c8 1d3c 3aed aabd 46e3 793a
000000c0: 4913 3b3b 79ce e13a f597 deba 2a3f 38bd
000000d0: d941 c639 2565 8c3d 2d93 eaba d805 a43b
000000e0: 5108 6d3d e076 3ebc adaa d6ba bc98 4fbd
000000f0: aab4 463d 6a61 8cbb 1ec7 843c c135 31bd

hidden_layers_x.5.bias f4 [2]
0.11084863 -0.022716692
00000000: 9b04 e33d 5b18 babc

hidden_layers_c.0.weight f4 [32, 7]
-0.3066419 -0.24081945 0.14980116 -0.31341603 -0.46826553 0.04654381 -0.232001 0.27371722
0.31048343 0.16143727 0.12482289 0.16455996 0.264625 0.06455093 -0.32106918 0.27500772
0.24556907 -0.033425506 -0.16513203 -0.13254078 -0.2626159 0.25941262 -0.016998896 0.32097733
0.18966617 -0.04634555 -0.2567456 0.20276496 -0.038653474 0.07920545 0.3479992 -0.06747389
0.112745345 -0.14983638 0.03741691 0.26760948 0.1386304 -0.123078756 0.34490946 -0.06996661
0.14819176 0.10430397 0.13463397 -0.2077777 0.45466256 0.021890203 0.41676393 -0.23470959
-0.15325506 0.29486638 -0.34249753 -0.010315192 -0.03106566 -0.48372382 -0.025139164 -0.23883766
0.05854495 0.026429627 0.15096712 -0.05152255 -0.21676384 -0.118435584 -0.009347605 0.22686543
0.06445077 -0.35018247 0.08007437 -0.032711506 0.38009676 -0.13248919 0.23018557 0.012956771
-0.4209858 -0.014826404 -0.16727594 0.20169814 -0.3104801 -0.007338483 0.27508897 0.21591413
0.25123376 0.4086298 0.10329297 0.09616907 0.03051206 -0.0146532515 0.24592952 -0.14584085
-0.0051166294 -0.015979564 -0.055645857 0.27605695 0.041712437 -0.19661902 0.36227092 0.03269411
0.17858523 -0.39018756 0.21235628 -0.15737987 0.011260053 0.3660915 0.16222484 0.37482783
-0.1321084 -0.5022396 -0.403579 -0.26849297 -0.2514363 -0.17082703 0.12355828 0.27171913
-0.2881777 -0.13886385 0.33319563 -0.040237714 -0.04196281 -0.28622508 0.045206036 -0.39517376
0.2529515 -0.22069629 -0.17047918 0.059807803 -0.048945524 0.26713303 -0.015524563 -0.26749793
0.29070345 -0.10353553 0.14775337 -0.2930015 -0.27007788 0.048691757 -0.044339042 0.019884992
0.15529613 0.0034509348 -0.14196524 -0.06304567 0.24076226 0.28678697 0.32710087 0.26583943
0.19470698 0.41128248 -0.34021822 -0.25890744 0.2909923 0.4103509 -0.19520904 0.23307452
-0.20984119 -0.17816304 0.4704851 -0.09940935 0.20099455 0.29520944 0.17266351 -0.31898153
0.12729868 -0.3250193 -0.1623434 -0.30676183 0.16190004 0.0038619319 0.22860996 0.17011715
-0.1783459 0.28463268 -0.4138854 -0.27558896 -0.3415841 0.16734615 -0.16970888 -0.24158451
0.28818023 0.2847639 0.2060515 0.2157989 -0.22575894 -0.21072865 -0.27182415 0.03992269
0.27664652 0.21992917 0.33705908 -0.25258464 -0.3677076 0.11602811 0.32232866 -0.16065961
0.03249642 0.08745848 0.24222182 0.113340214 -0.2800202 -0.054321542 0.15689878 -0.053653598
-0.2523138 -0.2671689 -0.21591817 0.23934549 0.029331248 0.45327064 0.20371985 0.45565572
0.0704884 0.35959056 0.24704982 -0.37164867 -0.4793302 -0.34257278 -0.2509404 -0.00567872
-0.24099638 -0.056218397 0.17153437 -0.3070969 0.059115678 -0.25320515 0.28075683 -0.08245597
00000000: 2b00 9dbe 6099 76be 7a65 193e 1178 a0be
00000010: 80c0 efbe b9a4 3e3d ac91 6dbe aa24 8c3e
00000020: aff7 9e3e d04f 253e 25a3 ff3d 6882 283e
00000030: ee7c 873e 4733 843d 2e63 a4be d0cd 8c3e
00000040: 7576 7b3e 2fe9 08bd 5f18 29be c5b8 07be
00000050: 9775 86be bbd1 843e 4541 8bbc 2457 a43e
00000060: d937 423e d5d4 3dbd 2974 83be 9ea1 4f3e
00000070: 1b53 1ebd 7836 a23d f32c b23e c02f 8abd
00000080: 08e7 e63d b56e 19be 7942 193d 1c04 893e
00000090: 21f5 0d3e b710 fcbd f997 b03e a74a 8fbd
000000a0: 95bf 173e 529d d53d 7ddd 093e adc3 54be
000000b0: 88c9 e83e 1553 b33c 1562 d53e b657 70be
000000c0: e5ee 1cbe baf8 963e d65b afbe 0d01 29bc
000000d0: 697d febc a6aa f7be a6f0 cdbc dc91 74be
000000e0: d4cc 6f3d f282 d83c 2097 1a3e 4f09 53bd
000000f0: 57f7 5dbe 5b8e f2bd b226 19bc 694f 683e
00000100: c4fe 833d 1e4b b3be 08fe a33d 80fc 05bd
00000110: 0b9c c23e 3fab 07be c4b5 6b3e a348 543c
00000120: 738b d7be 72ea 72bc 624a 2bbe f589 4e3e
00000130: 3ff7 9ebe a877 f0bb 76d8 8c3e 9818 5d3e
00000140: b6a1 803e ed37 d13e 448b d33d 4af4 c43d
00000150: 6df4 f93c 3114 70bc f3d4 7b3e 4e57 15be
00000160: 66a9 a7bb 93e7 82bc e9ec 63bd 5657 8d3e
00000170: a9da 2a3d 7f56 49be 937b b93e 42ea 053d
00000180: 0cdf 363e aac6 c7be ed73 593e 3028 21be
00000190: 167c 383c 5870 bb3e 451e 263e 6fe9 bf3e
000001a0: 6d47 07be c692 00bf e8a1 cebe e977 89be
000001b0: 42bc 80be 48ed 2ebe 200c fd3d c51e 8b3e
000001c0: 078c 93be 5332 0ebe 9e98 aa3e 4dd0 24bd
000001d0: 32e1 2bbd 188c 92be f729 393d 3754 cabe
000001e0: dc82 813e 35fe 61be 1892 2ebe 07f9 743d
000001f0: 1a7b 48bd a9c5 883e bd5a 7ebc 7df5 88be
00000200: 15d7 943e 700a d4bd a94c 173e 4b04 96be
00000210: a647 8abe 0271 473d db9c 35bd dae5 a23c
00000220: f305 1f3e 1429 623b 565f 11be 171e 81bd
00000230: 628a 763e bed5 923e c479 a73e 1b1c 883e
00000240: 4461 473e 9e93 d23e 1531 aebe 848f 84be
00000250: f1fc 943e 8319 d23e e1e4 47be 16ab 6e3e
00000260: 9ce0 56be 5f70 36be 6ce3 f03e 2197 cbbd
00000270: 84d1 4d3e b125 973e b4ce 303e 8c51 a3be
00000280: 965a 023e ee68 a6be 593d 26be e30f 9dbe
00000290: 20c9 253e 7718 7d3b bb18 6a3e 3133 2e3e
000002a0: 4fa0 36be 60bb 913e cae8 d3be ff19 8dbe
000002b0: 1ce4 aebe ca5c 2b3e 2ac8 2dbe ee61 77be
000002c0: 5c8c 933e 93cc 913e 2aff 523e 63fa 5c3e
000002d0: 5a2d 67be 40c9 57be 892c 8bbe f985 233d
000002e0: 9da4 8d3e 1d35 613e 0293 ac3e c652 81be
000002f0: 2c44 bcbe 25a0 ed3d 4308 a53e f483 24be
00000300: f71a 053d 6e1d b33d ff08 783e ea1e e83d
00000310: cf5e 8fbe 4480 5ebd 13aa 203e e0c3 5bbd
00000320: 462f 81be 5dca 88be a719 5dbe fc16 753e
00000330: 1648 f03c 1713 e83e f09b 503e b54b e93e
00000340: 395c 903d 411c b83e a1fa 7c3e bc48 bebe
00000350: c56a f5be b365 afbe 437b 80be 8e14 babb
00000360: c1c7 76be 4345 66bd b5a6 2f3e ce3b 9dbe
00000370: 4823 723d 1ba4 81be 5cbf 8f3e adde a8bd

hidden_layers_c.1.weight f4 [32]
0.8241153 1.0105575 0.91490316 1.0308262 0.99050266 0.83334965 1.0082427 0.9200245
1.0160893 0.9068104 0.9824288 0.88579535 0.8498604 0.9742875 1.0017029 0.7699904
0.8833279 0.8584104 1.0406673 0.8480173 0.91914785 0.9292407 1.0382341 0.8957659
0.9976376 0.90702856 0.9348439 0.91700596 1.0056307 0.9608415 0.88624024 1.0099207
00000000: 38f9 523f f359 813f 1837 6a3f 1df2 833f
00000010: 9591 7d3f 6756 553f 190e 813f ba86 6b3f
00000020: 370f 823f ba24 683f 7480 7b3f 7cc3 623f
00000030: 7490 593f e86a 793f cd37 803f 171e 453f
00000040: c721 623f c9c0 5b3f 9634 853f a917 593f
00000050: 464d 6b3f b8e2 6d3f dbe4 843f ea50 653f
00000060: 2e65 7f3f 0633 683f ee51 6f3f e7c0 6a3f
00000070: 82b8 803f b5f9 753f a4e0 623f 1545 813f

hidden_layers_c.1.bias f4 [32]
-0.0826548 0.021456862 -0.12095057 0.01965399 0.06686041 -0.0430337 0.037866544 -0.14336161
-0.0687722 -0.0713086 -0.1138619 -0.08754183 -0.12711892 0.0035948197 -0.0088263 -0.14388774
-0.038856667 -0.079300866 -0.053335775 0.03550346 -0.014272012 -0.037729703 0.06421761 -0.097662725
-0.048913136 -0.09446576 0.032998085 -0.10318568 -0.032701887 -0.05329417 -0.11069049 -0.045637686
00000000: eb46 a9bd 4dc6 af3c efb4 f7bd 6801 a13c
00000010: 1cee 883d 1b44 30bd f319 1b3d 63cd 12be
00000020: 70d8 8cbd 3e0a 92bd 6e30 e9bd 2249 b3bd
00000030: 762b 02be 1197 6b3b 2f9c 10bc 4f57 13be
00000040: 2b28 1fbd 7e68 a2bd 9d76 5abd 136c 113d
00000050: 28d5 69bc 768a 1abd 8684 833d 6503 c8bd
00000060: 2459 48bd 4477 c1bd 0029 073d 0453 d3bd
00000070: 6af2 05bd fd4a 5abd b2b1 e2bd 95ee 3abd

hidden_layers_c.3.fc.0.weight f4 [32, 32]
0.002240067 -0.010391551 0.058899563 0.084142864 0.15505515 -0.2314428 -0.060890637 0.037861034
-0.20816688 -0.1483966 0.084295675 -0.18951654 -0.06078899 0.06891275 -0.028610663 -0.02180166
-0.074066915 -0.0411159 -0.17303586 0.104237996 0.047121786 0.18511719 -0.14923874 -0.02831325
-0.046247154 -0.20908403 -0.043148745 -0.10389934 0.07868907 0.007177427 -0.17561589 -0.18684936
0.20775554 0.19623132 -0.18238156 0.15662667 -0.077140704 -0.036364086 0.0044050626 -0.016060418
0.15767567 0.16534425 -0.032730784 0.2052538 0.025118215 -0.033949297 0.09901236 0.07342122
-0.06680612 0.14028637 -0.17280832 -0.12937823 0.1537094 0.0077166567 -0.14344989 0.05623291
0.100462206 0.124037534 -0.27288634 0.048766464 -0.17229797 0.014524421 0.012211321 0.045444176
-0.10057103 -0.1540465 -0.14456789 -0.12650417 0.025862431 0.048758864 -0.10613556 0.12402627
0.20548645 0.13702627 -0.0040010298 -0.13972475 -0.09649528 -0.14425647 -0.2786417 -0.18370338
-0.1330217 -0.09425491 0.023582853 -0.048127487 -0.1333328 -0.15198296 -0.1668969 0.000704489
-0.16523226 -0.15152068 -0.01862737 -0.06353974 -0.01433486 0.027623331 -0.22162287 -0.06411487
0.1403949 -0.27622235 0.008189168 -0.27333227 0.033768814 -0.06565971 0.18396123 0.25168484
-0.12001882 0.16750117 0.16985628 -0.08920615 -0.107151836 0.08053555 -0.13549192 -0.012170917
-0.016995937 0.14274175 0.1404462 -0.058120113 0.13548294 -0.12750176 0.02160639 0.066698216
0.03667641 -0.062052697 -0.06219271 -0.17189899 0.019621514 -0.08663469 0.13518387 0.0541667
-0.058648404 0.0060856766 0.019837456 -0.060095143 -0.13430929 -0.09439538 -0.1262207 -0.0757152
-0.19318327 0.19534698 0.20006463 0.13721652 0.1420734 0.039984416 -0.05669311 0.061027545
0.05884527 0.02734093 -0.032212373 0.049700823 0.025050513 -0.08224694 -0.20168862 -0.18596677
0.17937708 0.15803844 -0.19689275 0.2164837 -0.25683734 -0.16814193 0.009083515 -0.05557236
-0.13794357 -0.10092068 0.01164361 -0.17892973 -0.19871573 -0.13162042 0.05677408 -0.051937893
0.08718497 -0.09246941 0.18163508 0.12682313 -0.17856067 0.10529486 -0.12887587 0.006608353
-0.14475438 -0.14826156 0.03094759 0.009045707 -0.061089296 0.06070906 0.1176154 0.0023656108
0.040289756 0.14593449 0.13907546 -0.1739905 0.16663344 -0.051443316 0.18901578 -0.08666818
0.04616298 0.09046027 -0.111337095 -0.17799984 0.22832723 -0.22006987 0.12761365 -0.049213704
-0.3128206 0.24128139 -0.024543846 -0.20270485 -0.20165111 -0.063230075 0.047503445 0.036970712
0.08951194 -0.2054328 -0.060852353 0.17660484 0.10139804 0.17653826 -0.24280849 0.13168004
0.21897852 0.13066657 -0.08877869 0.019415269 -0.20120202 -0.0623509 -0.08369936 0.2551641
0.07251302 -0.103298046 0.021026162 0.10059916 -0.04249602 -0.07282931 0.08324277 -0.045760617
-0.05198161 -0.20493425 0.06335765 0.14793281 0.0066831806 0.111712664 0.09662339 0.021464162
0.10116839 0.113432504 0.022007698 -0.0386824 0.1767246 0.025281096 0.23949723 -0.03456507
-0.24335034 0.062902935 -0.008599195 -0.044487286 -0.032178286 0.08400043 -0.15336698 -0.04740191
00000000: 17ce 123b 5341 2abc ab40 713d 1853 ac3d
00000010: c7c6 1e3e 57ff 6cbe 7668 79bd 2c14 1b3d
00000020: b329 55be 47f5 17be 36a3 ac3d a010 42be
00000030: e0fd 78bd 2122 8d3d e960 eabc 6599 b2bc
00000040: 65b0 97bd 2569 28bd 5030 31be bb7a d53d
00000050: c602 413d 5c8f 3d3e 0ad2 18be 30f1 e7bc
00000060: a86d 3dbd 201a 56be bdbc 30bd 2dc9 d4bd
00000070: bc27 a13d 9f30 eb3b a7d4 33be 7055 3fbe
00000080: debd 543e ddf0 483e 3bc2 3abe be62 203e
00000090: f2fb 9dbd 82f2 14bd 5858 903b 2391 83bc
000000a0: bb75 213e 0150 293e b710 06bd 0d2e 523e
000000b0: b7c4 cd3c 6b0e 0bbd fec6 ca3d dd5d 963d
000000c0: a6d1 88bd 3ba7 0f3e aaf4 30be ba7b 04be
000000d0: ff65 1d3e 02dc fc3b 87e4 12be 7b54 663d
000000e0: 21bf cd3d 6407 fe3d c2b7 8bbe 58bf 473d
000000f0: e16e 30be d6f7 6d3c fe11 483c ac23 3a3d
00000100: 2ff8 cdbd 5ebe 1dbe 9b09 14be 4f8a 01be
00000110: 73dd d33c 60b7 473d 9a5d d9bd 7c01 fe3d
00000120: 0a6b 523e 9d50 0c3e 121b 83bb 0114 0fbe
00000130: 519f c5bd f8b7 13be 20aa 8ebe bd1c 3cbe
00000140: d736 08be b808 c1bd d430 c13c 5421 45bd
00000150: 6588 08be 6ca1 1bbe 05e7 2abe 75ad 383a
00000160: a532 29be 3d28 1bbe 6d98 98bc 2021 82bd
00000170: c3dc 6abc 534a e23c 1bf1 62be a84e 83bd
00000180: aec3 0f3e 046d 8dbe dc2b 063c 35f2 8bbe
00000190: 2b51 0a3d 9978 86bd 5560 3c3e d6dc 803e
000001a0: 6dcc f5bd 6d85 2b3e ceee 2d3e b7b1 b6bd
000001b0: 6c72 dbbd d3ef a43d 65be 0abe 8768 47bc
000001c0: 103b 8bbc e52a 123e 21d1 0f3e 5b0f 6ebd
000001d0: 0abc 0a3e d28f 02be e2ff b03c 1399 883d
000001e0: 013a 163d f82a 7ebd c8bd 7ebd 4a06 30be
000001f0: 4cbd a03c 876d b1bd a46d 0a3e e7dd 5d3d
00000200: 4f39 70bd 5b6a c73b 2982 a23c 5326 76bd
00000210: 6088 09be 5d52 c1bd 0040 01be 9210 9bbd
00000220: d6d1 45be 0a09 483e bedd 4c3e 7d82 0c3e
00000230: b07b 113e b3c6 233d 0937 68bd 05f8 793d
00000240: bd07 713d 16fa df3c 1ff1 03bd 1793 4b3d
00000250: bc36 cd3c 1571 a8bd 7687 4ebe 136e 3ebe
00000260: a0ae 373e d4d4 213e 419e 49be e7ad 5d3e
00000270: 2f80 83be 662d 2cbe 06d3 143c d89f 63bd
00000280: 1441 0dbe 80af cebd d7c4 3e3c 5b39 37be
00000290: 237c 4bbe 81c7 06be f08b 683d d4bc 54bd
000002a0: 098e b23d 9a60 bdbd 8cfe 393e ecdd 013e
000002b0: 9cd8 36be d5a4 d73d 09f8 03be e28a d83b
000002c0: 7e3a 14be e1d1 17be cd85 fd3c 7234 143c
000002d0: c538 7abd 10aa 783d 58e0 f03d 5d08 1b3b
000002e0: df06 253d da6f 153e cc69 0e3e 912a 32be
000002f0: f5a1 2a3e 3ab6 52bd 5a8d 413e 167f b1bd
00000300: 6515 3d3d 3c43 b93d b404 e4bd 9745 36be
00000310: 9dce 693e ff59 61be 27ad 023e 4f94 49bd
00000320: 062a a0be 7812 773e 2d10 c9bc dc91 4fbe
00000330: a17d 4ebe c57e 81bd f992 423d 9a6e 173d
00000340: 0952 b73d fa5c 52be 5140 79bd e6d7 343e
00000350: c7a9 cf3d 72c6 343e caa2 78be 22d7 063e
00000360: e83b 603e 75cd 053e 9ad1 b5bd c50c 9f3c
00000370: e707 4ebe a863 7fbd 926a abbd dea4 823e
00000380: b581 943d ed8d d3bd 0f3f ac3c ef06 ce3d
00000390: 4f10 2ebd 8927 95bd 2f7b aa3d 7c6f 3bbd
000003a0: abea 54bd 49da 51be a8c1 813d b37b 173e
000003b0: 95fe da3b 9cc9 e43d 7ce2 c53d 9cd5 af3c
000003c0: 5f31 cf3d 4d4f e83d 7d49 b43c 7071 1ebd
000003d0: 4bf7 343e 4d1a cf3c c33e 753e 1a94 0dbd
000003e0: d530 79be 41d3 803d a3e3 0cbc 4d38 36bd
000003f0: 61cd 03bd 6b08 ac3d 3c0c 1dbe 8128 42bd

hidden_layers_c.3.fc.1.weight f4 [32]
0.9909578 1.0899165 1.056447 1.0588071 0.95190895 0.99876654 1.0168417 1.0202742
1.0074364 0.96295846 0.9603053 0.9833152 1.0274825 1.0599122 1.0494113 0.94123465
1.0050548 1.0183549 1.1040465 0.9141681 1.0888631 0.9510424 1.0499761 0.97078675
1.021296 0.9131217 0.98834276 1.1172543 1.1540631 1.0305271 1.0812588 0.9913719
00000000: 69af 7d3f 6282 8b3f a839 873f fe86 873f
00000010: 4eb0 733f 2aaf 7f3f de27 823f 5898 823f
00000020: adf3 803f 7284 763f 91d6 753f 8cba 7b3f
00000030: 8c84 833f 34ab 873f 1c53 863f c1f4 703f
00000040: a3a5 803f 7459 823f 6551 8d3f ec06 6a3f
00000050: de5f 8b3f 8477 733f 9e65 863f 7b85 783f
00000060: d4b9 823f 58c2 693f 0804 7d3f 3002 8f3f
00000070: 57b8 933f 50e8 833f b066 8a3f 8dca 7d3f
