density_functional_approximation_dm21/checkpoints/NN_PBE/state_dict.pth (torch, 51735 bytes, 44 tensors)

hidden_layers_x.0.weight f4 [32, 5]
000000 25 84 4f 11 62 bb 12 11 b9 1d e3 10 5e c9 32 11
       1.6370141e-28 1.1575111e-28 8.958151e-29 1.4103775e-28
000010 dc e0 97 10 6c b0 93 bc dd 1a 0a 3d 3a 62 4c bc
       5.990545e-29 -0.01802846 0.033717025 -0.012474591
000020 61 d9 b0 bc 44 fd 11 bc 34 47 75 b0 a4 a3 6c b0
       -0.02158803 -0.008910481 -8.9231667e-10 -8.6088847e-10
000030 c9 53 76 b0 ab fb 82 b0 16 f6 81 b0 7a c2 95 bc
       -8.9613345e-10 -9.530273e-10 -9.455927e-10 -0.01828121
000040 02 73 0b 3d 1f 59 4e bc fb 84 b3 bc e5 81 0c bc
       0.034045227 -0.01259449 -0.021913996 -0.008575891
000050 4d 73 8f bc b5 30 07 3d 7c 36 45 bc b9 df b0 bc
       -0.017511034 0.033005435 -0.012036916 -0.021591054
000060 5c 3f 0f bc 32 c9 8a bc 97 62 08 3d e5 8d 50 bc
       -0.008743133 -0.01694164 0.033297148 -0.012729143
000070 8f 3b ac bc bd cc 28 bc 18 d3 90 3c 03 80 0a bd
       -0.021024494 -0.01030272 0.017678782 -0.033813488
000080 15 4c 4f 3c 77 3c af 3c 00 0b 1c 3c c4 f4 8e b1
       0.012652417 0.021391137 0.009524107 -4.1605706e-09
000090 6b 29 8d b1 24 6a 8a b1 fb dc 93 b1 fa 91 8e b1
       -4.1083488e-09 -4.0283954e-09 -4.3033856e-09 -4.1493395e-09
0000a0 8b 81 8f bc fa 3a 0a 3d 58 83 4f bc 7a 97 ae bc
       -0.017517826 0.03374765 -0.012665592 -0.021312464
0000b0 c9 f4 1f bc 7e d6 93 bc af 32 0b 3d 18 e4 4e bc
       -0.009762951 -0.018046614 0.033983883 -0.012627624
0000c0 90 8c b0 bc e3 a1 12 bc fc 10 ab 2b 2b 53 a0 2d
       -0.0215514 -0.00894973 1.2154995e-12 1.8226828e-11
0000d0 e6 6c c7 ac e1 48 1f 2d 16 0a 46 2c b8 77 93 3c
       -5.6680103e-12 9.054286e-12 2.8143091e-12 0.018001422
0000e0 78 d4 0a bd 37 c6 4b 3c 9b 3c b4 3c 8d ee 12 3c
       -0.033894032 0.012437395 0.022001555 0.008968008
0000f0 54 92 91 bc 89 0f 0b 3d 10 55 4f bc b9 00 b0 bc
       -0.01776997 0.033950362 -0.012654558 -0.02148472
000100 4e 7d 18 bc 32 f3 fa ba 91 3e 13 bb 47 22 e3 ba
       -0.009307219 -0.0019145964 -0.0022467712 -0.0017328941
000110 68 ac 0d bb 6f 28 03 bb 25 e2 8e 3c 6a be 08 bd
       -0.0021617655 -0.0020013114 0.017441818 -0.033384718
000120 93 8b 4a 3c 9c 0a af 3c ac 01 1a 3c b8 0b d7 39
       0.012362379 0.021367364 0.009399813 0.00041016727
000130 d5 ae 5c 39 e2 ff ed 38 e5 44 a2 39 15 5f 84 38
       0.00021045965 0.000113487025 0.00030950378 6.311961e-05
000140 d1 54 27 bb d2 40 91 bb 74 f6 38 bb 0e e5 31 bb
       -0.0025532732 -0.004432776 -0.002822307 -0.0027144584
000150 bd a6 4a bb 54 35 8f 3c f3 05 09 bd 07 bf 4e 3c
       -0.0030922138 0.017481484 -0.03345294 0.012618787
000160 21 5e ae 3c 9b 85 1e 3c 33 0c 92 bc 24 00 09 3d
       0.021285119 0.009675409 -0.017828083 0.0334474
000170 f7 a6 4c bc 10 9a ae bc 42 41 11 bc 76 6d 7b 3c
       -0.012490979 -0.021313697 -0.008865656 0.015345922
000180 33 95 f7 bc 07 ef 37 3c c8 ca a4 3c 36 cf 2d 3c
       -0.03022251 0.011226422 0.020116225 0.010608485
000190 b3 95 98 3c 35 02 0c bd f0 2e 50 3c 19 c2 b1 3c
       0.01862607 -0.034181792 0.012706503 0.021698998
0001a0 8a c8 06 3c a0 25 8c 3c bb e6 05 bd 65 01 47 3c
       0.008226523 0.017107785 -0.032690745 0.012146329
0001b0 40 58 ae 3c 3c f5 1a 3c 1f 84 97 bc 11 ef 0b 3d
       0.021282315 0.0094578825 -0.018495617 0.03416354
0001c0 96 64 4d bc 76 0b b4 bc 51 9a 06 bc bf b7 91 bc
       -0.012536189 -0.021978121 -0.008215503 -0.017787812
0001d0 3d aa 0a 3d 7c 34 4e bc 2a 79 b0 bc ef a4 16 bc
       0.033853758 -0.012585755 -0.02154215 -0.009194597
0001e0 a3 37 95 bc 04 50 0b 3d e5 19 4e bc 04 7a b2 bc
       -0.018215006 0.034011856 -0.012579416 -0.021786697
0001f0 de 56 0f bc 32 87 95 3c 5b 11 0b bd 65 a0 4e 3c
       -0.008748738 0.018252943 -0.0339521 0.012611483
000200 4a 91 b2 3c fb 9f 0d 3c 18 2e aa 3c 88 be 0e bd
       0.021797795 0.008644099 0.020773932 -0.034849674
000210 d0 51 26 3c 06 bc 5e 3c 6e 2a 35 bb 75 51 93 3c
       0.010151342 0.013594633 -0.0027643698 0.017983178
000220 c9 0e 0a bd 2b ed 4b 3c b8 f0 b1 3c 02 52 0f 3c
       -0.033705506 0.012446682 0.021721229 0.0087475795
000230 83 ce 8e 39 20 02 0e 3a 49 f3 e8 39 f0 68 ba 39
       0.00027238214 0.0005417187 0.0004443175 0.0003555487
000240 50 e9 00 3a 77 71 66 36 86 f8 0c 36 03 e2 65 36
       0.0004917579 3.4338716e-06 2.1006285e-06 3.4255215e-06
000250 4c 25 29 36 a0 62 39 36 a9 2e 92 bc 0e ac 08 3d
       2.5204672e-06 2.7624556e-06 -0.017844515 0.03336721
000260 68 09 4a bc 78 2e b1 bc 6f 6a 11 bc 85 02 8a bc
       -0.012331344 -0.021628603 -0.008875473 -0.016846905
000270 4f 84 06 3d f0 b0 46 bc 69 2b ae bc 83 6c 22 bc
       0.032841023 -0.012127146 -0.021260934 -0.0099135665

hidden_layers_x.1.weight f4 [32]
000000 20 4a 67 0f b4 fe 4b bd 19 ad 38 32 de 4d 4d bd
       1.1403455e-29 -0.04980345 1.07495675e-08 -0.050123088
000010 5e ad 43 bd 6a 6a 4a bd e2 3b 4e 3d 83 f8 ef b1
       -0.047772758 -0.04941789 0.050350077 -6.984068e-09
000020 5c 92 4e bd 47 d7 4f bd 0e 68 87 ac 6f 3a 4d 3d
       -0.050432548 -0.050742414 -3.848483e-12 0.050104555
000030 ff 5d 4f bd 64 89 70 ba 41 e5 4a 3d 0c 48 09 3a
       -0.05062675 -0.0009175746 0.04953504 0.0005236871
000040 ff e5 1f bb 43 c6 4d 3d 69 b4 4b bd 23 a0 36 3d
       -0.0024398563 0.050237905 -0.0497326 0.044586312
000050 1a 7c 50 3d a7 04 44 3d 20 18 4f bd 85 7a 4e bd
       0.050899602 0.047856 -0.050560117 -0.050409812
000060 5e 0a 4f bd 6d 4d 50 3d 40 eb 87 bd 96 35 4b 3d
       -0.050546996 0.05085509 -0.06636667 0.04961165
000070 d3 5d bb b8 3d 67 2b b8 5a a0 49 bd 72 14 44 bd
       -8.934331e-05 -4.0865725e-05 -0.04922519 -0.04787106

hidden_layers_x.1.bias f4 [32]
000000 24 89 4d b1 27 f1 62 39 da 24 ac b7 9f c0 29 39
       -2.9909382e-09 0.00021642876 -2.0521158e-05 0.00016188853
000010 4a 83 00 bb cb 52 77 ba 13 b5 53 39 44 78 93 b7
       -0.0019609504 -0.00094346394 0.00020189983 -1.7579769e-05
000020 a8 5b 71 39 20 92 c2 39 f6 a7 54 b9 35 d1 ae 39
       0.00023017696 0.00037111435 -0.00020280466 0.00033343738
000030 ef 18 d7 ba fc 69 a0 bb 61 17 9e ba 6b 5c 1b bb
       -0.0016410629 -0.004895447 -0.0012061411 -0.0023706208
000040 d3 d9 aa 3a 18 7c da ba 89 19 aa 39 14 61 51 bb
       0.0013034887 -0.0016669063 0.00032443952 -0.0031948732
000050 ef 6d 94 ba 4f 12 c7 39 a3 0a cc ba 13 7a a9 ba
       -0.0011324267 0.0003796988 -0.0015567135 -0.0012930058
000060 bc 71 80 39 c8 33 69 39 69 16 ae 3d 55 da 92 39
       0.000244988 0.00022239902 0.08500368 0.0002800996
000070 64 2d 3b bb f1 77 3e bb a9 2f 8a 39 1d 8a 99 39
       -0.002856099 -0.002906319 0.0002635692 0.00029285336

hidden_layers_x.1.running_mean f4 [32]
000000 f1 51 41 10 d7 c5 61 ba 1f 4a 44 af 45 e8 60 ba
       3.8125664e-29 -0.0008612549 -1.7852429e-10 -0.0008579533
000010 1e 56 60 ba 07 35 69 ba c5 60 63 3a f7 3a 65 b0
       -0.00085577543 -0.00088961463 0.00086737826 -8.339351e-10
000020 52 ce 64 ba 1d 53 5f ba 74 93 1e ac 6e c3 64 3a
       -0.0008728254 -0.000851916 -2.2535003e-12 0.0008726631
000030 3d b6 60 ba ea 43 09 ba 8a 78 62 3a 13 6f 67 38
       -0.00085720775 -0.0005236255 0.00086391775 5.5178138e-05
000040 c4 8c 5a ba f7 2a 67 3a 40 86 5f ba e6 60 6f 3a
       -0.0008337016 0.0008818353 -0.000852678 0.00091315655
000050 65 47 5c 3a 18 13 67 3a 1c ef 5c ba 56 0f 61 ba
       0.00084029726 0.0008814796 -0.0008427964 -0.0008585354
000060 ec ff 60 ba ef 8a 61 3a 2c 65 6c b9 96 da 60 3a
       -0.0008583057 0.00086037716 -0.00022544403 0.0008577494
000070 8c 4f e7 38 31 e9 8c 35 c8 e7 63 ba 75 0a 67 ba
       0.00011029755 1.049868e-06 -0.0008693901 -0.0008813509

hidden_layers_x.1.running_var f4 [32]
000000 04 00 00 00 0c 60 c2 37 47 3d 18 21 4b 3a c3 37
       6e-45 2.3171327e-05 5.1580703e-19 2.3272956e-05
000010 f9 89 bc 37 f8 57 c7 37 73 60 c4 37 06 4f 33 23
       2.2475595e-05 2.3763612e-05 2.3409933e-05 9.720343e-18
000020 55 5b c5 37 e5 7f c1 37 c7 9f 88 1c b3 92 c5 37
       2.352676e-05 2.3066948e-05 9.041027e-22 2.3552542e-05
000030 73 6f c2 37 62 32 5b 36 7c da c0 37 bd dc 20 33
       2.31785e-05 3.266287e-06 2.2989923e-05 3.7453663e-08
000040 04 09 09 37 d1 48 c6 37 11 16 bf 37 9e 74 bc 37
       8.167935e-06 2.3637347e-05 2.277925e-05 2.246565e-05
000050 2d 37 c0 37 33 9b c1 37 bf 0c c0 37 49 35 c2 37
       2.2913877e-05 2.3079663e-05 2.2894119e-05 2.3151415e-05
000060 13 29 c3 37 79 88 c3 37 f6 e6 ad 36 b6 3a c1 37
       2.3264938e-05 2.3309361e-05 5.182689e-06 2.3034732e-05
000070 6c 92 1a 34 38 04 9f 2d 8c 68 c2 37 aa da c1 37
       1.4395636e-07 1.807808e-11 2.3175286e-05 2.3109216e-05

hidden_layers_x.4.fc.0.weight f4 [32, 32]
000000 b3 1d 01 a6 f8 aa ec 2b 20 27 61 2b 80 c6 fe 2b
       -4.4796116e-16 1.6816262e-12 7.9990355e-13 1.810288e-12
000010 50 80 df 2b 9e f6 40 2c 48 e8 a3 2b a7 4c b1 ac
       1.5880717e-12 2.7421741e-12 1.1646318e-12 -5.0391527e-12
000020 f3 03 c9 2b 0f 78 9a 2b 10 43 1d 2d 06 c1 c0 2b
       1.4283005e-12 1.0975681e-12 8.939308e-12 1.3695995e-12
000030 eb 71 5b 2c 2a fa 16 2a eb 84 f1 2b 04 97 b0 28
       3.118501e-12 1.340947e-13 1.7160972e-12 1.9605418e-14
000040 d8 82 7d 2a f4 0f 4f 2a 5e f3 ab 2c b6 f7 e9 ac
       2.251631e-13 1.8390828e-13 4.8871315e-12 -6.6497597e-12
000050 9e 86 ef 2b b9 d1 f3 2b c1 38 f2 2b ba bc ef 2b
       1.7019335e-12 1.7324398e-12 1.7210887e-12 1.7034354e-12
000060 1c fe 2f 2d 58 f5 eb 2b e8 7c 07 ac 1d c8 39 2c
       1.0004022e-11 1.6765851e-12 -1.925399e-12 2.6401166e-12
000070 29 25 aa 2d a5 32 58 27 ae 05 f2 2b bc 78 f2 ac
       1.9343265e-11 3.0003476e-15 1.7196711e-12 -6.891458e-12
000080 5c 05 8b b5 d9 fe 3e ba bc d9 0a 3b bd 8c 07 bb
       -1.0357867e-06 -0.00072859 0.0021186909 -0.0020683252
000090 ce 80 1b b9 6a 67 03 bb 04 20 1e 39 12 40 d3 3b
       -0.00014829935 -0.0020050653 0.00015079981 0.0064468468
0000a0 a0 83 32 39 32 d6 71 b8 68 a6 03 ba f5 1e 2a bb
       0.00017024437 -5.7658362e-05 -0.000502205 -0.0025958393
0000b0 d1 65 50 ba 45 82 d4 3a 10 42 79 39 67 54 3e 35
       -0.0007949742 0.001621314 0.000237711 7.090334e-07
0000c0 f4 10 30 37 14 82 89 b9 e7 50 4b bb 05 f6 2c ba
       1.0494365e-05 -0.00026227592 -0.0031023563 -0.0006597939
0000d0 ab 8f b3 38 fd ff bf 39 66 cf 0d 39 c6 3d 31 39
       8.5621454e-05 0.00036621085 0.0001352407 0.00016903048
0000e0 35 26 00 bb 1f df cc 38 21 43 8f ba cd ce 48 3b
       -0.0019554023 9.7690376e-05 -0.001093004 0.003064084
0000f0 12 ae b6 ba be 4e c7 3b 30 ec 7f 39 78 43 a1 3b
       -0.0013937375 0.006082385 0.00024406682 0.004921373
000100 9e 47 21 34 fc 18 0a 39 44 64 6d b7 b0 37 29 39
       1.5020348e-07 0.00013170013 -1.4149646e-05 0.00016137841
000110 38 e4 4d 38 f1 8a 94 b8 2c f3 12 39 2b 8d 20 ba
       4.9088354e-05 -7.08307e-05 0.00014014234 -0.00061245513
000120 56 ea 10 39 0b 00 16 39 5e 45 4b 39 9b fd 25 39
       0.00013820207 0.00014305131 0.0001938543 0.00015830102
000130 0b 7a 9c 39 c8 4c 99 39 68 5d 13 39 0a 2f 56 b5
       0.00029845568 0.0002923964 0.00014053809 -7.9789663e-07
000140 55 9d 35 38 5c 19 96 39 75 36 98 38 f4 47 ab 38
       4.330029e-05 0.00028629124 7.258068e-05 8.167318e-05
000150 7a db 0f 39 ec 6e 06 39 9c ff 11 39 bc 92 12 39
       0.00013719304 0.00012820557 0.000139235 0.00013978308
000160 73 82 6a b9 4b 1a 12 39 22 b8 49 b9 31 bb 7b 39
       -0.00022364575 0.0001393344 -0.00019237449 0.0002400696
000170 ad 0f 62 39 59 f2 80 34 37 1e 12 39 f6 28 eb 39
       0.00021558879 2.401819e-07 0.00013934901 0.0004485321
000180 d9 93 fc 32 45 c8 4a 3b 26 8e 75 bb 05 25 cb ba
       2.9403894e-08 0.0030942124 -0.003746876 -0.0015498704
000190 df 6f 85 39 9e bb 9f 3a 47 84 55 39 ca 4e fc 3b
       0.00025451087 0.0012186652 0.0002036254 0.007699822
0001a0 6d 11 7f 39 3f a7 53 ba f5 cb 8c b8 57 7c 41 bb
       0.00024325187 -0.0008073933 -6.71371e-05 -0.0029523575
0001b0 ba 69 a2 3a e7 92 ef bb 45 17 80 39 df fa 33 b3
       0.0012391128 -0.0073112133 0.000244314 -4.190485e-08
0001c0 f9 d8 0d b5 3e 9a 73 37 1c ca 9b ba 41 3d 6f 3a
       -5.284233e-07 1.4519841e-05 -0.0011885795 0.0009126254
0001d0 af 46 8c 39 47 be 54 39 6a ad 7b 39 04 cf 88 39
       0.00026755544 0.0002028878 0.00024001827 0.0002609418
0001e0 91 95 f8 3a a8 a5 7e 39 f0 b1 b3 b6 68 fc 09 ba
       0.0018965473 0.0002428504 -5.3553304e-06 -0.0005263747
0001f0 62 f9 22 38 e9 bf 2b 3c a0 04 75 39 9f 3f 91 bb
       3.8856066e-05 0.010482767 0.00023366744 -0.004432633
000200 99 63 36 35 4d ec 92 3b c8 93 51 bb c6 4b 34 3a
       6.7945217e-07 0.0044837357 -0.0031978954 0.0006877746
000210 fb 61 de 3a 82 d8 f3 3b b5 66 37 3a c5 95 8b ba
       0.0016966456 0.007441581 0.00069962005 -0.0010649493
000220 97 2d 34 3a 76 c5 49 3a 5d ae e2 b8 c0 40 2d 3a
       0.00068732485 0.00076969655 -0.000108089975 0.0006609075
000230 73 0b 12 3c 92 35 20 3c 8e 67 36 3a 9f e0 c2 b4
       0.0089138625 0.009778397 0.000695818 -3.629875e-07
000240 09 25 8b 3a 37 b7 29 bb 97 84 cd 3a 2d 03 82 3a
       0.0010615896 -0.0025896558 0.0015679774 0.0009919159
000250 a7 5d 2c 3a a8 b7 c6 3a 9b 17 2a 3a cd df 2a 3a
       0.00065752346 0.0015160935 0.0006488503 0.0006518334
000260 9a e4 0a 3b c3 86 27 3a c0 b5 16 b9 a2 d6 1c 3c
       0.0021193386 0.00063906255 -0.00014372822 0.009572657
000270 e8 c1 fd bb 88 e1 41 b6 27 dd 3b 3a f9 7f bf 3b
       -0.0077440627 -2.8890518e-06 0.0007166438 0.005844113
000280 48 a4 b9 34 1a 22 c9 b9 50 b9 00 bb ac d0 59 ba
       3.4578466e-07 -0.00038363115 -0.0019641705 -0.00083089876
000290 0d 2f f9 bb 2f e5 c4 3a 7c 4b a6 b9 18 eb e7 3b
       -0.007604486 0.0015021915 -0.00031718228 0.007077586
0002a0 40 53 93 b9 74 af e7 39 e8 30 9e bb 16 c2 74 ba
       -0.0002810005 0.00044190476 -0.0048276074 -0.00093367824
0002b0 6a 95 a4 ba 08 8f 27 3b 14 c3 ba b9 18 41 20 38
       -0.0012556736 0.002556743 -0.0003562203 3.8207596e-05
0002c0 b0 88 a2 b9 a2 d8 19 bb 75 51 60 bb 20 ca 39 bc
       -0.00031000888 -0.002347507 -0.003422824 -0.011339694
0002d0 bd ca be b9 d7 b1 7e ba a6 33 cc b9 ff 87 d0 b9
       -0.00036390676 -0.0009715831 -0.00038948393 -0.00039774177
0002e0 c2 02 d8 b8 42 61 e7 b9 ef c9 86 38 31 49 39 ba
       -0.00010300196 -0.00044132216 6.427231e-05 -0.00070680963
0002f0 20 b2 95 3c da 0a d4 ba 55 6b c0 b9 be b6 ad 3b
       0.018273413 -0.001617755 -0.00036701062 0.0053013256
000300 5d 38 d7 2f 01 5b 64 b6 ba 39 b2 35 87 f8 ab 36
       3.914832e-10 -3.4027619e-06 1.3278834e-06 5.1251295e-06
000310 bc 23 c2 b8 e9 fe f9 35 c8 1e 1a 36 a5 e8 8d 38
       -9.257297e-05 1.8626134e-06 2.2965705e-06 6.766737e-05
000320 43 f6 61 36 a7 5c 96 36 b7 19 be 38 4d c2 64 36
       3.3670956e-06 4.4811345e-06 9.064696e-05 3.4087745e-06
000330 e0 dc 46 38 4e 2e 0a 39 e1 7a ce 36 cf 3c f2 34
       4.7412585e-05 0.00013177955 6.1535834e-06 4.5120257e-07
000340 b8 c6 a2 35 22 0b df 37 92 54 be b8 84 07 20 38
       1.2127775e-06 2.6588856e-05 -9.0756585e-05 3.8153972e-05
000350 c0 27 dc 36 2b e1 06 37 67 3c 82 36 57 68 a6 36
       6.5611384e-06 8.039448e-06 3.8813337e-06 4.9593323e-06
000360 57 ef 69 b8 2d 15 cf 36 f9 dc d6 b6 94 4b e6 37
       -5.577443e-05 6.171546e-06 -6.4034216e-06 2.745333e-05
000370 4e 8e ea b9 64 17 a8 b6 ee 7d de 36 94 d6 94 38
       -0.00044737983 -5.009513e-06 6.6307757e-06 7.097158e-05
000380 ab fe 17 b6 64 89 fc bb 8b 49 c4 3a 2e e9 0a 3b
       -2.264899e-06 -0.007706808 0.0014975531 0.0021196115
000390 56 68 c8 ba 8b 0c 12 ba c3 b7 4b 3b 06 6b 6d bc
       -0.0015289884 -0.0005571327 0.0031084872 -0.014490848
0003a0 53 26 47 3b d0 6b 76 3b 37 5b 32 ba 7d 5d 1d 3b
       0.0030387833 0.0037600882 -0.0006803753 0.0024012022
0003b0 c2 0b 1b bb a6 2d 1c 3a 61 87 47 3b 47 4a 1a b7
       -0.0023658131 0.000595773 0.0030445682 -9.196409e-06
0003c0 a0 02 93 39 81 24 2f 3b 92 87 e4 3b 5a b4 a3 3b
       0.0002803998 0.002672464 0.006974169 0.004995865
0003d0 52 2e 40 3b f7 fb 5e 3b 2a 12 47 3b ce 66 46 3b
       0.0029324484 0.0034024694 0.0030375817 0.0030273679
0003e0 78 50 4f 3b e5 23 42 3b 3b 13 08 bb 47 c5 4a 3b
       0.0031633656 0.0029623446 -0.0020763415 0.003094034
0003f0 74 c1 de 3b ff a4 39 b9 53 ab 47 3b 95 0d 26 bc
       0.0067979638 -0.0001770444 0.0030467107 -0.010135074

hidden_layers_x.4.fc.1.weight f4 [32]
000000 48 b2 63 31 7c 3d 17 bc e2 0c e5 39 a9 9e d1 b9
       3.3134189e-09 -0.009230968 0.00043687882 -0.00039981797
000010 60 d7 a8 3b ba 8c aa 3b df 04 21 3a d0 6a db bb
       0.005152628 0.005204764 0.00061423884 -0.0066960827
000020 87 b6 1e 39 ac d7 10 3b c2 04 96 3b ad 68 87 3a
       0.00015136051 0.0022101207 0.004578204 0.0010330878
000030 0e 62 03 3c c2 47 0f ba d7 a1 68 ae dd 9a 3d 2f
       0.0080189835 -0.000546571 -5.2894435e-11 1.7244468e-10
000040 16 ac 21 af 0a da 36 3a d3 d1 09 3b e5 34 8e 39
       -1.4704002e-10 0.00069752394 0.0021029606 0.0002712376
000050 18 26 e2 2f 86 40 29 bb 23 1c 3a bb 9a c2 f1 3a
       4.1136228e-10 -0.0025825812 -0.0028398118 0.0018444837
000060 0d b3 14 3b 0e 04 4e a7 4f e5 00 35 28 6b ef 39
       0.002268973 -2.859044e-15 4.8017404e-07 0.0004566547
000070 53 02 a2 36 ec 36 f8 bb 94 e1 c4 b2 29 1e b1 ba
       4.828247e-06 -0.0075749066 -2.2919984e-08 -0.0013513017

hidden_layers_x.4.fc.1.bias f4 [32]
000000 11 36 14 b9 21 60 af bb 97 54 01 3a c8 5b 02 ba
       -0.00014134521 -0.0053520356 0.00049335643 -0.0004972783
000010 c3 5f f1 ba 17 2e f4 3b 10 ed b3 ba 13 28 19 3c
       -0.001841538 0.0074517834 -0.0013727266 0.009347933
000020 5d c7 13 b9 78 3b 51 ba d4 e9 ab 3b 31 2e b3 b9
       -0.00014093281 -0.0007981579 0.0052463803 -0.00034175956
000030 8b 50 83 3b a1 12 e0 3c 05 fd 49 bb 2b 83 a5 ba
       0.004007404 0.027352633 -0.0030820977 -0.0012627592
000040 66 52 f1 ba f9 75 4b 3b c7 1b 10 3c e4 c9 34 3c
       -0.0018411397 0.003104566 0.008795685 0.011034463
000050 60 d4 12 ba 61 6e 9f ba 81 d7 ec ba 08 a6 c4 ba
       -0.00056011043 -0.0012163633 -0.0018069596 -0.0015003094
000060 37 c7 43 3c 4f f5 0c bc 1d 33 2d bb 59 87 bd 3b
       0.011949352 -0.008603408 -0.002642817 0.005783957
000070 06 9d b2 3c 63 8f f9 b9 e2 e7 17 bb 9d d2 9b 3c
       0.02180339 -0.00047599812 -0.0023178984 0.019021327

hidden_layers_x.4.fc.1.running_mean f4 [32]
000000 78 9d bf 2a 22 1d c8 b5 59 47 2a 37 69 cc cc b8
       3.4037682e-13 -1.490964e-06 1.01494015e-05 -9.7655524e-05
000010 97 e6 ae 39 bd 68 35 39 67 e2 1b b6 23 f8 37 37
       0.0003335967 0.00017300523 -2.3228583e-06 1.0965424e-05
000020 77 4a b2 34 b5 1c 8d b9 ac c2 61 b9 b4 07 d9 b7
       3.3209264e-07 -0.00026915004 -0.00021530193 -2.5872003e-05
000030 ae dc 91 39 71 51 2a b9 a7 87 db ab dd 2a 2e 2f
       0.00027820974 -0.00016242803 -1.5598537e-12 1.5840436e-10
000040 3d 4d 7e ab 57 97 ce 38 83 c9 a0 b5 e8 fa 3b 38
       -9.0346117e-13 9.851035e-05 -1.1979577e-06 4.481795e-05
000050 8b e7 44 2d 1b 90 43 39 22 67 fa 36 5c a6 d2 b6
       1.1192723e-11 0.00018650333 7.462587e-06 -6.2778545e-06
000060 8d 0e f8 38 0c 0e ae a5 89 71 51 b3 fb 92 d9 b7
       0.00011828272 -3.0193707e-16 -4.8764864e-08 -2.5936859e-05
000070 12 5f 79 b8 6b 88 a2 37 12 6b 83 af e1 ca 60 b8
       -5.9454767e-05 1.937543e-05 -2.390484e-10 -5.3594707e-05

hidden_layers_x.4.fc.1.running_var f4 [32]
000000 60 03 2d 17 a9 a9 5a 32 06 98 5e 31 43 0c a3 32
       5.5903575e-25 1.2727846e-08 3.2391667e-09 1.8981273e-08
000010 de f6 60 35 ca ef 8c 34 54 ec 33 2e 96 ea f9 34
       8.380574e-07 2.6251502e-07 4.090979e-11 4.6550548e-07
000020 65 0a b6 2c e5 55 62 34 e2 9c 1c 35 b2 b9 c6 32
       5.173905e-12 2.1079138e-07 5.8342823e-07 2.3134678e-08
000030 08 46 b8 34 a3 60 f2 32 80 31 80 1b 5e 18 5e 21
       3.4323625e-07 2.8216453e-08 2.1207812e-22 7.5248775e-19
000040 65 d3 23 18 36 89 76 32 9c 8e 92 33 fc 0b 6f 32
       2.1173983e-24 1.4350283e-08 6.824595e-08 1.3914356e-08
000050 c2 a0 06 1b 2a 09 9d 34 a0 01 b2 2f 7d c6 2d 2e
       1.1136164e-22 2.9250197e-07 3.2379166e-10 3.951194e-11
000060 29 68 c7 33 f5 23 2b 0c 5d df 3a 27 f1 60 c4 32
       9.285606e-08 1.3184181e-31 2.593377e-15 2.2861487e-08
000070 7f 5a 39 31 d1 67 a6 31 81 61 89 23 5c 38 d4 32
       2.6972484e-09 4.8430384e-09 1.4894864e-17 2.4705678e-08

hidden_layers_x.5.fc.0.weight f4 [32, 32]
000000 f7 fd 05 1a fa a5 0b 1e 73 a3 48 1b eb ee aa 1e
       2.7708907e-23 7.392922e-21 1.6596426e-22 1.8098264e-20
000010 c1 a3 29 1e c3 61 64 a0 20 ef c5 1e 03 64 91 1c
       8.980649e-21 -1.9344698e-19 2.0957086e-20 9.621148e-22
000020 c4 04 a9 20 5b 6d 0c 1f 4f 74 2b 1e 0f 06 08 1f
       2.8632867e-19 2.973661e-20 9.076717e-21 2.8804132e-20
000030 b5 23 0c 9f 0a b4 81 20 1c a9 76 1e bd a4 14 1f
       -2.967569e-20 2.197259e-19 1.30581026e-20 3.1476487e-20
000040 c1 a5 6e 1f bc be b5 1c e3 f6 39 a0 44 fc ec 9f
       5.053557e-20 1.2026879e-21 -1.5751797e-19 -1.00367226e-19
000050 46 85 a7 1e df da b1 1f 42 59 12 1f 9d d3 bc 1e
       1.7736933e-20 7.532451e-20 3.0990535e-20 1.9992795e-20
000060 23 88 b0 1e 09 a4 ea 1e f1 58 d5 1e 20 3e cc 20
       1.869103e-20 2.4843557e-20 2.2589038e-20 3.4600055e-19
000070 9f 68 1b a7 ac 71 2e 9b 10 3c 0f 1f a9 2f ed 9d
       -2.1567286e-15 -1.4429672e-22 3.033111e-20 -6.2782657e-21
000080 56 43 6a b5 91 55 5d b7 91 ba 83 b1 77 5d af 36
       -8.726978e-07 -1.3192549e-05 -3.833812e-09 5.226287e-06
000090 4e b1 05 37 01 05 26 37 9c 84 62 b7 67 b1 1a b5
       7.9687e-06 9.895536e-06 -1.3501525e-05 -5.7627625e-07
0000a0 59 5d 29 b9 42 67 7a b7 e4 ba cd 35 6d 50 46 b7
       -0.0001615187 -1.4925203e-05 1.5328083e-06 -1.1820445e-05
0000b0 74 d6 f7 35 21 70 3a 38 15 04 71 b7 6c 4a 96 37
       1.8465348e-06 4.4450284e-05 -1.436567e-05 1.7916049e-05
0000c0 83 b1 67 b7 01 5a 97 b3 8f 0e b0 38 5c 9d d9 b7
       -1.3810003e-05 -7.047857e-08 8.395046e-05 -2.5941692e-05
0000d0 1a 56 d5 35 03 8a ed 35 0c 23 58 b7 a7 67 69 b7
       1.5894796e-06 1.7698043e-06 -1.2882763e-05 -1.3912016e-05
0000e0 ca cb 75 b7 86 d6 61 b7 c5 71 47 36 f1 7e 88 37
       -1.4650586e-05 -1.3460993e-05 2.9719533e-06 1.6271575e-05
0000f0 33 df 18 b6 96 f3 a0 32 a8 47 29 37 9a 98 6e b7
       -2.2779684e-06 1.8737222e-08 1.0089869e-05 -1.4221436e-05
000100 d2 c8 a0 24 20 ee da 29 85 88 23 a6 0c 07 cc 29
       6.972914e-17 9.722453e-14 -5.6737004e-16 9.060642e-14
000110 47 4d dd 29 35 19 e1 2a 47 d9 da 29 24 4f 28 26
       9.827777e-14 3.998552e-13 9.7188364e-14 5.8393964e-16
000120 a5 a5 dd aa 0b 98 dc 29 9b e1 18 a9 91 8c da 29
       -3.9372425e-13 9.796338e-14 -3.394646e-14 9.705529e-14
000130 53 0a ea 29 19 04 9d 29 df c0 da 29 89 5a aa a8
       1.03934785e-13 6.9729114e-14 9.7146026e-14 -1.8913055e-14
000140 44 ad 96 29 24 bb e5 29 48 9e 5d 2a 29 9c b7 2a
       6.691395e-14 1.02021066e-13 1.9683658e-13 3.2615688e-13
000150 fe 51 3a 28 ae ba 95 2b 07 52 d8 29 7e 00 dc 29
       1.0342853e-14 1.0638901e-12 9.6065564e-14 9.770048e-14
000160 07 c7 db 29 3e f1 dc 29 ab 8e 18 aa f0 01 5e ab
       9.7600794e-14 9.8118115e-14 -1.354981e-13 -7.887293e-13
000170 a9 e1 92 2a d5 7e 97 a2 c7 9a 12 2a 01 30 0c 2a
       2.6091393e-13 -4.106292e-18 1.3021104e-13 1.2451153e-13
000180 51 b7 07 33 7e 09 c2 36 b9 4f a8 33 cc be a7 b9
       3.1598862e-08 5.7827556e-06 7.837611e-08 -0.00031994877
000190 9c b1 10 b7 ce 96 b0 b9 2b ff be 36 9e 2f f3 b3
       -8.624422e-06 -0.00033681694 5.6921467e-06 -1.1324231e-07
0001a0 78 a5 bf b8 f6 21 b8 36 2f 35 9e b5 09 2d 8d 36
       -9.138411e-05 5.487581e-06 -1.1787396e-06 4.2073702e-06
0001b0 b7 18 58 b9 b9 73 91 b8 e8 4b bf 36 c2 11 ab 37
       -0.00020608572 -6.935694e-05 5.70108e-06 2.0393058e-05
0001c0 f8 9a 96 3a 71 80 d6 38 e5 99 59 b8 1a 12 99 b9
       0.0011490276 0.00010228239 -5.1880157e-05 -0.0002919592
0001d0 d8 92 b1 3a 2c 74 81 3b bc c1 c2 36 01 08 a6 36
       0.0013547791 0.0039506163 5.804204e-06 4.9481173e-06
0001e0 02 a5 ba 36 37 3b bc 36 71 c2 bd b6 ec 60 08 b8
       5.5624414e-06 5.60973e-06 -5.655275e-06 -3.2515192e-05
0001f0 58 09 97 35 e2 6e d9 32 e2 53 12 3b c3 1d b0 36
       1.1253096e-06 2.5312549e-08 0.002232783 5.2486735e-06
000200 58 71 8e 33 d8 05 8e 38 4e 5c 6f 34 c7 3e a2 38
       6.6330074e-08 6.772176e-05 2.229219e-07 7.736455e-05
000210 91 a9 45 b7 71 aa 5a ba e1 9b 8f 38 0e f4 42 b7
       -1.1781595e-05 -0.0008341438 6.847806e-05 -1.16201245e-05
000220 1f e6 93 38 9e 38 52 38 af ba ba 35 25 9e 89 38
       7.0523696e-05 5.012063e-05 1.3912412e-06 6.562126e-05
000230 86 e3 92 b9 9d 8d 96 3a be f7 8c 38 60 6d a3 b8
       -0.00028016808 0.0011486296 6.721866e-05 -7.792818e-05
000240 60 d5 c4 b9 f3 6b 10 39 56 03 52 ba ad 08 9f ba
       -0.0003754301 0.00013773124 -0.00080113614 -0.0012133323
000250 4b e1 3f 3b 1e 82 c6 ba 25 b3 89 38 49 29 85 38
       0.0029278572 -0.0015144979 6.566037e-05 6.349624e-05
000260 d8 f4 8c 38 f8 0b 91 38 25 91 6a b8 ee 5d cc 39
       6.721326e-05 6.916368e-05 -5.5925124e-05 0.00038979895
000270 0c 46 9b 36 91 02 f0 33 ce ed 45 3b da 9c 87 38
       4.6275145e-06 1.1176338e-07 0.0030201557 6.4665175e-05
000280 18 3c 62 36 e2 d3 8e 3a a5 97 5a 39 f3 5b 1f 3b
       3.3711603e-06 0.0010896886 0.00020846592 0.002431628
000290 3b c0 35 3a d5 07 7e b9 a0 e4 8a 3a 51 b5 95 b7
       0.00069332466 -0.00024226245 0.00105967 -1.7846616e-05
0002a0 fe bc 19 bc 2e 8a 51 3a 7b 82 06 b8 22 0e a6 3a
       -0.009383438 0.00079933077 -3.206961e-05 0.0012669007
0002b0 b2 ef 0a bc 6a 56 0b 3b 54 a6 89 3a 87 77 df 3a
       -0.008479999 0.0021261224 0.001050184 0.0017049172
0002c0 e0 d4 db 3b 2d aa d0 ba 57 da a0 bb e7 5b fe bb
       0.0067087263 -0.0015919857 -0.0049088406 -0.0077624205
0002d0 ff a1 ef bb 2d 11 2b bb 58 c1 8f 3a 27 aa 86 3a
       -0.0073130126 -0.0026102767 0.0010967655 0.0010274098
0002e0 64 b8 87 3a 75 6f 90 3a e6 44 75 ba 67 82 e6 bb
       0.0010354635 0.0011019545 -0.0009356275 -0.007034588
0002f0 8c 7e 5b 39 ca 02 0b 36 1a bc 60 bc fc c9 62 3a
       0.0002093261 2.0714238e-06 -0.013716722 0.0008651314
000300 d8 1a f5 2b 08 10 3f 30 9b 1a fe ac ee 5a d9 ac
       1.7415748e-12 6.9508177e-10 -7.222068e-12 -6.177606e-12
000310 4a 42 ff 2f be ef 4a 30 83 8b 3e 30 61 5a f2 ab
       4.643133e-10 7.3827866e-10 6.9319855e-10 -1.7220219e-12
000320 d0 f6 4f b2 58 9f 3f 30 14 23 a7 2d 45 55 42 30
       -1.21051045e-08 6.9711836e-10 1.900128e-11 7.0697964e-10
000330 c1 58 48 af 7b 81 be 31 97 a6 39 30 79 7d b7 af
       -1.8221426e-10 5.544448e-09 6.7539346e-10 -3.337666e-10
000340 bf 5f ad b0 10 02 9b 2f 1b 7a 23 b2 e8 10 b5 30
       -1.2614619e-09 2.81958e-10 -9.515612e-09 1.3174288e-09
000350 1d bf be b0 29 43 08 b1 b3 49 44 30 00 d6 47 30
       -1.3878637e-09 -1.982878e-09 7.140912e-10 7.269989e-10
000360 ec fc 47 30 d4 6e 45 30 bf 04 6f ae 40 8a a7 b1
       7.27552e-10 7.182568e-10 -5.4346524e-11 -4.876057e-09
000370 95 07 3f 2d 41 95 1e ab f8 0c 1f 31 dc 43 1a 30
       1.08587766e-11 -5.634001e-13 2.3144917e-09 5.612131e-10
000380 aa 69 84 a2 f0 e9 d5 9f bc db fe 1a f9 cf d3 9f
       -3.5890548e-18 -9.0596026e-20 1.0540694e-22 -8.970604e-20
000390 6b f3 29 a0 6a b6 d5 a0 54 de 30 9f 24 3a 49 1c
       -1.4395397e-19 -3.6204315e-19 -3.7453355e-20 6.6580466e-22
0003a0 d3 ba fd 21 a7 26 f1 1f a8 7a a0 9e 61 f6 15 1f
       1.7193399e-18 1.02131415e-19 -1.6991388e-20 3.1755777e-20
0003b0 e2 f5 00 20 31 33 90 a1 2d fb 0f a0 bb 2e ea 9f
       1.0923378e-19 -9.77137e-19 -1.2195678e-19 -9.9180164e-20
0003c0 8a 0b 8f 21 4c 34 2c 1f 39 f8 66 a1 c5 b5 c1 20
       9.693111e-19 3.6465676e-20 -7.825555e-19 3.2815757e-19
0003d0 0f 91 0d 21 05 23 47 21 57 af 4b 1e 5e a3 2c a0
       4.796464e-19 6.747017e-19 1.078299e-20 -1.462302e-19
0003e0 76 dc f0 9e 0d 3d cb 1e 41 f0 00 a0 de 63 06 20
       -2.5502169e-20 2.1518711e-20 -1.0921515e-19 1.1383285e-19
0003f0 83 1a a6 22 d8 0a 55 9a a0 3c 63 a1 40 ea 89 9f
       4.502246e-18 -4.4056127e-23 -7.699083e-19 -5.840929e-20

hidden_layers_x.5.fc.1.weight f4 [32]
000000 e2 89 14 a3 df 9d 57 38 12 dd 6a 2e 72 6d 65 ba
       -8.052294e-18 5.1407023e-05 5.340179e-11 -0.00087519654
000010 3d 26 8a bb 91 ea 60 ba d3 ad 33 32 78 8d a3 a1
       -0.004215984 -0.0008579875 1.0458694e-08 -1.1082756e-18
000020 5d 2c 6f 3b 3b ac f1 3a ba 00 00 00 ef 19 41 3a
       0.0036494948 0.001843817 2.6e-43 0.000736623
000030 bf 88 24 bb 03 cd ae 3a 7d 47 86 ac 2f cf bf 3a
       -0.002510592 0.0013336245 -3.816446e-12 0.0014633889
000040 6e 59 ed b6 ff 99 1d 3a 7d cf a3 ba a5 b2 fe 3a
       -7.0735614e-06 0.0006012022 -0.0012497749 0.0019431902
000050 ad 8e cb 3a ea a6 c7 38 a9 e0 73 39 cd bb e1 b7
       0.0015530192 9.5201496e-05 0.00023257978 -2.6909542e-05
000060 0c b0 34 2d da 7e 86 39 68 2f 05 31 2c 39 26 bb
       1.0270906e-11 0.00025652983 1.9380995e-09 -0.0025363667
000070 75 b2 ee b8 61 01 00 80 90 e7 ec 3a ad 38 f7 a3
       -0.000113819646 -4.95e-43 0.0018074382 -2.6803797e-17

hidden_layers_x.5.fc.1.bias f4 [32]
000000 c1 fb a6 b8 f1 4b 3a bb 3b 92 1a ba e8 05 a4 b9
       -7.96239e-05 -0.0028426612 -0.0005896424 -0.00031284918
000010 e0 fd 79 ba 38 e4 68 3c 78 d5 e1 ba bc 11 1d bb
       -0.00095364265 0.014214568 -0.0017229756 -0.002396687
000020 52 7c 5f 3c 2e af ab ba dd 55 e3 ba eb 36 06 ba
       0.01364048 -0.0013098472 -0.0017344315 -0.0005119878
000030 c2 22 f3 b9 91 c7 a0 3c c3 d1 19 bb a5 87 1f 3b
       -0.00046374468 0.01962641 -0.0023470975 0.0024342325
000040 17 19 e5 3c 91 91 e0 b9 f8 33 0e 3c 88 8f 47 3c
       0.027966065 -0.00042833065 0.0086793825 0.012180217
000050 3a ec f4 3b e6 0b 73 3c 6c c9 5e bb 2d 4c 6a bb
       0.0074744495 0.01483438 -0.0033994569 -0.003575097
000060 c3 c2 18 bb 5f d1 1f bb 09 6b 2c bb 18 68 6f 3c
       -0.0023309446 -0.002438627 -0.0026308915 0.01461222
000070 be b6 64 bb c4 4a 98 b8 d4 89 31 3c 69 4b fc bb
       -0.0034898962 -7.261851e-05 0.010836083 -0.0076994193

hidden_layers_x.5.fc.1.running_mean f4 [32]
000000 4c 59 b2 21 a1 22 e2 b3 3d 88 c1 28 d0 ba 9a 38
       1.2085386e-18 -1.0530244e-07 2.1486388e-14 7.378089e-05
000010 ed ae 94 37 d7 c9 de b9 fd 75 89 2c ec d8 f5 9d
       1.7724431e-05 -0.00042493522 3.9068735e-12 -6.507525e-21
000020 bb 4c 3d 3a 12 86 3c 37 11 00 00 00 31 46 04 37
       0.00072212116 1.1236889e-05 2.4e-44 7.884156e-06
000030 56 ad 9d 38 6b 05 e1 b9 07 12 1e aa 13 99 21 39
       7.51863e-05 -0.0004291938 -1.4039474e-13 0.00015411181
000040 d8 6b 77 34 f7 8a 47 38 6f d2 63 37 79 09 00 39
       2.3042901e-07 4.757472e-05 1.357925e-05 0.0001221056
000050 ff 4d 78 39 c4 c1 d3 b8 1b 1f 2a 36 24 30 48 b3
       0.00023680179 -0.00010097356 2.535008e-06 -4.6609912e-08
000060 63 cf 0c aa 54 4c 00 37 30 f5 75 2d 04 f8 b9 b9
       -1.250645e-13 7.647166e-06 1.398108e-11 -0.00035470736
000070 f6 75 0c 35 22 00 00 80 71 44 e3 b8 bb 0b c5 a1
       5.232572e-07 -4.8e-44 -0.00010836952 -1.3352344e-18

hidden_layers_x.5.fc.1.running_var f4 [32]
000000 0d 4c 75 0a 84 d5 6b 2d b9 0f 1f 13 c3 b1 82 32
       1.18106245e-32 1.3405613e-11 2.0076373e-27 1.5214829e-08
000010 23 2c 91 31 fb a2 59 35 f4 e9 7e 1f 4a e4 32 00
       4.225073e-09 8.107597e-07 5.3980114e-20 4.67367e-39
000020 d9 c0 87 35 04 31 37 30 04 00 00 00 21 6d d6 2e
       1.011441e-06 6.664467e-10 6e-45 9.7509785e-11
000030 b3 70 c1 31 11 8c 87 34 54 42 2b 16 65 8d 80 34
       5.6298517e-09 2.524762e-07 1.38342e-25 2.3944736e-07
000040 34 a1 8f 2b b2 10 01 32 34 a5 bb 34 d8 dc 38 34
       1.0205504e-12 7.512584e-09 3.4951665e-07 1.7216678e-07
000050 01 9a a9 34 11 a8 c3 32 b4 cd 49 2e ab 31 49 2b
       3.1590756e-07 2.2777416e-08 4.588481e-11 7.1478473e-13
000060 4e 97 94 15 ff c3 53 2f a1 af 25 1d c4 41 bd 34
       6.001544e-26 1.925997e-10 2.1928366e-21 3.5251844e-07
000070 90 19 6c 2b 04 00 00 00 69 51 7c 34 c4 78 50 04
       8.387952e-13 6e-45 2.3498946e-07 2.4505735e-36

hidden_layers_x.6.fc.0.weight f4 [32, 32]
000000 90 51 89 1d 5b 33 68 a2 f9 30 43 1f 9b 5e 07 23
       3.634793e-21 -3.146905e-18 4.1333365e-20 7.338398e-18
000010 69 08 b7 22 dc 55 52 a4 45 f8 01 a2 33 94 32 9f
       4.9611154e-18 -4.5609217e-17 -1.7614193e-18 -3.7815554e-20
000020 8c da ee a1 52 2b 86 a1 cd f8 f6 29 c3 9d 31 a2
       -1.6185356e-18 -9.09166e-19 1.09677546e-13 -2.4071491e-18
000030 85 2d d2 a1 3d 26 9f a2 9b 6f 8d a1 a4 85 92 23
       -1.4242202e-18 -4.3137523e-18 -9.584073e-19 1.588595e-17
000040 5d 22 4d a2 68 2c 1b a4 37 f2 51 a3 d6 f2 b8 a1
       -2.7800872e-18 -3.364788e-17 -1.1381204e-17 -1.2532603e-18
000050 82 85 8a 22 70 5d 21 a4 93 66 6a a3 52 57 57 a0
       3.754633e-18 -3.4990455e-17 -1.2706886e-17 -1.82401e-19
000060 c7 a8 63 a2 40 78 85 a2 42 87 de a1 de 07 46 23
       -3.0853587e-18 -3.617704e-18 -1.5079108e-18 1.07352674e-17
000070 c6 62 07 23 84 b1 f5 9d 35 07 2b a2 81 f7 49 22
       7.339281e-18 -6.5034507e-21 -2.3178637e-18 2.7371607e-18
000080 1d 60 b8 32 64 0b b7 b3 2d b5 73 b3 90 c2 16 b8
       2.1464126e-08 -8.5236735e-08 -5.6742625e-08 -3.5943987e-05
000090 9f 40 37 34 f4 28 96 b8 57 b9 64 b4 ce a2 67 b3
       1.7066712e-07 -7.1601855e-05 -2.1301581e-07 -5.393195e-08
0000a0 f0 9a 53 34 7b 66 d1 33 a1 7e a0 b6 3f 8f e7 b2
       1.9707272e-07 9.750962e-08 -4.783113e-06 -2.695708e-08
0000b0 bd d7 ea 34 5b 38 d4 b7 be 09 a3 34 3a 16 aa b7
       4.3742867e-07 -2.5298612e-05 3.0368204e-07 -2.027593e-05
0000c0 f7 d0 aa b7 45 ef 89 38 2d 22 92 36 c9 13 04 35
       -2.0362886e-05 6.5772365e-05 4.3551177e-06 4.9202623e-07
0000d0 2a f7 05 b4 65 dc 17 38 4e 64 11 38 dd a6 ad 33
       -1.2476508e-07 3.6206464e-05 3.466411e-05 8.0862925e-08
0000e0 ba 56 02 b4 d8 75 06 35 d8 a9 3b b3 83 2d 48 b5
       -1.2138744e-07 5.0090375e-07 -4.3693802e-08 -7.4572034e-07
0000f0 08 7e 8e b6 c6 34 e0 b1 56 ab f3 34 de 4d 43 35
       -4.2466017e-06 -6.5252577e-09 4.538694e-07 7.275647e-07
000100 db 35 58 a8 6d 18 2e 2a 64 f7 08 a7 c5 d5 a0 2c
       -1.2002087e-14 1.5462779e-13 -1.9007902e-15 4.5712067e-12
000110 e2 ce 2d 2a 26 10 70 2c 5a 68 1e 2a 6b 11 24 29
       1.5437264e-13 3.4115016e-12 1.4069423e-13 3.6430423e-14
000120 e4 0f 49 2a d3 48 15 2a 04 a4 15 32 78 5d 33 2a
       1.78579e-13 1.3259124e-13 8.710234e-09 1.5930822e-13
000130 44 94 0f 2a 8a e6 c5 ac 16 1c 36 2a dc 98 50 2d
       1.2752391e-13 -5.6246717e-12 1.6174592e-13 1.1857373e-11
000140 77 6d b8 2b 91 54 15 2d 56 00 44 ac 9b 9e 06 2a
       1.3104369e-12 8.488447e-12 -2.7853462e-12 1.1956618e-13
000150 11 eb 33 2a 11 3f cc 2d 45 0d 4c ac d7 96 3d 2a
       1.5979949e-13 2.3220122e-11 -2.899751e-12 1.6838905e-13
000160 db 7f 5f 2a 28 e0 6d 2a 12 c7 74 29 d1 aa 28 ab
       1.9850738e-13 2.1127598e-13 5.435155e-14 -5.9922645e-13
000170 1b 87 fe 30 d0 bf 3e a7 ec 93 d7 29 69 81 06 2a
       1.8519332e-09 -2.6471779e-15 9.5735784e-14 1.1946489e-13
000180 12 e5 3e 36 be 8b 26 38 24 54 9a 36 72 e9 f3 ba
       2.8445543e-06 3.970763e-05 4.599353e-06 -0.0018609001
000190 9a a4 08 38 d7 bc cd 3a 0c ca 34 38 db dc 05 b7
       3.2578224e-05 0.0015696537 4.3103515e-05 -7.97884e-06
0001a0 82 99 b4 ba b9 71 9e 37 c7 84 86 3b b8 64 0c 38
       -0.0013778659 1.8888024e-05 0.0041051838 3.3472403e-05
0001b0 20 52 13 38 66 41 56 3b 45 19 20 38 ea d5 fc ba
       3.5124016e-05 0.003269279 3.8170507e-05 -0.0019289826
0001c0 a3 06 dc b9 5a da 26 3b b1 3d be ba f7 c6 16 38
       -0.00041966615 0.0025459738 -0.0014514235 3.5948087e-05
0001d0 fc 80 1d 38 b3 06 e2 b9 26 51 21 3b 07 dc 7b 38
       3.7551843e-05 -0.0004311107 0.0024615019 6.004798e-05
0001e0 75 7b 6a 38 4b a1 72 38 46 23 ae b7 03 b8 bb 3a
       5.5904926e-05 5.7847512e-05 -2.0758842e-05 0.0014321808
0001f0 7b 6e 22 3b e4 16 0c b7 98 7d 7d 38 8c 31 1b 38
       0.002478509 -8.34998e-06 6.043687e-05 3.7001024e-05
000200 cc f6 47 2b 63 11 62 2d 58 a3 a9 2a a7 f7 da ae
       7.10415e-13 1.2850473e-11 3.0133773e-13 -9.957484e-11
000210 89 5a b8 2b 3f 94 f7 2f 06 b8 46 2c cb 4d 1e ab
       1.3099115e-12 4.5034373e-10 2.8239646e-12 -5.6240836e-13
000220 20 fa 15 2c bf ab 51 2d 87 ce 92 2e 36 10 01 2d
       2.131302e-12 1.191841e-11 6.675998e-11 7.336401e-12
000230 ca a8 fb 2b 6a ac 13 2f 4b 6f 86 2d 07 b3 98 af
       1.7881471e-12 1.3430826e-10 1.528346e-11 -2.7775846e-10
000240 b6 24 3c ab 6d 45 5c b0 96 97 7b 30 c7 a9 17 2d
       -6.6841964e-13 -8.0134194e-10 9.1528685e-10 8.621054e-12
000250 5b 31 13 2d 54 a0 ae 2f 6f 1f 79 2e 27 c2 10 2d
       8.366942e-12 3.1764336e-10 5.6643964e-11 8.228563e-12
000260 63 2d 28 2d df 9a 05 2c fc 07 00 2a b0 43 e8 ae
       9.559772e-12 1.8986407e-12 1.1371454e-13 -1.0562162e-10
000270 99 fd b4 b1 8d 67 ce 29 47 79 22 2d ac e7 65 2d
       -5.26752e-09 9.166201e-14 9.235563e-12 1.3068584e-11
000280 a3 ba a2 36 8b d9 90 ba 67 7c 44 36 d6 30 c4 ba
       4.8497036e-06 -0.0011051161 2.9278688e-06 -0.0014968168
000290 91 f4 89 ba 0c d0 04 bb 3d 55 91 ba 86 d6 f0 36
       -0.0010525157 -0.0020265607 -0.0011088025 7.177531e-06
0002a0 3b b0 f6 ba 49 3d 95 ba a0 27 b2 38 1f 0a 93 ba
       -0.0018820831 -0.0011386062 8.495082e-05 -0.0011218226
0002b0 33 d0 36 ba ac 10 d0 ba 88 fe 8e ba fe 8c bf 39
       -0.0006973773 -0.0015874109 -0.0010909596 0.00036535406
0002c0 fd 80 f5 b9 a1 9f bb 3a 36 bc 70 b8 82 cf 78 ba
       -0.00046826145 0.0014314541 -5.7395744e-05 -0.00094913703
0002d0 8e 5d 95 ba be c8 cc 3a 48 1b 35 3b 1b 59 8f ba
       -0.0011395679 0.0015623791 0.002763467 -0.001093659
0002e0 33 87 89 ba bc 40 91 ba dc 20 7f 3a a3 9e 01 3a
       -0.0010492563 -0.0011081914 0.00097323745 0.0004944598
0002f0 94 f4 3a 3b 17 57 f7 35 8d 84 8a ba a0 ea 87 ba
       0.0028527128 1.842828e-06 -0.0010568068 -0.0010369606
000300 ff e1 94 31 f0 08 03 34 e9 d8 aa b0 32 97 41 b7
       4.3330597e-09 1.2203577e-07 -1.2430778e-09 -1.1538899e-05
000310 a9 7f b9 b1 eb 56 f6 b5 26 79 cb b3 5e 9e a7 b2
       -5.398722e-09 -1.8353725e-06 -9.474961e-08 -1.9513376e-08
000320 80 1d 8f 33 6e 67 41 33 0f 4a 34 36 d5 8a 07 34
       6.6643224e-08 4.5030383e-08 2.6865198e-06 1.2623362e-07
000330 c2 0a ab b3 80 d9 1a b7 34 f1 b3 33 ae a9 f0 b5
       -7.964765e-08 -9.229756e-06 8.3792116e-08 -1.7930777e-06
000340 12 91 49 35 d9 bf d3 36 95 79 a6 b6 ee 7c cc 33
       7.508944e-07 6.310624e-06 -4.9613395e-06 9.522215e-08
000350 1d 62 07 b4 b7 fa 7b 34 7c 81 29 b6 59 2e 0c 34
       -1.2608548e-07 2.3467406e-07 -2.5258332e-06 1.3055377e-07
000360 92 3d 1d 34 51 8c 26 34 04 0d a7 33 22 f4 2f 34
       1.4644164e-07 1.5511002e-07 7.778911e-08 1.638696e-07
000370 62 55 dd 36 cf 3b 27 31 1d 01 a8 33 07 45 1b 34
       6.596253e-06 2.4335696e-09 7.823312e-08 1.4460612e-07
000380 52 11 af 1d fb 7d 25 a0 ae a8 1b 9b 4e 7a d9 a2
       4.6340023e-21 -1.4017727e-19 -1.2875803e-22 -5.8947463e-18
000390 28 2e 4d 9f c6 63 aa 23 7b e5 9a a0 21 ed 0d 1f
       -4.3448618e-20 1.8473693e-17 -2.6240472e-19 3.005406e-20
0003a0 87 03 2d 1e ab 7d 6f 9f c6 18 6a a5 1d 65 d3 9f
       9.159273e-21 -5.071417e-20 -2.0304658e-16 -8.9529254e-20
0003b0 9d f7 fa a0 e4 4b f2 22 a7 f9 24 a0 74 05 1c 23
       -4.2515504e-19 6.5674584e-18 -1.3973943e-19 8.457932e-18
0003c0 36 72 59 a3 2c d8 a3 23 66 e5 42 a3 fd 65 4f 1f
       -1.1787779e-17 1.7764048e-17 -1.0565338e-17 4.3918318e-20
0003d0 be d4 11 a1 ec b8 85 a4 7b 21 81 a2 b7 33 18 a0
       -4.9409473e-19 -5.7992825e-17 -3.500097e-18 -1.2892012e-19
0003e0 4f 86 e3 a0 8e 85 de 9e aa ea e3 9f 9f d7 b0 a1
       -3.8544174e-19 -2.3560401e-20 -9.652646e-20 -1.1983298e-18
0003f0 86 45 ea a3 da b0 78 9e e5 bc 95 9f 28 65 87 a0
       -2.5399775e-17 -1.3165583e-20 -6.3416454e-20 -2.293683e-19

hidden_layers_x.6.fc.1.weight f4 [32]
000000 d8 86 da 25 39 85 ce b7 50 f0 82 30 1d 76 2f 3a
       3.7908345e-16 -2.461915e-05 9.527046e-10 0.00066933205
000010 b9 05 c8 b0 d1 a8 8c 3a 12 cf 02 38 93 12 cf 25
       -1.4553542e-09 0.0010731464 3.1187265e-05 3.5921362e-16
000020 b3 27 11 3b c6 74 10 b8 59 62 fd 3a 76 32 d2 39
       0.0022148907 -3.444103e-05 0.0019331678 0.00040091918
000030 8b 4d cb 38 41 bd 0c 3a e5 40 fc b4 11 b8 2a b7
       9.694238e-05 0.0005368777 -4.6985875e-07 -1.0175646e-05
000040 c8 f9 75 3b ae 70 02 3b 69 c3 ce 39 ea 49 5e b9
       0.0037532914 0.0019903588 0.00039436974 -0.00021199105
000050 4c e0 86 39 07 b9 30 3b 86 e8 4d b9 f3 b2 9b 33
       0.00025725586 0.0026965754 -0.00019636945 7.2503006e-08
000060 1a 70 fa b2 ec 81 58 2e c7 1b e9 3a 6f ae 0b 3a
       -2.9154808e-08 4.9228108e-11 0.0017784768 0.0005328422
000070 0a 21 06 bb 93 66 f0 b0 9c 99 48 a9 39 16 17 b3
       -0.002046647 -1.7491452e-09 -4.4542156e-14 -3.517764e-08

hidden_layers_x.6.fc.1.bias f4 [32]
000000 8d e1 97 b9 75 ff d4 ba ad 64 65 b9 98 00 43 3c
       -0.00028969013 -0.0016250449 -0.00021876646 0.011901997
000010 0e 77 1d bb 8c 0e 39 3c 6c 61 1e bb 38 f3 18 bb
       -0.002402726 0.011294972 -0.0024166955 -0.002333833
000020 98 57 c5 b9 ae a9 97 bb 5c e6 17 3b e6 9e 4b bb
       -0.0003764003 -0.0046283817 0.0023178076 -0.0031070053
000030 bd 2a 11 ba ba 7e 9a 3b dd b9 18 bb 3d d9 ef 3b
       -0.00055376795 0.004714814 -0.0023304143 0.007319598
000040 ee 6f 29 3b d3 83 1a 3c 1c c3 33 3c c0 84 43 ba
       0.0025854069 0.009430843 0.010971811 -0.0007458441
000050 52 f1 02 bc 9b 2c 7b 3c e5 06 fd 3b 86 52 81 bb
       -0.007992106 0.015330459 0.007721769 -0.003946605
000060 97 a3 1b bc 80 29 c9 bb 6b 91 23 bb c0 30 b1 3a
       -0.009499452 -0.0061389804 -0.0024958502 0.0013518557
000070 7d 11 df 3b a6 e4 59 b9 65 25 83 bb 8c e4 89 bb
       0.0068075047 -0.00020779911 -0.0040022605 -0.004208153

hidden_layers_x.6.fc.1.running_mean f4 [32]
000000 5a 58 c8 a4 1a 3d 95 35 b4 1c 71 ad bd 30 16 39
       -8.688585e-17 1.1119148e-06 -1.3705637e-11 0.00014323271
000010 56 da d7 2d 61 be 3f b8 a8 be 90 b4 3c f8 17 a2
       2.453963e-11 -4.5715253e-05 -2.696081e-07 -2.059573e-18
000020 18 87 87 b9 de 9b 95 35 3c 70 15 38 80 78 3c b6
       -0.0002584986 1.1146728e-06 3.5628895e-05 -2.8084323e-06
000030 b1 fc e0 b7 d7 cb a2 b8 17 1b 18 b1 f3 f1 3d b5
       -2.682055e-05 -7.76273e-05 -2.213431e-09 -7.076007e-07
000040 cf 04 61 b8 08 e2 9b b7 36 5e ef 36 d8 72 0b 35
       -5.364866e-05 -1.8582694e-05 7.1337226e-06 5.1948655e-07
000050 e6 7c eb b4 65 d7 35 39 a9 7b b5 38 8d 50 3b 30
       -4.3863037e-07 0.00017341746 8.653786e-05 6.8144673e-10
000060 0b 5f 85 af cc f4 dd 2b e0 c3 ec b7 41 13 99 b8
       -2.426009e-10 1.5770939e-12 -2.8224604e-05 -7.299195e-05
000070 3d 77 4e b9 31 e9 80 ac 82 47 8e 2a 50 55 8b b0
       -0.0001969011 -3.6638683e-12 2.5273886e-13 -1.0137828e-09

hidden_layers_x.6.fc.1.running_var f4 [32]
000000 69 60 1d 0c 3c a8 11 2c 95 db 61 1d 0b 0f 34 32
       1.2123852e-31 2.0699128e-12 2.9892023e-21 1.0480799e-08
000010 6c a8 4c 1d 03 5f a7 33 4a 97 38 2a 07 a3 8a 04
       2.7086247e-21 7.793826e-08 1.6394972e-13 3.259336e-36
000020 38 f6 62 33 02 03 e9 2c e1 57 27 33 e9 a6 ca 2f
       5.284366e-08 6.6225922e-12 3.8962643e-08 3.6862183e-10
000030 e8 43 45 30 91 41 d8 31 8a 83 46 25 5c 14 69 2c
       7.1764683e-10 6.2938814e-09 1.721833e-16 3.3122593e-12
000040 30 a5 d0 33 38 49 a6 32 78 d5 40 32 17 50 96 2c
       9.715802e-08 1.935824e-08 1.1224408e-08 4.272148e-12
000050 d6 3f cc 2c 74 6a 5c 34 9b dc 8f 32 c7 83 9d 22
       5.805116e-12 2.0527824e-07 1.674771e-08 4.269446e-18
000060 6a 3d 51 21 6e f9 3e 19 8b e0 d8 30 37 1f ac 32
       7.0893235e-19 9.873142e-24 1.5779887e-09 2.003763e-08
000070 e0 0c 8e 32 53 cb c4 1a c5 87 f9 15 87 20 c9 22
       1.653683e-08 8.139219e-23 1.00784506e-25 5.45156e-18

hidden_layers_x.7.weight f4 [2, 32]
000000 d0 01 00 00 29 fb 43 34 0c 02 00 00 5e 3f e6 35
       6.5e-43 1.8252162e-07 7.34e-43 1.7154778e-06
000010 f2 77 45 34 58 75 b7 37 7b de 74 34 b5 d9 d7 23
       1.839069e-07 2.1869942e-05 2.2805209e-07 2.340255e-17
000020 95 29 a4 35 49 1e 84 35 ff 77 41 0e ce a0 7e 35
       1.2231054e-06 9.84358e-07 2.3846863e-30 9.4856375e-07
000030 6d e5 a9 36 48 45 40 33 38 2b 4d 34 5c 44 a2 0c
       5.063301e-06 4.4766495e-08 1.9107836e-07 2.5001194e-31
000040 68 42 08 35 56 49 d0 36 fa 93 b5 36 75 df 8e 36
       5.076058e-07 6.2074205e-06 5.411447e-06 4.2579436e-06
000050 6f c8 75 36 c5 dc a8 37 7a 80 b1 36 0d 05 63 34
       3.6624513e-06 2.0129964e-05 5.2899677e-06 2.114286e-07
000060 e2 09 99 35 ee e5 6c 34 60 e4 4b 39 a6 2b 77 37
       1.1402265e-06 2.206286e-07 0.00019444665 1.473251e-05
000070 0a 01 00 80 f6 02 00 00 ec 33 a6 35 48 76 8e 35
       -3.73e-43 1.062e-42 1.2383075e-06 1.0614249e-06
000080 31 54 8e b9 5e e6 35 3d d4 df 54 3a 69 e8 3b 3d
       -0.00027147078 0.04440915 0.0008120511 0.04587594
000090 fb c6 2e 3d e9 cf 40 3d ee 46 3e 3d 22 eb b6 3b
       0.04267023 0.04707328 0.046454363 0.0055822292
0000a0 bf ab 40 3d 08 1f 39 3d 26 6e 1b ba 34 9c 32 3d
       0.04703879 0.04519561 -0.0005929194 0.043606
0000b0 91 24 3d 3d c9 cb b4 bc f2 f9 32 3d 5c 91 c5 bb
       0.04617745 -0.022069829 0.043695398 -0.006029291
0000c0 49 66 2d 3c 00 48 40 3d 8e 36 23 3d 58 9f 29 3d
       0.010583469 0.046943665 0.03984695 0.041411728
0000d0 14 4d 37 3d fa d2 2d 3d c3 f1 2e 3d a7 4f 3c 3d
       0.04475124 0.04243753 0.04271103 0.0459744
0000e0 81 c3 3f 3d 4e 90 3b 3d b5 06 a6 bd c6 bf 2d 3d
       0.046817306 0.045791917 -0.08106748 0.042419218
0000f0 38 72 86 3c 39 a0 bb 39 84 b9 3d 3d 5c c4 32 3d
       0.016411886 0.00035786795 0.0463195 0.043644294

hidden_layers_x.7.bias f4 [2]
000000 4f f3 11 3b d0 e2 7b 32
       0.0022270267 1.4661694e-08
