density_functional_approximation_dm21/checkpoints/NN_PBE/state_dict.pth (torch, 27307 bytes, 22 tensors)

hidden_layers.0.weight f4 [32, 7]
000000 fb 18 15 be 12 47 6e 3c 9c f9 37 3d ff 03 6c be
       -0.1456031 0.014543312 0.04491578 -0.230484
000010 c6 10 18 bd e0 60 87 3b 6a 1d 5b bd 53 93 7d bc
       -0.03712537 0.0041314214 -0.05349485 -0.015477019
000020 b5 e0 cc bb ad 73 b8 bb 93 60 22 3c b1 2b bb bb
       -0.006252373 -0.005629024 0.00991072 -0.0057119955
000030 46 34 26 bd 94 5f d0 bc 8a 5f 03 be 84 18 78 3e
       -0.040577196 -0.0254362 -0.12829414 0.24228102
000040 c0 83 10 3e 85 bd 31 3d ca 02 aa bd c5 c0 c0 bd
       0.14112759 0.04339363 -0.08301313 -0.09411768
000050 d3 68 0e be 33 41 6a bc 0b 53 44 bc 80 63 fa 3c
       -0.13907175 -0.014297771 -0.01198269 0.030565023
000060 d7 23 50 3d 73 31 34 3c 70 c0 3f 3c e1 c0 75 3c
       0.05081543 0.010998118 0.0117035955 0.014999599
000070 72 f9 2d be c7 5e 4b bd 8b 5f f3 3d 3f 50 1b be
       -0.16989687 -0.049650934 0.11883458 -0.1516733
000080 23 f3 81 3c 95 34 d0 bc d9 37 93 3d 9b fd e5 3b
       0.015863007 -0.025415698 0.071883865 0.0070187575
000090 1d 6d f1 3c 8b a2 12 3c 33 23 df 3c 18 66 da 3c
       0.029470975 0.008949886 0.027238464 0.02666001
0000a0 9c 7e 27 bd 6f 2c 86 3c e6 4c 8e 3d bf 89 23 bd
       -0.04089223 0.01637861 0.06948261 -0.039926287
0000b0 47 18 18 3e 38 bb 9e bc 09 68 f5 3d b8 24 8f 3c
       0.14853011 -0.019376382 0.11982734 0.017473564
0000c0 5f 93 58 3d e0 06 2e 3d 2f 49 6a bd 44 87 e5 bd
       0.05287492 0.042487025 -0.0571987 -0.112074405
0000d0 73 a6 29 be 35 d0 c4 bd 23 10 41 be b6 d0 1b bd
       -0.16567402 -0.09610025 -0.18853812 -0.03804084
0000e0 3f 60 ee bb cd 1e 1b 3d 5c 71 f3 3d b2 61 d6 3b
       -0.007274657 0.03787117 0.11886856 0.006542408
0000f0 40 28 9a bd f2 10 f9 bd ff 45 98 bd 58 58 a8 3d
       -0.07527208 -0.12161435 -0.07435226 0.08219975
000100 ec 80 31 3d 39 e6 d0 bd 28 50 45 3d c6 25 20 bc
       0.04333584 -0.102001615 0.048172146 -0.009774631
000110 b4 45 a6 3d 7e 57 df bc 7e e5 57 3e ef 9c 8a 3d
       0.081187636 -0.0272634 0.21083638 0.06768214
000120 f2 19 44 be b0 50 7a 3d f4 1d a9 bd 0a 3d 0d 3e
       -0.19150522 0.061112106 -0.08257666 0.13792816
000130 db 93 44 be b9 e3 b6 bc 48 6d 34 bd 04 c7 37 bb
       -0.19197027 -0.022325383 -0.04404953 -0.0028042207
000140 15 23 bd ba 19 74 ab 39 be f9 02 bb f7 76 d4 bc
       -0.0014430011 0.0003270216 -0.0019985284 -0.025935633
000150 9d 5d 5f 3c a6 65 4b 3c 06 36 b1 3a cb c9 99 3b
       0.013633159 0.012414372 0.0013520129 0.004693245
000160 4d ea 52 3c 94 ba 57 3d 17 35 4b 3d ce 69 ef 3c
       0.0128732445 0.05266817 0.049611177 0.029225256
000170 7d b2 d2 ba 78 3a 4d be fe 32 04 3e 62 40 b1 bd
       -0.0016074922 -0.20041835 0.12910077 -0.08654858
000180 d9 51 22 bd 67 90 3b be 49 95 90 bc 1f 9f a4 bc
       -0.039628837 -0.18316804 -0.01764931 -0.020095406
000190 c1 a7 eb 3c 68 df b9 3c 0f 21 40 3b 26 ea 57 3b
       0.028766515 0.022689536 0.002931658 0.003294596
0001a0 f9 39 e0 bb 95 ff f2 bd 8f 6c e4 bd 6d 47 c2 bd
       -0.0068428484 -0.11865155 -0.111535184 -0.0948628
0001b0 14 ce a1 bd c9 7a 13 3c 70 04 b0 3d 9a 47 31 3e
       -0.079006344 0.009001442 0.085945964 0.1731247
0001c0 3f 10 4a be 8b d5 96 bc 8a e0 82 3e b4 fd e4 bc
       -0.1973276 -0.018412372 0.25561935 -0.027953006
0001d0 99 6e 10 bd df e0 61 be 2f 29 cf 3c 43 56 02 bd
       -0.035261724 -0.22058438 0.025288193 -0.031820547
0001e0 8f 1e cb 3b df b8 1f bd e6 99 46 bc d7 c3 a1 bb
       0.006198711 -0.038994666 -0.012121653 -0.004936676
0001f0 0b d7 d1 bc e4 5c b9 3c 36 9b c9 bd 66 77 bf bd
       -0.025615236 0.022627302 -0.09844057 -0.09348945
000200 8e 5a 34 3e 07 c4 5b bd ff 64 c3 3d 85 44 46 be
       0.17612669 -0.053653743 0.09540748 -0.19362076
000210 11 89 eb bd 80 07 53 bd f5 20 a0 bd 82 fb 3a 3c
       -0.11500753 -0.051520824 -0.07818786 0.011412503
000220 28 d1 95 3d e2 9c 03 3d c8 60 8c bd ad 57 3d 3b
       0.07315284 0.032132037 -0.06854397 0.002889137
000230 78 46 0f 3d c0 03 17 3c 51 56 bf 3b 10 94 b3 3b
       0.034979314 0.009217203 0.005839147 0.005480297
000240 b0 2b f5 bb 5d db 05 3d 2e 42 2f 3c 6c 7e a8 bd
       -0.0074820146 0.032679904 0.010696931 -0.08227238
000250 b5 54 ad 3d d4 21 19 3e ff 75 87 bd d0 9a d1 3d
       0.08463422 0.1495431 -0.06614303 0.10234606
000260 94 18 ca bc 52 af 31 bc 3c 72 72 3c f6 95 01 3c
       -0.024669923 -0.010845022 0.014797743 0.007909289
000270 1a d6 b2 bb 25 89 c5 bb 84 a8 65 bb f8 a5 7c 3c
       -0.005457652 -0.006028312 -0.003504307 0.015420429
000280 62 82 80 3c 1a e5 28 bb 1c ea 68 3c 75 7e 0f bd
       0.015687171 -0.002577132 0.014215972 -0.03503271
000290 bc c4 a2 bc d8 99 10 3b dd 64 19 bd e4 0d b3 3b
       -0.0198692 0.0022064354 -0.037449706 0.0054643024
0002a0 e9 f2 fb bc be 19 33 3e 85 b4 d5 bd 9f b1 b1 bc
       -0.030755477 0.17490289 -0.10434822 -0.021691142
0002b0 9c 9d 9e bc b9 2a 9c 3d 52 45 39 bd 3c 0e 4a bc
       -0.019362263 0.07625336 -0.045232125 -0.012332495
0002c0 66 49 91 bc 66 67 19 bb 4e da 7a bb f7 da 74 bb
       -0.017735194 -0.0023407578 -0.0038277092 -0.0037361959
0002d0 5b 6f fe bc f3 1e 20 bd a1 3e 03 be 58 91 32 bd
       -0.031058958 -0.039092015 -0.1281686 -0.04359564
0002e0 31 c3 be 3d 31 2b 94 3d 00 d1 bb 3d db f6 cd bd
       0.093145736 0.072348006 0.09170723 -0.100568496
0002f0 3d ad 2c be 41 56 21 bc c9 d4 b2 3b 0d 18 ab 3c
       -0.1686296 -0.009847225 0.005457495 0.020885492
000300 6c d1 62 3c 9c 9b ff 3c b1 0b f9 3a 65 f0 2e 3c
       0.013843875 0.03120213 0.0019000677 0.010677432
000310 f8 e3 df bd 64 1e e8 bb 40 ad 17 3e 8d 94 b2 3c
       -0.109321535 -0.007083701 0.14812183 0.02179935
000320 23 11 01 be da c2 c3 bd 57 d0 b2 bd 5f 7c 8b bd
       -0.12604193 -0.09558649 -0.08731144 -0.06810831
000330 55 c5 d2 bc 58 1c f2 3b 13 3d ce bb 75 eb af 3b
       -0.02572886 0.0073886327 -0.0062939017 0.005368645
000340 be 18 e4 3b ad 82 23 ba 77 c4 15 3e b6 b3 7f bd
       0.0069609573 -0.0006237429 0.14625727 -0.062427245
000350 31 6d 12 be a6 af e0 bd 75 62 18 3b c1 18 dd bc
       -0.14299466 -0.10971002 0.0023252044 -0.026989343
000360 df dc b4 bc 43 13 92 bd 38 f8 91 3d be a8 38 be
       -0.022077976 -0.0713258 0.07127422 -0.1803312
000370 2a 6c 2d 3d d9 b3 3c be 83 17 86 3d ef 25 8e bd
       0.04233948 -0.18427981 0.06547453 -0.06940829

hidden_layers.1.weight f4 [32]
000000 fa c0 5e 3e 9a 93 21 bc aa 79 41 3e c7 16 87 3c
       0.21753302 -0.009861851 0.18894067 0.016490353
000010 ec ec 33 3e 45 1d cc 3c 94 18 4d 3b e7 e1 cc 3e
       0.17570847 0.0249163 0.0031295167 0.400161
000020 ac 9e c5 bc 3f 24 7f ba b5 b9 49 3d ae ce cd bc
       -0.024123512 -0.0009732879 0.04924937 -0.025122967
000030 48 ff 98 3c d1 ce d4 3d cd 8b ab bc 59 d2 da 3d
       0.018676415 0.103910096 -0.020940686 0.10684652
000040 5b 46 de 3e ec 70 93 bc 86 ce 16 3e 4e 9e 7c 3c
       0.43413052 -0.017998181 0.1472722 0.015418602
000050 36 21 ef 3b 9b e6 3d 3c 73 f2 df 3a dd 00 b1 bc
       0.00729766 0.011590625 0.0017085805 -0.021606857
000060 5e 64 0a 3e 48 57 b0 3b f5 0d b4 3c 5e d6 0b 3c
       0.1351485 0.0053814985 0.021979311 0.008534996
000070 9b 30 d3 3e 26 66 7a bb 6f 32 b5 3e ce ed 94 3d
       0.4124802 -0.0038207858 0.3539004 0.0727192

hidden_layers.1.bias f4 [32]
000000 1c 8f 3c bd e1 20 8d 3c 49 38 8f 3d 8e b6 a5 3d
       -0.046034917 0.017227592 0.069931574 0.0809146
000010 a6 0b b7 bc 47 5f 06 3d 8c 4a a4 3d 11 eb 89 bd
       -0.022344422 0.032805707 0.08022031 -0.067342885
000020 c4 ab 3a 3d bf ee a3 3d 89 07 b0 3b f1 53 10 3e
       0.045573965 0.080045216 0.005371992 0.14094521
000030 55 d9 7c 3d 84 8e c5 bc 66 f5 b6 bc 86 86 e0 bc
       0.0617307 -0.024115808 -0.022333812 -0.027407896
000040 d5 b4 48 bd 37 ce 94 3d e8 64 f0 bb 6f 4c fe 3a
       -0.04900058 0.07265895 -0.0073362477 0.0019401441
000050 69 23 ad 3d 67 c2 99 3d e2 bc e4 bb 6e cc b2 3d
       0.084540196 0.075077824 -0.0069805244 0.08730398
000060 d6 13 bd 39 28 46 59 3d 77 43 09 bc 9c bb 2f 3c
       0.00036063668 0.05304542 -0.008377901 0.010725882
000070 67 32 ee 3c c6 47 3c 3d 43 d6 1a bd 86 2d 22 bd
       0.029076768 0.045966886 -0.037801992 -0.039594196

hidden_layers.1.running_mean f4 [32]
000000 19 c3 eb be 07 e3 e0 bd 2c 11 6c bc df 83 e1 3d
       -0.46047285 -0.10980802 -0.014408391 0.110114805
000010 d9 70 4b be 91 dd be 3d 09 b5 e7 3e da 72 3e bf
       -0.19867267 0.09319604 0.45255306 -0.74394
000020 97 92 0a be f4 97 fc 3d 04 31 89 bc 82 a6 f7 bd
       -0.13532482 0.1233367 -0.016747005 -0.12092306
000030 4e b8 36 3e d5 8c f0 be a9 68 82 3c b2 3c 28 be
       0.17843744 -0.46982446 0.015919046 -0.16429403
000040 35 c6 78 be 06 d7 dd bd 3d cb 9c be 1f be ca bd
       -0.2429436 -0.10832028 -0.30623809 -0.09899544
000050 83 33 de 3d 3b 30 62 3e d8 95 3a 3d 26 82 b6 bd
       0.10849669 0.22088711 0.04555306 -0.089115426
000060 21 e6 eb 3c 5f 7e 08 be f1 2d 58 be 31 a2 bf 3d
       0.028796257 -0.13329457 -0.21111275 0.093571074
000070 2e ea 9f be b0 fc c9 bd a7 d2 84 be e7 f1 e0 be
       -0.31233352 -0.098626494 -0.25941965 -0.43934557

hidden_layers.1.running_var f4 [32]
000000 12 ad 27 3d df e7 13 3b a2 76 d8 39 5b e4 15 3b
       0.040936537 0.0022568626 0.0004128712 0.0022871706
000010 34 12 10 3c f9 62 dc 3a bf 54 0f 3d aa d7 cf 3d
       0.008793402 0.0016814164 0.03499293 0.101485565
000020 ef 4a 80 3b 56 2a 6f 3b 8d 70 29 3b c6 61 3d 3b
       0.003915183 0.003649374 0.002585444 0.002889739
000030 8b e8 c5 3b 6f 27 1d 3d c5 20 d6 38 de 7b 9d 3b
       0.006039684 0.038367685 0.00010210419 0.004806026
000040 30 fa 6e 3c e5 47 0c 3b 6f b6 bc 3c e9 44 1a 3b
       0.014586017 0.0021405157 0.02303621 0.0023539609
000050 c3 03 12 3b 57 d8 08 3c bc 92 d3 39 1a 77 c0 3a
       0.0022280074 0.008352361 0.00040354382 0.0014683933
000060 75 f7 9b 3a 35 0e 60 3b b6 cf 41 3c 75 ae cd 3a
       0.001189931 0.0034188156 0.011829307 0.0015692251
000070 75 5e 9e 3c 60 a8 fc 3a 5f b6 50 3c 6f ab 03 3d
       0.01933215 0.0019276254 0.012738793 0.032145914

hidden_layers.4.fc.0.weight f4 [32, 32]
000000 e3 4f ec ba 70 29 5c bd b2 93 64 bb 2e 7f d5 bc
       -0.0018029179 -0.053750455 -0.0034878072 -0.02606162
000010 14 10 68 3d 53 d5 e7 3c 48 b3 06 bc 94 4b 9a 3c
       0.05665596 0.028299963 -0.008221455 0.018834867
000020 5a de 8c 3c 20 cd 5e bc a3 f4 be bc 8e e4 76 bc
       0.01719587 -0.01359871 -0.023310011 -0.01506914
000030 08 ba d3 3c 10 42 96 3c 10 5f 22 3d bb aa 6d 3c
       0.025845543 0.018342048 0.03964144 0.014506037
000040 ac fe 0f bc 65 d8 0f bd 53 76 72 3c 65 20 c3 bc
       -0.008788746 -0.03511848 0.0147987185 -0.023819158
000050 57 52 b0 bb dd 44 0c bc cb 36 86 bd 9d 2b c6 3c
       -0.0053809094 -0.00856134 -0.0655342 0.024190718
000060 56 40 9d bb 06 f9 00 3b f5 25 26 3d 59 ed ee bc
       -0.004798929 0.001967968 0.040563542 -0.02916591
000070 06 57 6c 3b 0e 6d fb 3c b7 73 9b 3c 49 49 30 bc
       0.0036062612 0.03069165 0.018976076 -0.01075966
000080 1a 82 77 ba f4 e2 e6 3c 20 ca b4 bc 6b 12 ac 3c
       -0.0009441689 0.028184392 -0.022069037 0.021004876
000090 66 bf 72 bc ac 11 58 bc bc 41 9b bc aa de 73 bb
       -0.014816141 -0.013187807 -0.018952243 -0.0037211576
0000a0 43 9f b2 bc bb b7 cd bb bd 36 91 bc 45 03 9f 3c
       -0.021804458 -0.006278006 -0.017726297 0.019410739
0000b0 66 67 42 bd a3 5b fb bb 9e ae 4c 3c cf 19 1b 3d
       -0.04746189 -0.007670836 0.012492804 0.03786641
0000c0 e5 67 e0 b9 dd a6 99 bd 33 a2 9f bc a1 5f 18 bb
       -0.00042802017 -0.0750253 -0.019486522 -0.0023250359
0000d0 f7 3b b1 bc cb 1d 99 bb 13 85 48 bc 40 ec 30 bd
       -0.021635039 -0.004672741 -0.012238759 -0.043194056
0000e0 f7 cb eb 3b 51 69 9c bc 38 03 ef 3b ad bd d2 bc
       0.0071959454 -0.019093188 0.007294085 -0.02572521
0000f0 8f c8 07 bd 51 2e 28 bd 20 8b c5 bb 0b 8c a3 b9
       -0.033150252 -0.041059796 -0.006028548 -0.00031194123
000100 34 dd d3 ba 28 e8 03 bd 12 92 04 3d 0d a6 dd 3b
       -0.0016163946 -0.032203823 0.032365866 0.0067641796
000110 a2 94 3f 3d 38 6f 77 3d 84 13 ec 3c fe ea 21 3c
       0.046772607 0.0604088 0.0288179 0.009882687
000120 a8 c2 cc 3a 86 a1 06 3d c5 99 6a 3b e9 c5 7c 3c
       0.0015621977 0.032868885 0.003579722 0.015428045
000130 20 3e 69 3c 33 ff 10 bb 54 f1 50 bc 62 47 92 bc
       0.014236003 -0.0022124767 -0.01275285 -0.017856304
000140 9a c7 50 3d 4d c0 28 3c a2 2f a1 3a 80 6f 18 bb
       0.050971605 0.010299754 0.0012297521 -0.0023259819
000150 66 64 0a 38 b6 68 97 bb 61 0c c2 bc 0f f9 96 3b
       3.2995267e-05 -0.004620637 -0.023687543 0.004607327
000160 6c 9a 70 3d 25 a5 a6 bc 08 d7 ab 3d 89 5f a4 bc
       0.05874102 -0.020342419 0.08390623 -0.020065086
000170 7d b4 2f 3b 4f fa 87 3c ce 7c 9f bb cc 7d 38 bc
       0.002681046 0.016598849 -0.004867173 -0.011260461
000180 4a b3 61 bc f2 9a 25 bc 77 0a 9a ba 2a 6b d0 bc
       -0.013775656 -0.010107743 -0.0011752386 -0.025441725
000190 6a 9a 6a 3c 38 f0 ca 3b 3c 56 49 3d 5f 2e 9b 3c
       0.014319042 0.006193187 0.049154505 0.01894301
0001a0 6a 64 39 3d c3 9d c9 bb 6c 53 e6 3c 24 0b d2 bc
       0.045261778 -0.00615284 0.02811595 -0.025640078
0001b0 40 38 62 3d d9 13 9e 3b c5 3c 28 3a 4c f9 dc bc
       0.055229425 0.0048241434 0.0006417747 -0.026974343
0001c0 c6 f7 54 3a 2e ff 80 3a 12 10 17 3d 22 35 35 3c
       0.00081240793 0.0009841674 0.03688056 0.011060031
0001d0 30 28 46 3d f7 65 e2 3a 49 70 0c bc cd 7a 02 3d
       0.04837817 0.001727282 -0.008571693 0.031855393
0001e0 16 a5 12 3c 4a 85 89 bc 61 24 06 3d cf 03 75 bc
       0.008950492 -0.01678719 0.032749537 -0.014954521
0001f0 e1 a2 9f 3c 38 a8 ca 3c a5 9c b7 3c 10 f9 e8 bc
       0.019486846 0.024738416 0.022413561 -0.028439075
000200 df 3f a1 39 f6 92 d0 3c 8f 14 63 3b 43 4d 5c 3d
       0.000307559 0.025460701 0.0034649705 0.05378462
000210 8f 9e 81 bb 7a c2 03 3d 83 b1 2e bc 29 c1 e7 bb
       -0.0039556692 0.03216789 -0.010662439 -0.007072587
000220 b3 1b 19 bd 34 2e 07 3c d7 a4 d4 3c b6 08 ba 39
       -0.03737993 0.008250762 0.025957508 0.00035483175
000230 af b6 89 bc ca c9 6b bb 77 27 2e 3c 9b b0 61 3b
       -0.016810743 -0.003597843 0.010629526 0.003443754
000240 0a 26 02 3c 43 28 1d bd e9 77 20 bd f9 ae 0c bd
       0.0079436395 -0.038368475 -0.039176855 -0.034346554
000250 27 32 28 3b e9 15 38 bc c4 bd 70 bc 09 e4 12 bd
       0.0025664659 -0.011235693 -0.014693681 -0.035862003
000260 ea 40 c8 bc 03 4a 57 bc 4f 0f 14 3c 99 f0 3d bd
       -0.024445016 -0.013140204 0.009036853 -0.04637203
000270 ab 09 f3 bc 21 69 9b bc 1a b4 8d 3d 8b 7a 61 3b
       -0.029667696 -0.018971028 0.06919117 0.0034405317
000280 a5 c4 52 3c 6a 08 d9 3b ee 22 46 bd cb d9 d9 3c
       0.0128642665 0.0066233175 -0.048373155 0.02659311
000290 fb ee c4 3c fc 79 5f bd f2 8a b3 bc ac 8a 69 3b
       0.024039736 -0.054559693 -0.02191684 0.0035635633
0002a0 fc a4 6d bc ad c5 10 bc 07 7c 2f 3c 08 f4 c4 bc
       -0.014504667 -0.008836192 0.010710723 -0.024042144
0002b0 8b bf d3 bc b7 7b 83 bb cd 3c dd 3c 61 7a 31 3c
       -0.02584817 -0.0040125507 0.027006531 0.0108324
0002c0 b8 31 04 bb 37 d3 24 3d 2b 40 35 bb e6 11 6c bc
       -0.0020171236 0.040240493 -0.0027656655 -0.014408564
0002d0 f9 1a a5 bc 76 6f 50 bc aa 66 9e 3c 74 52 19 3d
       -0.020154463 -0.012721887 0.019336063 0.03743215
0002e0 db 27 16 bd 07 f6 74 3d 16 cf 0d bd e1 bd b3 3c
       -0.036659103 0.059804942 -0.03462132 0.021941127
0002f0 7b 06 4b bc 13 72 59 bc 9b 42 de 3c 44 28 0f ba
       -0.012391682 -0.013271826 0.02713137 -0.0005461017
000300 f2 91 41 bd 79 13 3d bc 0f 68 fd 37 68 43 20 bc
       -0.047258325 -0.011540287 3.0208406e-05 -0.009781696
000310 6b ae c1 3b ed 4d e2 3a a4 b1 1d 3b e5 55 6f 3c
       0.005910685 0.0017265655 0.002406218 0.014607881
000320 06 b9 76 3d aa ff f5 bc a7 98 45 3b a7 bf c5 3a
       0.060235046 -0.030029137 0.0030150802 0.0015087024
000330 a9 b8 c9 3c 9c 2d b3 bb c2 81 18 3b 60 b4 ac bc
       0.024624186 -0.0054680835 0.00232707 -0.021082103
000340 a9 bb 2b bd 20 09 e0 b9 19 df d1 bc 04 d3 7f bc
       -0.041927014 -0.00042731408 -0.025619077 -0.015614275
000350 90 da bb 3c 1b f9 90 3a 5e 01 a9 3b 2a f2 27 3d
       0.022931367 0.0011060567 0.0051576337 0.04100243
000360 f7 45 21 3c 4d 15 21 3b 29 19 f6 3b 8b cf e7 3c
       0.009843341 0.0024579347 0.0075103235 0.028297206
000370 8f 28 10 bd 38 5c 10 3d c4 46 0a bd 0d 11 bc 3b
       -0.03519493 0.035244197 -0.033758894 0.0057393373
000380 d5 7d 06 3d 8e 2a 4c 3d a2 31 98 3c e6 6f 02 3d
       0.032834847 0.04984527 0.018578354 0.031844996
000390 64 56 0b 3c 63 ec a1 3c c5 ed 01 bc f6 65 66 ba
       0.008504484 0.019766038 -0.007930224 -0.0008788997
0003a0 29 06 3a bd 1e cc ba 3c b9 b1 13 bc 85 07 13 3c
       -0.04541603 0.022802409 -0.00901454 0.008973961
0003b0 57 3a 0c bd 3e 4b 30 bb 35 91 9d 3c 9f cb 40 3d
       -0.034235325 -0.0026900317 0.01923428 0.04706919
0003c0 8f 6c 6a 3d d9 cf 37 bc b2 04 5b bb 43 80 e7 bb
       0.057232436 -0.011218988 -0.0033419547 -0.0070648505
0003d0 ce cd 7a bc 39 41 96 bc 65 a0 b4 3c e0 27 0b bd
       -0.015307857 -0.018341647 0.022049138 -0.033973575
0003e0 9c b2 10 3c b8 0d 0d 3c 08 ab 91 3c eb a7 28 3b
       0.008831646 0.008609228 0.01778175 0.0025734853
0003f0 42 14 f6 3c 13 21 04 bd 05 dd a5 3d b9 f6 85 3c
       0.030038957 -0.032258105 0.08098797 0.016352998

hidden_layers.4.fc.1.weight f4 [32]
000000 6c 02 68 bd 3a 8d 52 3d 01 95 5d bd 75 ce 6c bd
       -0.056642935 0.051404215 -0.05409718 -0.05781408
000010 00 d5 2c 3d f2 fb ba 3d d0 08 96 bc f9 c9 a9 3d
       0.04219532 0.09130086 -0.018314749 0.08290476
000020 bb 49 a5 3d 64 ff 38 bc 4e 3b 26 3d 2e e4 5e 3d
       0.080707036 -0.011291359 0.0405839 0.054416828
000030 b3 d3 86 bd e0 f6 7a 3d 89 07 f4 bb 1b d7 5e 3b
       -0.06583347 0.061270595 -0.0074471873 0.0034002725
000040 a7 73 b1 3d 8e 0f 6c 3d a7 98 11 bc cd ae 2f bc
       0.08664637 0.05763202 -0.008886493 -0.010722828
000050 72 ce 2c 3d 53 62 df 38 f9 7d 3f 3d 97 92 1c 3e
       0.04218907 0.00010651783 0.046750996 0.15290295
000060 0e ac 89 3d 13 98 78 bc 0a eb 8f bd 1b b1 10 3d
       0.0672227 -0.015172976 -0.07027252 0.03532515
000070 6b 58 be bb f7 f1 8b 3d 38 a2 15 bb fb 71 53 bd
       -0.00580888 0.068332605 -0.0022832286 -0.051622372

hidden_layers.4.fc.1.bias f4 [32]
000000 5f cf 5f 3d 66 fe 6b 3d 8b bc d5 3d f8 15 a8 3d
       0.054641124 0.05761566 0.10436352 0.08207315
000010 e5 8e 4f 3d 8c 28 73 3d 9c ce a2 3d 98 f1 e6 3d
       0.050673384 0.05936484 0.07949564 0.11276549
000020 52 f3 6a 3d 64 6a 83 3c 57 b5 c1 3d ee b4 01 3e
       0.057360955 0.016041942 0.09458416 0.12666675
000030 6c ab 10 3d e9 34 2c 3e f4 03 d9 bd 5d 1e 17 3c
       0.03531973 0.16817059 -0.10596457 0.009223548
000040 8e 84 4f 3d 24 b6 6b 3d 6f f4 65 bc e9 c4 5b 3d
       0.050663523 0.05754675 -0.014035328 0.053654585
000050 d1 79 b1 3d b0 ac 14 3d 36 17 8d 3d f6 df 80 3d
       0.08665813 0.0362975 0.06889193 0.06292717
000060 d3 02 07 3d 31 b3 4e 3d 8d 99 00 3d 91 87 8b 3d
       0.032961678 0.05046386 0.031396437 0.068129666
000070 48 a0 42 3c a1 b3 5f 3d 5f 9d 94 bc 8f 81 ba 3d
       0.011879034 0.054614667 -0.018141447 0.091067426

hidden_layers.4.fc.1.running_mean f4 [32]
000000 be a8 ee ba 21 ba bc bc 75 f2 b8 3c e4 2a 83 3c
       -0.0018208248 -0.023037972 0.02257655 0.016011663
000010 7e 7b bb bb 92 60 a5 bb 19 db 8a 37 8a b2 73 3c
       -0.0057215085 -0.0050469125 1.6552907e-05 0.01487411
000020 3d 1d 42 3c bc fb bd 3b 8f f6 70 bb ae 9d 2b bc
       0.011847791 0.0057978313 -0.0036768054 -0.0104746055
000030 bb fd 89 3c b0 fd 01 3b ca bc 5a bb 4d 8d 89 ba
       0.01684462 0.0019835047 -0.0033376687 -0.0010494381
000040 8f 33 72 bc 13 42 51 bc ed e8 1a 3c 01 bc ca 39
       -0.0147828 -0.012772101 0.009454948 0.00038668516
000050 0c a4 2d bc c2 27 6f bc c6 cd 68 bc c8 7f 39 bc
       -0.010598194 -0.014596881 -0.014209216 -0.011321969
000060 cd 73 0a 3b 80 25 34 3c c0 b9 2c 3c 6f c8 1f bc
       0.0021126152 0.010995269 0.010542333 -0.009752377
000070 e4 f9 5e 3c e5 70 4f 3b b8 44 d9 3b 83 82 a8 b9
       0.013609383 0.0031652984 0.0066305064 -0.00032140696

hidden_layers.4.fc.1.running_var f4 [32]
000000 3d cf bf 39 97 fb d6 39 df 3b 14 3a 47 5f dd 39
       0.00036584763 0.0004100471 0.00056546734 0.00042223392
000010 58 55 4a 39 d8 4a 34 39 13 1b 8e 3a 33 c8 f0 3a
       0.00019296014 0.00017194019 0.0010841809 0.0018370211
000020 48 a6 ac 3a d2 58 97 38 27 85 a7 39 80 78 0f 3a
       0.0013172114 7.216785e-05 0.00031951928 0.0005472973
000030 2f 1f ea 39 c4 9d 41 3a 73 9a 88 39 d2 1d c6 38
       0.00044655192 0.00073858746 0.00026055015 9.44693e-05
000040 d7 89 90 39 d4 ad ac 39 3b a9 80 39 04 b4 8a 39
       0.0002756852 0.00032935909 0.0002454015 0.00026455533
000050 92 9e f3 39 20 a3 25 39 20 c5 db 39 ca 6d 18 3a
       0.00046466716 0.00015796395 0.00041917805 0.00058146997
000060 fe 3e 18 39 05 83 9d 39 3a d0 37 39 b7 d6 76 39
       0.00014519316 0.0003004299 0.0001752981 0.00023540376
000070 ea 47 d8 39 51 25 63 3a 75 8d 9e 38 4c 1e 91 39
       0.0004125231 0.00086649234 7.5603755e-05 0.00027679128

hidden_layers.5.fc.0.weight f4 [32, 32]
000000 61 bb 47 bb 67 5e 03 3d 65 02 68 3d 21 a3 2f 3c
       -0.0030476677 0.03207245 0.05664291 0.010720045
000010 b0 95 a7 bc 3f 74 06 3d 53 4e d6 3c ef cf 38 3d
       -0.020457119 0.032825705 0.026160395 0.045120176
000020 5e 25 5f bd 76 99 7e bc c3 04 d0 b9 e2 cf d0 bc
       -0.054478996 -0.015539518 -0.000396764 -0.025489751
000030 b9 c3 9d bc 73 e5 c1 3c d3 6e 72 bc 81 0f be ba
       -0.019258367 0.02366898 -0.01479693 -0.001450047
000040 c1 f1 90 3c 80 c5 95 bb d6 7b 21 3c d8 52 57 3c
       0.017693402 -0.004570663 0.009856185 0.01314231
000050 90 bc 55 3b 50 16 2f 3c 7a f5 ed 3c 0e 2a 67 3c
       0.0032613613 0.010686472 0.029047716 0.014109148
000060 87 59 81 3c a2 cd cd bc 32 e2 49 bd ce e2 39 3d
       0.01578976 -0.025122467 -0.049287982 0.045382313
000070 6c 59 65 bc 79 28 ad bc 95 d7 53 bc 89 09 d2 bc
       -0.013998371 -0.021137463 -0.012929817 -0.025639312
000080 36 8d 27 3d 55 47 0e bd 73 4f a4 bc 9e b8 6c 3d
       0.040906154 -0.034735996 -0.020057416 0.057793252
000090 33 61 89 3c 89 e5 12 3d 5d 79 44 3d 00 00 af 3c
       0.016769981 0.035863433 0.047967304 0.021362305
0000a0 3e b9 82 ba d9 71 a4 3d 83 6c a1 3c 17 04 9c 3c
       -0.0009973419 0.08029527 0.019705063 0.019044919
0000b0 ed b8 d9 bc 18 85 12 3c 21 dd d9 3c f4 9f 22 3c
       -0.026577437 0.008942865 0.0265947 0.009925831
0000c0 a0 1b db bc 15 3f e0 bc 63 81 c6 3b 93 94 07 bd
       -0.026746571 -0.02737383 0.0060579046 -0.033100676
0000d0 e7 a6 92 3b d6 03 33 bc cc 9b 24 bd 87 76 87 bc
       0.0044754627 -0.0109262075 -0.040187642 -0.01653601
0000e0 1b f4 10 bd fe bd 50 3d bf 70 39 bc 6e 38 1c 3d
       -0.035389047 0.05096244 -0.011318385 0.038139753
0000f0 b7 ae 7c 3c c9 a8 c4 3a fc af 93 3d 72 f9 c4 bb
       0.015422515 0.0015003915 0.07211301 -0.0060111815
000100 fa 73 4a bc f3 07 94 3c c5 80 b1 3c 42 31 3c 3c
       -0.0123567525 0.018070197 0.021667847 0.011486353
000110 72 3b 56 bc a7 dd 64 3d 7c 4a a0 3c 32 29 d8 3a
       -0.013075696 0.055875447 0.019566767 0.0016491769
000120 05 ae 8a bc ef de fe bc d0 5d 31 bb 0d 64 49 bc
       -0.016928682 -0.031112162 -0.0027063973 -0.01229192
000130 81 29 e7 3b 7b 38 f6 3b 0a b8 ac bc da e5 21 3c
       0.007054508 0.007514057 -0.02108385 0.009881461
000140 72 16 5d bc ef a6 ac 3c d5 33 1c bd da ad 20 3d
       -0.013494121 0.021075694 -0.03813537 0.039228298
000150 d7 19 f2 3c 0c aa f0 bc 74 13 4b 3d 07 f8 90 bc
       0.029553337 -0.02937796 0.0495791 -0.017696394
000160 d2 7a 3b bc 29 59 15 ba 02 bc 20 bd 18 d5 92 3c
       -0.011442857 -0.0005697185 -0.0392418 0.017923877
000170 d4 75 d1 bc 9f 0a bb 3c 11 4a d5 bc 2f 75 00 3c
       -0.02556888 0.022832213 -0.026036294 0.007840439
000180 74 fa 67 bb 13 86 0b bd 07 75 d6 bc e9 a9 0d 3d
       -0.0035397084 -0.03406341 -0.02617885 0.034585867
000190 af ce e0 b8 e5 de 3e bd e5 cd ca 3b 72 b1 e6 bc
       -0.0001071965 -0.046599288 0.0061890953 -0.028160784
0001a0 d7 8b 94 bc b3 db 10 bc 7d 58 d4 3b 4c 04 95 bc
       -0.018133087 -0.008841443 0.006480275 -0.018190525
0001b0 70 25 0c bb 00 69 e8 3c 62 3d 10 bb 92 56 81 3c
       -0.002138462 0.02837038 -0.0022009243 0.01578835
0001c0 d2 f5 ac bc 71 5e 10 bd 42 c4 e1 bc c3 ae 49 bd
       -0.02111331 -0.035246316 -0.027559403 -0.04923893
0001d0 cb 59 93 bc a8 66 58 3c 7a 3c ad bc 2b 47 09 3b
       -0.017987153 0.013208069 -0.021147002 0.002094696
0001e0 52 a7 50 bb b7 77 0e bc d9 2d a2 3c 2f 6a e3 3c
       -0.0031838012 -0.008695534 0.019797252 0.027760593
0001f0 2a 42 be bc 90 95 8a bc 28 bd 0e bc 04 57 9a bc
       -0.023224909 -0.01691702 -0.008712091 -0.01884032
000200 84 0a 7d 3c 92 d1 83 bc 08 01 a0 3c 16 a0 54 3d
       0.015444402 -0.016091142 0.019531742 0.051910482
000210 48 2e 0d 3c 4b 8c d4 3a 5c 81 67 3d d7 91 74 bc
       0.008616991 0.0016216127 0.05651985 -0.014927349
000220 62 98 5d bc 5a 46 08 bd a2 2f 20 3d 58 63 16 bd
       -0.0135251 -0.033270217 0.039107926 -0.036715835
000230 be b5 ee bc 1e b6 25 3c c6 a3 2e 3c 77 8a b2 bd
       -0.029139396 0.010114221 0.010659164 -0.08717816
000240 6a 6c 0b bd 0a ba fc bc 5c 03 95 39 25 0c 0a bd
       -0.03403894 -0.03085043 0.00028421998 -0.03370299
000250 8d 19 f7 bc 7e 75 37 3c 91 83 29 bc 24 1f 3d bc
       -0.03016355 0.011197446 -0.010346309 -0.011543069
000260 4f 49 cb bb 9a 38 97 3c 1a 93 98 bc 3b 97 13 3c
       -0.0062038074 0.018459607 -0.018624831 0.009008224
000270 5e fc 55 3b 1b 09 7b bc 91 52 2e bd 62 be 85 bc
       0.0032651643 -0.015321995 -0.04255921 -0.016326133
000280 06 b4 fd bc 49 29 8e bc a3 24 60 bd b5 8b 6a bc
       -0.03096963 -0.01735367 -0.05472244 -0.014315535
000290 ab e8 d3 3c ad 35 2f bd 23 e6 1f 3b 1f 21 af bc
       0.02586778 -0.0427758 0.0024398647 -0.021378098
0002a0 53 d3 e0 3c 49 3e f3 3c eb 37 f3 bc 8e fa ba 3c
       0.027444517 0.029692786 -0.02968975 0.022824552
0002b0 4c ef bc 3c fd 49 1b bc f7 8e 8b ba 66 53 97 3d
       0.023063324 -0.009478089 -0.0010647465 0.07388954
0002c0 7f 22 31 3c ea 79 f0 bc 25 df 53 bd a5 d8 ef bc
       0.010811447 -0.029355008 -0.05172648 -0.029278109
0002d0 bd 34 ec 3b 10 32 a9 3b 3f d5 d3 bc c7 04 2d bc
       0.0072084353 0.0051634386 -0.02585852 -0.010560221
0002e0 bc 76 62 3b c6 b4 89 3d ab de af bc 7a 43 61 bb
       0.0034555634 0.06723933 -0.021468481 -0.0034372495
0002f0 ca dd 82 3c 9a a0 9f 3c 6a c5 52 3d e9 14 ba 3c
       0.015974898 0.01948576 0.0514578 0.022715049
000300 15 19 8d 3c fe c9 13 3d 7b 04 45 3d 1a 9c a7 bb
       0.017223874 0.036081307 0.048099976 -0.0051150443
000310 fd d8 9c 3c fe 55 19 3d 8c 1d 8a ba 7f b5 63 3c
       0.019146437 0.037435524 -0.001053737 0.0138982525
000320 65 a6 b9 bb f7 a4 d4 bc 60 06 1f 39 30 49 ed 3b
       -0.0056655877 -0.025957568 0.00015165797 0.0072413906
000330 f9 79 2e 3c 30 18 8b bc 37 18 28 bd a3 f0 4a bc
       0.010649198 -0.016979307 -0.041038718 -0.012386474
000340 aa d1 16 3d 3f 08 db 3c 82 fc 0e 3d 24 46 5d 3d
       0.036821045 0.02673733 0.03490878 0.05402197
000350 06 50 39 3d 2c 5c 29 3c af b4 12 3d 93 fa c3 3c
       0.045242332 0.010336917 0.035816845 0.023923194
000360 c1 08 04 3d 0f 2b 15 bc de e9 30 3b 7e 74 9b 3c
       0.03223491 -0.009104504 0.0026994864 0.018976446
000370 6c 26 43 3c c5 ca c1 3c 73 e0 ae bc 30 a7 15 3c
       0.011911016 0.023656258 -0.02134726 0.009134099
000380 ba 2a 82 bd 96 d6 cc 3c e0 24 13 3d 24 84 91 39
       -0.06355806 0.025004666 0.03592384 0.00027755008
000390 b5 75 20 bd da fc 45 bb 89 d6 94 bc 98 0a 46 3b
       -0.039174754 -0.0030210526 -0.018168705 0.0030218717
0003a0 b5 83 bb bc c8 79 b2 bb 0b 93 83 bc 9a 0e 4b bc
       -0.022889951 -0.0054466464 -0.016061326 -0.012393618
0003b0 92 91 00 3d 6d cd 29 bd db 67 e6 ba c1 ee 23 bd
       0.031388827 -0.041455675 -0.0017578559 -0.040022615
0003c0 78 29 e1 3c ce 2b df ba c7 34 13 bc 5b 59 2d 3c
       0.027485594 -0.0017026605 -0.008984751 0.010580386
0003d0 23 5b b1 bc 6c d6 39 bd 27 e0 03 bc fd 6e 9b bb
       -0.021649903 -0.045370504 -0.008049048 -0.0047434554
0003e0 d9 b0 78 3b c0 d9 97 bc 10 aa 2f bd e7 7e 2e 3c
       0.0037947206 -0.018536448 -0.042886794 0.010650373
0003f0 d7 26 bd bc ee fc 8d 3c 5a 19 22 bd b0 62 15 3c
       -0.02308981 0.01733252 -0.03957496 0.009117767

hidden_layers.5.fc.1.weight f4 [32]
000000 79 65 72 bd 0b 55 34 3e 39 bd 3f bd 0c 5c 63 3d
       -0.059178803 0.17610566 -0.046811316 0.055507705
000010 d0 18 43 3d 67 50 2c 3e 05 cd 81 bd 80 db a8 bd
       0.047631085 0.16827546 -0.063379325 -0.08244991
000020 d1 e2 48 3d 84 08 69 bc d0 5c 87 bd 1a 92 7d 3d
       0.049044434 -0.014223222 -0.066094995 0.06190691
000030 5a 2c 94 3c 01 07 7a 3d 3b b2 33 3c 10 49 02 ba
       0.018087555 0.061041836 0.010967786 -0.00049699936
000040 aa 70 98 3e 20 51 58 3d ff ca 2b 3a f6 a0 9c 3d
       0.29773456 0.05281174 0.0006553381 0.07647888
000050 21 e6 58 bd bd 0c 11 3d 39 f3 87 3d 8d 82 3d 3b
       -0.052953843 0.03541254 0.06638188 0.0028916926
000060 76 c7 f2 3c db b1 0c 3d 50 c6 b5 bc dc 8d b9 3b
       0.029636126 0.034349304 -0.02218929 0.005662663
000070 a0 f9 20 bc 57 da 30 3a ff 4b b2 3b 71 c7 64 bd
       -0.00982514 0.00067464024 0.0054411883 -0.055854265

hidden_layers.5.fc.1.bias f4 [32]
000000 57 33 24 3d 98 32 2b 3d cb 81 e8 3d e1 ad c0 3d
       0.040088024 0.041796297 0.11352881 0.09408165
000010 cd a7 6b 3d e4 80 2c 3d e6 f3 94 3d bf b6 b9 3d
       0.057533074 0.042115107 0.072730824 0.09068059
000020 b0 b2 5e 3d 7c dc c0 3d 45 cf 99 3d 72 0d f1 3d
       0.05436963 0.09417054 0.07510237 0.117701426
000030 6a 1e ae 3d 98 30 08 3e ac 2f a5 bd 70 98 fb bb
       0.08501895 0.13299787 -0.08065733 -0.007678084
000040 45 d0 bc 3c 1b 15 e4 3b b2 d3 1e bc 9c a8 5e 3d
       0.02304853 0.006960524 -0.009694027 0.054360017
000050 e1 f1 9b 3d 11 25 86 3d 34 59 80 3d 87 47 ae 3d
       0.07614494 0.065500386 0.06267014 0.085097365
000060 d5 6a ed 3d ac f1 a1 3d 52 7a 6c 3d 0c 69 99 3d
       0.11592642 0.079074234 0.05773384 0.07490739
000070 39 9e 81 bc f2 e3 01 bc 91 a0 b2 3b c8 90 cd 3d
       -0.015822517 -0.007927882 0.00545127 0.100373805

hidden_layers.5.fc.1.running_mean f4 [32]
000000 65 68 98 3c e7 4b d5 3c 62 c4 d0 3b 19 30 d3 bc
       0.018604467 0.02603717 0.006371067 -0.02577977
000010 22 4d 5f bc 20 bb 60 bb da 9a 36 3d 16 a3 b8 bc
       -0.01362923 -0.0034291223 0.04458127 -0.022538703
000020 43 ed e7 bb 19 8b 7c 3c 41 97 02 3d 2a 0b 12 bc
       -0.0070778443 0.015414023 0.03188253 -0.0089137945
000030 a7 91 b7 bb 3c 28 77 bc 11 7c 32 3d f9 c9 24 bc
       -0.00560208 -0.015085276 0.04357535 -0.01005792
000040 3b 09 13 3c e5 5f d3 3c 19 9c 86 3c 88 90 65 3b
       0.008974369 0.025802562 0.016431855 0.0035028774
000050 ca eb 03 3b 54 30 08 bd 15 80 74 bb 69 73 2a 3c
       0.0020129555 -0.033249214 -0.0037307788 0.0104034925
000060 c6 24 94 bc ef 7f c8 bc a7 f8 9e 3c aa 22 5f bc
       -0.018083941 -0.024475066 0.019405676 -0.013619104
000070 45 33 a4 ba 42 fd 06 3c f6 a1 13 bc ab 4b d2 3c
       -0.0012527487 0.008239092 -0.009010782 0.025670847

hidden_layers.5.fc.1.running_var f4 [32]
000000 35 ed e2 39 82 ab 34 3a 9b 82 16 3a bc a4 44 3a
       0.00043282812 0.0006892012 0.00057415076 0.0007501354
000010 23 42 16 3a 14 bc b4 39 53 2e 52 3a ef 77 01 3a
       0.0005731901 0.00034472405 0.0008017767 0.0004938831
000020 8c 1b bf 39 78 d4 9f 3a 43 f7 9c 39 d9 4e a5 39
       0.00036450883 0.0012194058 0.00029938863 0.00031529999
000030 58 25 b8 39 cb de f3 39 bb e5 bb 39 6e af 39 39
       0.00035123038 0.00046514565 0.00035838582 0.00017708328
000040 28 9f 43 3a 8b 6d 4f 3a 09 84 9e 39 d0 5c e1 39
       0.0007462376 0.00079127465 0.00030234482 0.00042984495
000050 fe 6c f2 39 91 40 ab 3a ba cd 05 3a 5d e3 5d 39
       0.00046239042 0.0013065507 0.0005104203 0.00021160902
000060 96 00 88 39 18 d6 92 3a a9 21 80 3a da 2d b5 39
       0.00025940378 0.0011202721 0.0009775657 0.00034557172
000070 d6 3b 11 39 2e 40 61 3a 3f ae 13 39 8d 4f d6 39
       0.00013850568 0.00085926324 0.00014083924 0.0004087653

hidden_layers.6.fc.0.weight f4 [32, 32]
000000 c0 26 8f bb 94 d8 a4 bc d5 3c 97 3c 97 d8 d1 bb
       -0.004368633 -0.020122804 0.018461624 -0.0064039933
000010 e5 3a e2 bc 5c 48 14 3c be 81 8c ba 11 d7 dc bc
       -0.027615974 0.009050455 -0.0010719819 -0.02695802
000020 91 77 5f 3b ab 4c 8d bd d8 d7 c6 3c c2 73 34 bd
       0.0034098367 -0.06899389 0.024272844 -0.044055708
000030 77 1e cb ba 48 59 ad bc de f0 ad bc 26 7c 96 bc
       -0.001549675 -0.021160737 -0.021233018 -0.018369745
000040 31 27 d9 3c 5f ca 86 3c 63 7f 8d bc 37 49 16 39
       0.026507946 0.01645392 -0.017272657 0.0001433239
000050 c7 37 c6 3c 8c 3d 1d 3c 7f de 1e bc 91 fe 9a bc
       0.024196519 0.009597193 -0.009696602 -0.018920215
000060 de 53 be 3b 1e 69 16 bd b2 75 6d bc 0e 49 0f bd
       0.0058083376 -0.03672134 -0.014493393 -0.03498178
000070 67 52 a4 bc 9f 5e c5 bc e1 ca 44 bd 78 72 06 3d
       -0.020058824 -0.02409297 -0.048045043 0.03282401
000080 fa ff e8 bc 7e 82 a7 3b 76 d9 67 3c e1 86 36 3c
       -0.028442372 0.0051119914 0.014150968 0.011140556
000090 c8 4b 6e bd 64 d9 c7 bb 64 39 2e 3b 24 d6 33 bb
       -0.05817774 -0.006098913 0.00265845 -0.002744087
0000a0 7b 09 c2 bc 19 88 bc ba c1 fc 27 bd 44 75 9b 3a
       -0.023686161 -0.0014383822 -0.04101253 0.0011860509
0000b0 60 e9 bd 3c 63 39 cd b8 46 e7 90 3c c8 a3 85 3b
       0.023182571 -9.785851e-05 0.017688405 0.004078362
0000c0 2d c3 fe bc 38 42 88 bd 38 f1 63 bd 4d 3c f7 3c
       -0.031098926 -0.06653255 -0.055649966 0.03018012
0000d0 43 fa 10 3c 85 8a dd bc 2e 5e 07 bd ae af 0a 3d
       0.00884873 -0.02704359 -0.0330488 0.033858947
0000e0 d2 0e 0b bb 60 2a f8 3c 9c c8 90 bc 27 fa 97 bd
       -0.002121855 0.030293643 -0.017673783 -0.0742076
0000f0 53 29 4a bd e4 37 d6 bb 4f b2 11 bd dd 52 70 3b
       -0.049355816 -0.0065374244 -0.03557044 0.0036670484
000100 22 99 91 bd 0c 50 73 bc a3 d2 96 bc c5 5d e4 3c
       -0.07109286 -0.014850628 -0.018410986 0.027876744
000110 bd 33 d4 3c 1a 87 9c 3c 2f f3 05 3c 74 83 06 3d
       0.025903577 0.01910739 0.008175655 0.032840207
000120 7a 91 4a 3c dc ff b4 3c 16 50 c7 bc 2d 67 60 3c
       0.012363786 0.02209466 -0.02433018 0.013696474
000130 0a ac 68 3c 3b a3 80 bc fe d6 34 3c 57 1f 8c bc
       0.014201174 -0.015702834 0.011037586 -0.017104788
000140 f9 33 19 bd f4 d4 f1 bb 17 f9 d3 bc 55 62 c6 3c
       -0.03740308 -0.0073801223 -0.025875611 0.02421681
000150 02 04 63 bc e9 a0 bc bc 7c 42 9f bc 75 06 06 bb
       -0.013855936 -0.023025947 -0.019440882 -0.0020450626
000160 8c b0 1d bc 8d 44 69 bc ea f3 46 3c a0 46 c8 3c
       -0.009624612 -0.014237535 0.012143115 0.02444774
000170 48 13 ed bc 57 93 6b 3c 17 6c 2c bd 8a 31 7b bc
       -0.028939858 0.01437839 -0.04209527 -0.015331635
000180 fb aa 0a bd c8 16 90 3c 45 4f 14 3d 7f 64 24 3c
       -0.033854466 0.017588988 0.03620841 0.010033726
000190 2f 94 8b bc 2d 52 fc 3c 1f d7 fc bb 07 49 61 bc
       -0.017038433 0.030800903 -0.007716074 -0.013750321
0001a0 15 09 f0 bb e6 52 0c 3c a4 4b bb 3c e0 ee a7 3b
       -0.0073253014 0.008564686 0.022863217 0.0051249117
0001b0 40 25 f5 3c ca 01 8e bc a8 4d 0a 3c 88 d6 c1 bd
       0.029924989 -0.017334837 0.008441366 -0.09464747
0001c0 19 54 a0 bc fb 40 0e bd de 2b 83 3a 66 c3 14 3c
       -0.01957135 -0.03472994 0.001000758 0.00907979
0001d0 81 0a a1 bc 71 de 55 bd f9 2f 17 bd f0 ef d1 bc
       -0.019658329 -0.05221409 -0.036910985 -0.025627106
0001e0 b1 53 13 3d 88 3f 62 bb 70 57 5a 3a 9d 67 cb 3b
       0.035968486 -0.003452273 0.0008329069 0.00620742
0001f0 84 db 04 ba d3 2c 46 bb 78 c6 36 bd e4 05 f4 bc
       -0.0005068111 -0.003023912 -0.04462287 -0.029787965
000200 be 9e 00 3c d6 e3 4e 3c 9d 34 aa 3d f4 59 9d bc
       0.007850347 0.0126275625 0.083108164 -0.019207932
000210 0a 2b 07 bd b5 12 51 3c d0 4f 0f 3c ad 72 b3 3b
       -0.03300003 0.012760808 0.008747056 0.005476317
000220 d3 68 4c bd 85 c4 aa 3c 95 e7 98 bb 04 4f 4a 3c
       -0.049904656 0.020845661 -0.0046662786 0.01234794
000230 20 ff bd 3c 91 c3 9c 3b 4d 17 bf b9 08 7b 65 bd
       0.023192942 0.0047840555 -0.0003644772 -0.056025535
000240 34 13 cc 3b e8 14 29 bd 68 41 18 3d 3c 3a 9e 3c
       0.006227875 -0.041279703 0.03717175 0.019314878
000250 a4 32 6e bb 9d c2 c4 bc b9 0e 00 bd 0c 24 89 bb
       -0.0036346102 -0.02401858 -0.03126404 -0.0041852053
000260 9f 15 db 3c 2d 3b 31 bc 51 69 80 3c df b6 43 bd
       0.026743708 -0.010817331 0.015675219 -0.04778182
000270 4d 75 68 3c 44 98 3c 3c fa a0 ac bc c0 5d ac bb
       0.014188123 0.011510912 -0.021072853 -0.0052601993
000280 f0 62 d5 3c d5 05 a2 3c fd 74 99 bc 60 78 64 bd
       0.026048154 0.019778172 -0.018732542 -0.05577886
000290 f6 5d 89 bc 44 c7 4d bd 54 44 5b 3b a8 d8 81 3c
       -0.016768437 -0.050238863 0.0033457475 0.01585038
0002a0 18 2d aa bc 48 75 16 bd ef 2e f5 bb 4c 5f 35 bc
       -0.020773456 -0.036732942 -0.0074824016 -0.011070084
0002b0 3c 16 2d bb 84 4d a3 3c 57 05 af bb fa 62 27 3d
       -0.0026410958 0.019934423 -0.0053412127 0.040865876
0002c0 72 c7 a2 3c cf 39 06 bd 0b a0 53 3c 28 17 87 bb
       0.019870494 -0.032769974 0.012916575 -0.0041226335
0002d0 c6 eb b9 3c 8d d9 ca b9 cd 3e 17 3c 58 cf fa bb
       0.022695433 -0.0003869053 0.0092312815 -0.007654112
0002e0 6e 2c d4 bb eb 37 1d 3b 99 7d 90 bc ae e7 5c bd
       -0.006475023 0.0023989629 -0.017638015 -0.053931884
0002f0 bc 7c 98 bc 04 82 d2 bb 7c f4 78 3d 15 91 b6 3c
       -0.018614165 -0.0064241905 0.060780033 0.022285977
000300 bc 15 42 3c e5 58 32 bc 96 36 fa 3c e9 41 3b bb
       0.011846002 -0.010885452 0.030543607 -0.002857322
000310 73 43 80 3c 73 d4 57 3b 4d ce 3f bc 3a b9 b5 3c
       0.015657162 0.0032933026 -0.011706901 0.02218305
000320 e9 97 aa 3b 8a a5 b0 bb 76 ff af 3b b8 33 9a bc
       0.0052060974 -0.0053908275 0.0053710295 -0.01882349
000330 73 3b 16 3c 7f cf 5c 3c 81 ff b6 3b c0 88 f3 3c
       0.009169447 0.013477205 0.0055846577 0.029728293
000340 25 be 06 3d 7c 63 84 3c c5 97 a1 3a b1 17 89 3a
       0.03289618 0.01616072 0.0012328556 0.0010459331
000350 fd 91 b8 3b ea 10 01 3c a9 61 9d 3b 8d 6b 04 3c
       0.0056326375 0.007877568 0.0048029018 0.008082283
000360 48 8d 81 3c 9e 63 18 bc b0 56 0a 3c ad 7b 28 bc
       0.015814438 -0.009301094 0.0084435195 -0.010283393
000370 8d 9e 33 bc 91 0a a1 3c 9b 8b 33 3d 2e c4 36 ba
       -0.010963094 0.019658359 0.04383431 -0.0006971982
000380 fb d4 cd 39 4e 2e 41 3c 41 2c 99 3c 33 13 19 3d
       0.0003925933 0.011790825 0.01869786 0.037371825
000390 07 a0 18 bd 50 72 92 3c f6 d5 ba bc c3 06 7b 3c
       -0.03726199 0.017876774 -0.022807103 0.015321436
0003a0 d4 ce 21 bd f0 52 86 3c f7 3c 11 bc 4a 5e 97 3c
       -0.039503887 0.01639697 -0.008864633 0.018477578
0003b0 df de 5b bc c1 17 5b bc 49 60 02 39 50 29 ce 3b
       -0.013419836 -0.013372363 0.00012433635 0.006291546
0003c0 7c 0c 31 bd 00 b3 74 bc 36 08 5f bd f8 03 36 3d
       -0.043224797 -0.014935255 -0.05445119 0.04443738
0003d0 19 1a 70 bc 3b 13 09 bd 35 2c 21 bd a5 b0 15 bb
       -0.01465466 -0.033465605 -0.0393488 -0.0022840884
0003e0 11 87 fc ba d3 b0 9a 3c cb 13 78 3c 7b cf 45 bd
       -0.0019266327 0.018883144 0.015141438 -0.048293572
0003f0 d9 47 19 bd ea 92 7e 3c ce bf 49 3b 90 4d 06 b9
       -0.037422035 0.015537957 0.003078449 -0.0001280813

hidden_layers.6.fc.1.weight f4 [32]
000000 7a 17 6a bd 36 bf 7e 3d 09 5a 0f 3d e0 8f 34 3d
       -0.057151295 0.06219407 0.034997974 0.044082522
000010 5c 8b 6b 3d eb e4 8f bd 0e 83 9f ba 71 9b e9 3d
       0.05750595 -0.070260845 -0.0012169795 0.11406601
000020 83 c9 6f bd f9 27 29 bd 50 4c ff 3c b6 d2 a4 bd
       -0.058541786 -0.041297887 0.031164318 -0.080480024
000030 82 cc 5f bd 5e 53 a0 3d 8b 7e 00 bd 3b 59 12 bd
       -0.054638393 0.07828401 -0.03137068 -0.035729628
000040 6a 3e d8 3d 87 4c 81 3d 07 8b 9c 3c ab 28 7c bd
       0.105587795 0.063134246 0.019109262 -0.06156222
000050 f4 43 1d 3d 99 0b 8b 3d a6 b5 2a bd 6c fc 2b 3d
       0.038394883 0.067893215 -0.04167714 0.041988775
000060 12 74 2a bd f2 17 2f 3d 64 7b 37 3d 68 b9 6d bd
       -0.0416146 0.042747445 0.04479541 -0.058038145
000070 35 15 03 bc aa 65 07 3d b8 65 b5 bc 8b be b5 3d
       -0.008000662 0.03305594 -0.02214323 0.08874234

hidden_layers.6.fc.1.bias f4 [32]
000000 3b 3a 00 3d 94 58 7f 3d 18 88 af 3d 2e 24 9b 3d
       0.031305533 0.062340334 0.0857088 0.0757526
000010 2a 9d 5d 3d a0 82 f1 3d 40 55 a4 bb 58 50 ee 3d
       0.05410496 0.11792493 -0.0050150454 0.11636418
000020 50 91 7c 3d c4 7b be 3d d3 a4 a7 3d 53 fe 04 3e
       0.06166202 0.0930095 0.081857346 0.12987642
000030 c0 5d ae 3d 3f 50 25 3e b3 75 cd bd 53 32 8e bc
       0.08513975 0.16143893 -0.10032215 -0.01735798
000040 a4 02 86 3d 02 b9 9b 3d 7a 58 75 3c 2f 8f 94 3d
       0.065434724 0.07603647 0.014974708 0.072538726
000050 03 b9 80 3d 26 35 91 3d eb 17 86 3d d4 21 83 3d
       0.06285288 0.070902154 0.06547531 0.064029366
000060 cd 3f e5 3d 11 ab 88 3d 3d 11 69 3d 75 7b bb 3d
       0.1119381 0.06673253 0.056901205 0.09154407
000070 61 6e a8 bc b4 f9 a3 3d 8f d8 cf 3b 18 5b 90 3d
       -0.020560445 0.080066115 0.0063429545 0.07048625

hidden_layers.6.fc.1.running_mean f4 [32]
000000 02 35 10 bd d9 7c 14 bd 34 f0 20 bc cb 5e 8b bc
       -0.035206802 -0.036251877 -0.009822894 -0.017012974
000010 33 2d 13 3c e3 ce a3 bc 64 9d ec 3c 52 e9 70 bc
       0.008982944 -0.019996112 0.028883643 -0.014704065
000020 97 66 af bb a5 25 10 3d 68 5d 7c 3c 92 9a a3 3c
       -0.005352806 0.03519215 0.015403129 0.019971166
000030 27 6b 76 3d e5 27 86 bc 5e 35 e9 3c f2 a1 ff bc
       0.060160782 -0.016376445 0.02846783 -0.031205151
000040 8a 67 4b 3d 1f 03 76 3c 41 5f bf 3a 95 10 0f 3d
       0.04965929 0.015015393 0.0014600531 0.034927923
000050 66 07 8d bc 82 08 19 3b 80 e5 c2 bc 8c de f8 bc
       -0.017215442 0.0023351018 -0.023791075 -0.030379556
000060 45 24 b8 3c 74 cf c3 bc 7e ba 0c 3c e2 6a fe bc
       0.022478232 -0.023902632 0.008589385 -0.031056825
000070 9f 19 3f bc 01 df d6 bc 99 25 f5 bc 17 a9 cb 3c
       -0.011663823 -0.026229383 -0.029925155 0.024860902

hidden_layers.6.fc.1.running_var f4 [32]
000000 2e 7f d9 39 99 2f ac 3a ba 43 6c 3a 98 e5 26 3a
       0.00041484222 0.0013136744 0.00090127776 0.00063666096
000010 7d 4d 1d 3a e4 a9 37 3a 93 1d e7 39 e4 63 28 3a
       0.00060006214 0.00070062117 0.00044081788 0.0006423576
000020 19 d1 f5 39 96 d2 e8 3a af 2c ee 39 f8 62 c6 3a
       0.0004688583 0.0017762955 0.0004542819 0.0015135696
000030 36 0f ef 3a 36 fb 5d 3a d8 0a 7d 39 a6 e7 e5 39
       0.0018238786 0.00084679143 0.00024132 0.00043850875
000040 17 22 9b 3a 6f 1a 02 3a 29 d8 86 39 b9 98 c2 3a
       0.0011835721 0.00049630454 0.00025719524 0.001484654
000050 52 9d b2 39 a0 e1 6a 3a 82 f9 45 3a 06 af 48 3a
       0.00034068018 0.00089600123 0.0007552133 0.0007655475
000060 ae ce 59 3a 50 2d c3 39 bf 19 17 3a 4a 6c ef 39
       0.0008308691 0.0003722706 0.00057640293 0.00045666314
000070 6c f8 35 39 40 d4 5b 3a 1b 69 a1 39 5d fb c1 39
       0.0001735405 0.0008385815 0.00030786623 0.0003699911

hidden_layers.7.weight f4 [24, 32]
000000 4a fd 1b 3b 7a 2c ec 3b be 96 52 bd af 0e cf 3b
       0.0023802095 0.0072074505 -0.05141329 0.006318889
000010 9d 8d 77 39 89 cf a8 bc e3 4f 51 3b 2e d7 ff 3b
       0.0002360851 -0.020606773 0.0031938485 0.007807634
000020 6b fb a7 3c c5 e7 9a 3b b2 de d1 38 5f fa dc bc
       0.020505628 0.004727336 0.00010007377 -0.026974855
000030 6f 08 da 3b f2 ea f0 bb da 5e e2 3c d2 85 a8 3c
       0.0066538374 -0.0073522264 0.02763312 0.020571623
000040 c3 42 03 bc be b2 7e 3c 67 f3 bf bb 11 b0 11 3b
       -0.008011523 0.015545545 -0.0058578732 0.0022230188
000050 bf fb 81 3c 6f cd 95 3b c2 b1 96 3c 19 de d4 3b
       0.015867112 0.0045716087 0.018395308 0.0064962027
000060 12 09 38 bc a1 6e 00 3b 5a 0c bb bb f8 15 31 3a
       -0.011232631 0.001959719 -0.0057082595 0.0006755288
000070 0c 1c 66 bb 9a 3e 8f 3c ba 3a e5 3a e0 e4 12 bb
       -0.0035111932 0.017485905 0.0017488815 -0.0022414252
000080 9c 7a fa bc e8 60 80 bd 5e 4b e8 bd ea 8f ed bd
       -0.030576043 -0.062684834 -0.113425 -0.11599715
000090 cd 27 ab bd 19 a4 a1 bd 49 35 01 be 0d 0b 3a bd
       -0.08357201 -0.07892627 -0.12617983 -0.045420695
0000a0 60 ca 84 bd 2e 63 f9 bd 30 e0 6d bd 80 8f 07 be
       -0.064839125 -0.1217712 -0.05807513 -0.13238335
0000b0 db e1 df bd d0 5f dd bd a7 17 ae 3d 1d 60 49 ba
       -0.109317504 -0.108092904 0.08500605 -0.00076818635
0000c0 7d d5 29 bd 9f 69 c2 bd cd 32 6c bc 2e d1 b9 bd
       -0.041463364 -0.09492802 -0.014416409 -0.09073101
0000d0 48 18 02 be c4 17 f2 bd 4f d0 ad bd f4 78 da bd
       -0.12704575 -0.11820939 -0.08486997 -0.10667601
0000e0 a3 93 40 bd 5a 03 0b be 2e 18 9e bd 24 fa c5 bd
       -0.047015797 -0.13575497 -0.07719456 -0.09666851
0000f0 ff bd 6a bc bf da c8 bd d8 aa 5b bc 48 ac b6 bd
       -0.014327525 -0.098073475 -0.013407432 -0.08919579
000100 a6 5c 88 bc 8e 86 ab 3c d0 a7 3f 3d c6 e8 47 3d
       -0.01664574 0.020938184 0.046790898 0.048805974
000110 ce f4 97 3c d6 27 c4 3c 70 8c 48 3d 5f ef 83 bc
       0.01854935 0.023944777 0.048962057 -0.016105352
000120 92 3b 78 3d d5 38 65 3d f3 69 dd 3c be 1f 06 3d
       0.060603686 0.055962402 0.02702806 0.032745115
000130 a9 d2 4d 3d 5b cb 8f 3c 41 8e 62 bd 6d e8 91 bc
       0.05024973 0.017553022 -0.055311445 -0.017811025
000140 57 41 72 3b 74 5d 41 3d d9 5d 14 3c 88 09 32 3d
       0.0036965215 0.047208264 0.009055578 0.04346612
000150 39 0a 53 3d a3 96 43 3d 9d bd 49 3d 0f 29 5b 3d
       0.05152342 0.04775108 0.049253095 0.053505953
000160 0f 21 c3 bb 88 00 50 3d 8a 54 2d 3d d2 ae 30 3d
       -0.0059548686 0.050781757 0.04231695 0.04313547
000170 05 68 5a 3b b9 ce 38 3d 1a 31 d2 bc b5 dc 0a ba
       0.003332616 0.04511902 -0.02565818 -0.000529717
000180 16 b1 c1 bd fa 11 0d 3e 28 2b a2 bb af 87 7e 3c
       -0.094576046 0.13776389 -0.0049489923 0.015535279
000190 96 a7 23 3e 8a 77 5e bd 79 dc 81 3c 8e 4e d3 3d
       0.15981898 -0.05431322 0.0158522 0.103177175
0001a0 dd de ae 3d ec 7f 8b 3c 50 06 40 bd 75 fb 03 bd
       0.085386015 0.017028771 -0.04688102 -0.03222223
0001b0 ee 8b 94 3c f0 e8 76 bc 7d 9e ba 3c ca a2 26 3c
       0.01813313 -0.015070185 0.022780651 0.010170648
0001c0 0a a2 b4 bd de 9b 7c 3c 78 58 3c bd 8e cf 85 3d
       -0.08819969 0.015418021 -0.045982808 0.065337285
0001d0 0a 9d 2c 3c 97 dd 91 3c c6 a7 85 3c 3d 01 6a 3c
       0.010535488 0.017805858 0.016315352 0.014282522
0001e0 fc 75 cc bd 1d b6 1e 3c a5 0d e8 3c b3 c1 cf 3b
       -0.09983441 0.009686974 0.028326819 0.0063402294
0001f0 82 99 d8 bd 99 97 c4 3c cc b4 17 bd 1f 45 bc bd
       -0.10576154 0.023998069 -0.037037656 -0.09192871
000200 e2 7c 8d 3b 89 31 52 3e 18 c1 55 3e 6b 1d d6 3d
       0.0043178657 0.20526709 0.2087444 0.1045483
000210 c6 a4 3a 3e 44 fc 54 3e e5 f6 a1 3d 83 58 ec 3d
       0.18226919 0.20799357 0.079084195 0.1154032
000220 1b 80 0e 3e 2e ef e2 3d 51 eb ae bd a9 8c 70 3e
       0.13916056 0.11080776 -0.08540977 0.23491158
000230 96 25 0e 3e 91 1f 1b 3e 02 5a a2 bc 33 a8 9d 3d
       0.13881525 0.1514876 -0.01981831 0.07698097
000240 83 14 7b bd 05 3f db 3d 20 fc 34 3e f9 c4 8e 3d
       -0.06129886 0.107053794 0.17674303 0.06971163
000250 c1 fb 28 3d c1 1d cf 3d 6b b5 22 3d 3b 44 dc 3d
       0.041255716 0.10113097 0.039723795 0.107552014
000260 a7 13 16 3e 6f 69 b0 3d 9b 79 ac 3d 0d ad 0e 3e
       0.14655934 0.0861386 0.08421632 0.13933201
000270 1e d7 d0 bd 6e fe c8 3d 2a d6 f8 bd dc e7 3a 3e
       -0.1019728 0.098141536 -0.121502236 0.1825251
000280 e4 a5 49 bd 0b 1a c2 3c f2 95 3b bc 2f 87 16 3d
       -0.04923047 0.023694059 -0.011449324 0.036750015
000290 88 c2 a0 3d c3 97 68 3b fe 85 fa 3c dc d8 92 bd
       0.07849604 0.0035490848 0.03058147 -0.07170269
0002a0 1c 72 27 3d a4 6c 83 3d 12 68 33 3e 5c ed 78 3d
       0.040880308 0.06417206 0.17520168 0.06077324
0002b0 63 1c 14 3d 26 ef 1d 3d 83 55 38 bd 35 c9 82 bd
       0.036159884 0.038558148 -0.045003425 -0.063860334
0002c0 b5 0c d1 3d a4 1a 86 3d b2 73 43 ba d3 15 d4 ba
       0.10207502 0.0654805 -0.00074558996 -0.001618082
0002d0 0c 2a d6 bc d8 a8 66 3d 8c 57 8f 3d 00 27 95 3d
       -0.026143096 0.056313366 0.0699912 0.07282829
0002e0 9e 8f 8a 3c 46 49 8d 3d 40 e4 55 3d 1d 17 9d 3d
       0.016914185 0.068987414 0.05221963 0.07670424
0002f0 ea d4 db bc 32 c6 06 3e 80 47 0b 3d 17 d5 e9 3d
       -0.026834924 0.13161543 0.034003735 0.11417597
000300 27 94 2b 3c 35 75 09 3c ce f0 27 bd 5f 80 cd 3b
       0.010472334 0.008389761 -0.041001134 0.0062714065
000310 66 8c 0c 3b ee 17 eb bc 5c 5b 3b 3c b2 6e 22 3b
       0.0021445989 -0.028697934 0.011435356 0.0024785218
000320 4c 22 92 3c 09 0f 36 3c f3 a2 e9 bc b1 1f 06 bd
       0.01783862 0.011111983 -0.028520083 -0.032745067
000330 60 3b 2e 3c b2 a1 83 bc 31 ed 23 3d 93 84 02 3d
       0.010634273 -0.016068313 0.040021125 0.031864714
000340 4f 88 16 bd 94 30 28 3c 77 46 0e bc 55 6a 81 ba
       -0.036751088 0.010265488 -0.008683792 -0.0009873608
000350 34 d5 2b 3c 74 f3 4f 3c 40 b8 84 3c 0f b3 0c 3c
       0.010487843 0.012692321 0.016201138 0.008587613
000360 42 51 59 bc 38 30 b5 3b 97 19 18 bc 77 58 43 bb
       -0.013264002 0.0055294298 -0.009283445 -0.0029807368
000370 19 e6 ba 3b c4 b1 8d 3c 52 5d 86 3c 4c 99 4c bc
       0.0057036993 0.01729668 0.01640192 -0.012487721
000380 4c 6a 36 3d cb 5c 57 3d 53 cd 27 3e d6 20 f8 3d
       0.044534966 0.05257873 0.16386919 0.12115638
000390 ce a0 9c 3d a9 3c eb 3c b0 84 10 3e 1f 40 d3 3d
       0.076478586 0.028715448 0.14113116 0.103149645
0003a0 1d d6 20 3e 7a f8 f4 3d 11 a0 0e 3c a6 db 25 3e
       0.15706678 0.11961456 0.008705155 0.1619707
0003b0 0b 69 e2 3d 39 11 e6 3d 11 67 ac bd 67 2d ed 3d
       0.110551916 0.11233754 -0.08418096 0.115809254
0003c0 05 68 a6 3d 0b 6d 01 3e ab 70 c6 bc ce d7 be 3c
       0.08125309 0.12639253 -0.024223646 0.023296263
0003d0 56 db d3 3d d9 20 16 3e 37 12 2f 3e 31 52 e5 3d
       0.103445694 0.14660968 0.17096792 0.111973174
0003e0 4f 38 f2 3d a8 b9 e7 3d 54 b1 d9 bb 01 65 f8 3d
       0.11827146 0.11314708 -0.0066434536 0.1212864
0003f0 c7 ff 9e bd cc 9d 09 3e 54 8b f2 bd 8f 16 28 3d
       -0.077636294 0.13439101 -0.11842981 0.04103714

hidden_layers.7.bias f4 [24]
000000 58 e7 e8 bb 76 01 7d be b1 4f 1e 3d 0b 57 44 3a
       -0.0071076564 -0.24707589 0.03865022 0.0007489777
000010 46 9f 86 3d 4b 5e 41 3d 34 22 d1 b9 43 6e c3 3d
       0.06573348 0.047209065 -0.0003988907 0.09542515
000020 98 a0 1b bd 3b 20 b7 ba 29 00 d6 3d e2 e1 01 be
       -0.03799495 -0.0013971397 0.10449249 -0.12683824
000030 0e 7c 40 3a fa 85 f3 3d 97 1b 5a be 64 1e 04 bc
       0.00073427043 0.118907884 -0.21299587 -0.008063886
000040 1f 44 ef 3c a9 00 bc bd e5 cd 23 bb 7a 3b b0 bc
       0.029207287 -0.091798134 -0.002499455 -0.021512736
000050 55 59 ea 3d e8 e5 ae 3a 49 5c 16 3e ac 15 cf 3b
       0.1144282 0.0013343664 0.14683641 0.006319722
